…
I0520 16:21:18.433799 25429 net.cpp:313] The NetState phase (0) differed from the phase (1) specified by a rule in layer accuracy
I0520 16:21:18.434031 25429 net.cpp:49] Initializing net from parameters: 
name: "VGG_ILSVRC_16_layer"
state {
  phase: TRAIN
}
layer {
  name: "data"
  type: "Data"
  top: "data"
  top: "label"
  include {
    phase: TRAIN
  }
  transform_param {
    mirror: true
    crop_size: 224
    mean_value: 104
    mean_value: 117
    mean_value: 123
  }
  data_param {
    source: "data/kaggle/kaggle_train_lmdb"
    batch_size: 48
    backend: LMDB
  }
}
layer {
  name: "conv1_1"
  type: "Convolution"
  bottom: "data"
  top: "conv1_1"
  param {
    lr_mult: 0
    decay_mult: 0
  }
  param {
    lr_mult: 0
    decay_mult: 0
  }
  convolution_param {
    num_output: 64
    pad: 1
    kernel_size: 3
  }
}
layer {
  name: "relu1_1"
  type: "ReLU"
  bottom: "conv1_1"
  top: "conv1_1"
}
layer {
  name: "conv1_2"
  type: "Convolution"
  bottom: "conv1_1"
  top: "conv1_2"
  param {
    lr_mult: 0
    decay_mult: 0
  }
  param {
    lr_mult: 0
    decay_mult: 0
  }
  convolution_param {
    num_output: 64
    pad: 1
    kernel_size: 3
  }
}
layer {
  name: "relu1_2"
  type: "ReLU"
  bottom: "conv1_2"
  top: "conv1_2"
}
layer {
  name: "pool1"
  type: "Pooling"
  bottom: "conv1_2"
  top: "pool1"
  pooling_param {
    pool: MAX
    kernel_size: 2
    stride: 2
  }
}
layer {
  name: "conv2_1"
  type: "Convolution"
  bottom: "pool1"
  top: "conv2_1"
  param {
    lr_mult: 0
    decay_mult: 0
  }
  param {
    lr_mult: 0
    decay_mult: 0
  }
  convolution_param {
    num_output: 128
    pad: 1
    kernel_size: 3
  }
}
layer {
  name: "relu2_1"
  type: "ReLU"
  bottom: "conv2_1"
  top: "conv2_1"
}
layer {
  name: "conv2_2"
  type: "Convolution"
  bottom: "conv2_1"
  top: "conv2_2"
  param {
    lr_mult: 0
    decay_mult: 0
  }
  param {
    lr_mult: 0
    decay_mult: 0
  }
  convolution_param {
    num_output: 128
    pad: 1
    kernel_size: 3
  }
}
layer {
  name: "relu2_2"
  type: "ReLU"
  bottom: "conv2_2"
  top: "conv2_2"
}
layer {
  name: "pool2"
  type: "Pooling"
  bottom: "conv2_2"
  top: "pool2"
  pooling_param {
    pool: MAX
    kernel_size: 2
    stride: 2
  }
}
layer {
  name: "conv3_1"
  type: "Convolution"
  bottom: "pool2"
  top: "conv3_1"
  param {
    lr_mult: 0
    decay_mult: 0
  }
  param {
    lr_mult: 0
    decay_mult: 0
  }
  convolution_param {
    num_output: 256
    pad: 1
    kernel_size: 3
  }
}
layer {
  name: "relu3_1"
  type: "ReLU"
  bottom: "conv3_1"
  top: "conv3_1"
}
layer {
  name: "conv3_2"
  type: "Convolution"
  bottom: "conv3_1"
  top: "conv3_2"
  param {
    lr_mult: 0
    decay_mult: 0
  }
  param {
    lr_mult: 0
    decay_mult: 0
  }
  convolution_param {
    num_output: 256
    pad: 1
    kernel_size: 3
  }
}
layer {
  name: "relu3_2"
  type: "ReLU"
  bottom: "conv3_2"
  top: "conv3_2"
}
layer {
  name: "conv3_3"
  type: "Convolution"
  bottom: "conv3_2"
  top: "conv3_3"
  param {
    lr_mult: 0
    decay_mult: 0
  }
  param {
    lr_mult: 0
    decay_mult: 0
  }
  convolution_param {
    num_output: 256
    pad: 1
    kernel_size: 3
  }
}
layer {
  name: "relu3_3"
  type: "ReLU"
  bottom: "conv3_3"
  top: "conv3_3"
}
layer {
  name: "pool3"
  type: "Pooling"
  bottom: "conv3_3"
  top: "pool3"
  pooling_param {
    pool: MAX
    kernel_size: 2
    stride: 2
  }
}
layer {
  name: "conv4_1"
  type: "Convolution"
  bottom: "pool3"
  top: "conv4_1"
  param {
    lr_mult: 0
    decay_mult: 0
  }
  param {
    lr_mult: 0
    decay_mult: 0
  }
  convolution_param {
    num_output: 512
    pad: 1
    kernel_size: 3
  }
}
layer {
  name: "relu4_1"
  type: "ReLU"
  bottom: "conv4_1"
  top: "conv4_1"
}
layer {
  name: "conv4_2"
  type: "Convolution"
  bottom: "conv4_1"
  top: "conv4_2"
  param {
    lr_mult: 0
    decay_mult: 1
  }
  param {
    lr_mult: 0
    decay_mult: 0
  }
  convolution_param {
    num_output: 512
    pad: 1
    kernel_size: 3
  }
}
layer {
  name: "relu4_2"
  type: "ReLU"
  bottom: "conv4_2"
  top: "conv4_2"
}
layer {
  name: "conv4_3"
  type: "Convolution"
  bottom: "conv4_2"
  top: "conv4_3"
  param {
    lr_mult: 0
    decay_mult: 0
  }
  param {
    lr_mult: 0
    decay_mult: 0
  }
  convolution_param {
    num_output: 512
    pad: 1
    kernel_size: 3
  }
}
layer {
  name: "relu4_3"
  type: "ReLU"
  bottom: "conv4_3"
  top: "conv4_3"
}
layer {
  name: "pool4"
  type: "Pooling"
  bottom: "conv4_3"
  top: "pool4"
  pooling_param {
    pool: MAX
    kernel_size: 2
    stride: 2
  }
}
layer {
  name: "conv5_1"
  type: "Convolution"
  bottom: "pool4"
  top: "conv5_1"
  param {
    lr_mult: 1
    decay_mult: 1
  }
  param {
    lr_mult: 2
    decay_mult: 0
  }
  convolution_param {
    num_output: 512
    pad: 1
    kernel_size: 3
  }
}
layer {
  name: "relu5_1"
  type: "ReLU"
  bottom: "conv5_1"
  top: "conv5_1"
}
layer {
  name: "conv5_2"
  type: "Convolution"
  bottom: "conv5_1"
  top: "conv5_2"
  param {
    lr_mult: 1
    decay_mult: 1
  }
  param {
    lr_mult: 2
    decay_mult: 0
  }
  convolution_param {
    num_output: 512
    pad: 1
    kernel_size: 3
  }
}
layer {
  name: "relu5_2"
  type: "ReLU"
  bottom: "conv5_2"
  top: "conv5_2"
}
layer {
  name: "conv5_3"
  type: "Convolution"
  bottom: "conv5_2"
  top: "conv5_3"
  param {
    lr_mult: 1
    decay_mult: 1
  }
  param {
    lr_mult: 2
    decay_mult: 0
  }
  convolution_param {
    num_output: 512
    pad: 1
    kernel_size: 3
  }
}
layer {
  name: "relu5_3"
  type: "ReLU"
  bottom: "conv5_3"
  top: "conv5_3"
}
layer {
  name: "pool5"
  type: "Pooling"
  bottom: "conv5_3"
  top: "pool5"
  pooling_param {
    pool: MAX
    kernel_size: 2
    stride: 2
  }
}
layer {
  name: "fc6"
  type: "InnerProduct"
  bottom: "pool5"
  top: "fc6"
  param {
    lr_mult: 1
    decay_mult: 1
  }
  param {
    lr_mult: 2
    decay_mult: 0
  }
  inner_product_param {
    num_output: 4096
  }
}
layer {
  name: "relu6"
  type: "ReLU"
  bottom: "fc6"
  top: "fc6"
}
layer {
  name: "drop6"
  type: "Dropout"
  bottom: "fc6"
  top: "fc6"
  dropout_param {
    dropout_ratio: 0.5
  }
}
layer {
  name: "fc7"
  type: "InnerProduct"
  bottom: "fc6"
  top: "fc7"
  param {
    lr_mult: 1
    decay_mult: 1
  }
  param {
    lr_mult: 2
    decay_mult: 0
  }
  inner_product_param {
    num_output: 4096
  }
}
layer {
  name: "relu7"
  type: "ReLU"
  bottom: "fc7"
  top: "fc7"
}
layer {
  name: "drop7"
  type: "Dropout"
  bottom: "fc7"
  top: "fc7"
  dropout_param {
    dropout_ratio: 0.5
  }
}
layer {
  name: "kaggle_fc8"
  type: "InnerProduct"
  bottom: "fc7"
  top: "kaggle_fc8"
  param {
    lr_mult: 10
    decay_mult: 1
  }
  param {
    lr_mult: 20
    decay_mult: 0
  }
  inner_product_param {
    num_output: 10
    weight_filler {
      type: "gaussian"
      std: 0.01
    }
    bias_filler {
      type: "constant"
      value: 0
    }
  }
}
layer {
  name: "loss"
  type: "SoftmaxWithLoss"
  bottom: "kaggle_fc8"
  bottom: "label"
  top: "loss"
}
I0520 16:21:18.434219 25429 layer_factory.hpp:77] Creating layer data
I0520 16:21:18.434823 25429 net.cpp:91] Creating Layer data
I0520 16:21:18.434841 25429 net.cpp:399] data -> data
I0520 16:21:18.434870 25429 net.cpp:399] data -> label
I0520 16:21:18.436307 25432 db_lmdb.cpp:35] Opened lmdb data/kaggle/kaggle_train_lmdb
I0520 16:21:18.446465 25429 data_layer.cpp:41] output data size: 48,3,224,224
I0520 16:21:18.493784 25429 net.cpp:141] Setting up data
I0520 16:21:18.493831 25429 net.cpp:148] Top shape: 48 3 224 224 (7225344)
I0520 16:21:18.493847 25429 net.cpp:148] Top shape: 48 (48)
I0520 16:21:18.493851 25429 net.cpp:156] Memory required for data: 28901568
I0520 16:21:18.493863 25429 layer_factory.hpp:77] Creating layer conv1_1
I0520 16:21:18.493888 25429 net.cpp:91] Creating Layer conv1_1
I0520 16:21:18.493896 25429 net.cpp:425] conv1_1 <- data
I0520 16:21:18.493909 25429 net.cpp:399] conv1_1 -> conv1_1
I0520 16:21:18.495240 25429 net.cpp:141] Setting up conv1_1
I0520 16:21:18.495257 25429 net.cpp:148] Top shape: 48 64 224 224 (154140672)
I0520 16:21:18.495261 25429 net.cpp:156] Memory required for data: 645464256
I0520 16:21:18.495276 25429 layer_factory.hpp:77] Creating layer relu1_1
I0520 16:21:18.495287 25429 net.cpp:91] Creating Layer relu1_1
I0520 16:21:18.495292 25429 net.cpp:425] relu1_1 <- conv1_1
I0520 16:21:18.495297 25429 net.cpp:386] relu1_1 -> conv1_1 (in-place)
I0520 16:21:18.495306 25429 net.cpp:141] Setting up relu1_1
I0520 16:21:18.495311 25429 net.cpp:148] Top shape: 48 64 224 224 (154140672)
I0520 16:21:18.495313 25429 net.cpp:156] Memory required for data: 1262026944
I0520 16:21:18.495317 25429 layer_factory.hpp:77] Creating layer conv1_2
I0520 16:21:18.495326 25429 net.cpp:91] Creating Layer conv1_2
I0520 16:21:18.495329 25429 net.cpp:425] conv1_2 <- conv1_1
I0520 16:21:18.495337 25429 net.cpp:399] conv1_2 -> conv1_2
I0520 16:21:18.495569 25429 net.cpp:141] Setting up conv1_2
I0520 16:21:18.495579 25429 net.cpp:148] Top shape: 48 64 224 224 (154140672)
I0520 16:21:18.495584 25429 net.cpp:156] Memory required for data: 1878589632
I0520 16:21:18.495591 25429 layer_factory.hpp:77] Creating layer relu1_2
I0520 16:21:18.495597 25429 net.cpp:91] Creating Layer relu1_2
I0520 16:21:18.495601 25429 net.cpp:425] relu1_2 <- conv1_2
I0520 16:21:18.495606 25429 net.cpp:386] relu1_2 -> conv1_2 (in-place)
I0520 16:21:18.495612 25429 net.cpp:141] Setting up relu1_2
I0520 16:21:18.495617 25429 net.cpp:148] Top shape: 48 64 224 224 (154140672)
I0520 16:21:18.495620 25429 net.cpp:156] Memory required for data: 2495152320
I0520 16:21:18.495623 25429 layer_factory.hpp:77] Creating layer pool1
I0520 16:21:18.495630 25429 net.cpp:91] Creating Layer pool1
I0520 16:21:18.495633 25429 net.cpp:425] pool1 <- conv1_2
I0520 16:21:18.495640 25429 net.cpp:399] pool1 -> pool1
I0520 16:21:18.495692 25429 net.cpp:141] Setting up pool1
I0520 16:21:18.495700 25429 net.cpp:148] Top shape: 48 64 112 112 (38535168)
I0520 16:21:18.495704 25429 net.cpp:156] Memory required for data: 2649292992
I0520 16:21:18.495707 25429 layer_factory.hpp:77] Creating layer conv2_1
I0520 16:21:18.495715 25429 net.cpp:91] Creating Layer conv2_1
I0520 16:21:18.495719 25429 net.cpp:425] conv2_1 <- pool1
I0520 16:21:18.495724 25429 net.cpp:399] conv2_1 -> conv2_1
I0520 16:21:18.496811 25429 net.cpp:141] Setting up conv2_1
I0520 16:21:18.496825 25429 net.cpp:148] Top shape: 48 128 112 112 (77070336)
I0520 16:21:18.496829 25429 net.cpp:156] Memory required for data: 2957574336
I0520 16:21:18.496839 25429 layer_factory.hpp:77] Creating layer relu2_1
I0520 16:21:18.496846 25429 net.cpp:91] Creating Layer relu2_1
I0520 16:21:18.496851 25429 net.cpp:425] relu2_1 <- conv2_1
I0520 16:21:18.496856 25429 net.cpp:386] relu2_1 -> conv2_1 (in-place)
I0520 16:21:18.496863 25429 net.cpp:141] Setting up relu2_1
I0520 16:21:18.496868 25429 net.cpp:148] Top shape: 48 128 112 112 (77070336)
I0520 16:21:18.496871 25429 net.cpp:156] Memory required for data: 3265855680
I0520 16:21:18.496875 25429 layer_factory.hpp:77] Creating layer conv2_2
I0520 16:21:18.496884 25429 net.cpp:91] Creating Layer conv2_2
I0520 16:21:18.496888 25429 net.cpp:425] conv2_2 <- conv2_1
I0520 16:21:18.496894 25429 net.cpp:399] conv2_2 -> conv2_2
I0520 16:21:18.499474 25429 net.cpp:141] Setting up conv2_2
I0520 16:21:18.499486 25429 net.cpp:148] Top shape: 48 128 112 112 (77070336)
I0520 16:21:18.499490 25429 net.cpp:156] Memory required for data: 3574137024
I0520 16:21:18.499495 25429 layer_factory.hpp:77] Creating layer relu2_2
I0520 16:21:18.499502 25429 net.cpp:91] Creating Layer relu2_2
I0520 16:21:18.499513 25429 net.cpp:425] relu2_2 <- conv2_2
I0520 16:21:18.499526 25429 net.cpp:386] relu2_2 -> conv2_2 (in-place)
I0520 16:21:18.499532 25429 net.cpp:141] Setting up relu2_2
I0520 16:21:18.499536 25429 net.cpp:148] Top shape: 48 128 112 112 (77070336)
I0520 16:21:18.499541 25429 net.cpp:156] Memory required for data: 3882418368
I0520 16:21:18.499543 25429 layer_factory.hpp:77] Creating layer pool2
I0520 16:21:18.499549 25429 net.cpp:91] Creating Layer pool2
I0520 16:21:18.499553 25429 net.cpp:425] pool2 <- conv2_2
I0520 16:21:18.499559 25429 net.cpp:399] pool2 -> pool2
I0520 16:21:18.499590 25429 net.cpp:141] Setting up pool2
I0520 16:21:18.499596 25429 net.cpp:148] Top shape: 48 128 56 56 (19267584)
I0520 16:21:18.499600 25429 net.cpp:156] Memory required for data: 3959488704
I0520 16:21:18.499603 25429 layer_factory.hpp:77] Creating layer conv3_1
I0520 16:21:18.499611 25429 net.cpp:91] Creating Layer conv3_1
I0520 16:21:18.499615 25429 net.cpp:425] conv3_1 <- pool2
I0520 16:21:18.499621 25429 net.cpp:399] conv3_1 -> conv3_1
I0520 16:21:18.500406 25429 net.cpp:141] Setting up conv3_1
I0520 16:21:18.500418 25429 net.cpp:148] Top shape: 48 256 56 56 (38535168)
I0520 16:21:18.500422 25429 net.cpp:156] Memory required for data: 4113629376
I0520 16:21:18.500430 25429 layer_factory.hpp:77] Creating layer relu3_1
I0520 16:21:18.500437 25429 net.cpp:91] Creating Layer relu3_1
I0520 16:21:18.500440 25429 net.cpp:425] relu3_1 <- conv3_1
I0520 16:21:18.500445 25429 net.cpp:386] relu3_1 -> conv3_1 (in-place)
I0520 16:21:18.500452 25429 net.cpp:141] Setting up relu3_1
I0520 16:21:18.500457 25429 net.cpp:148] Top shape: 48 256 56 56 (38535168)
I0520 16:21:18.500459 25429 net.cpp:156] Memory required for data: 4267770048
I0520 16:21:18.500463 25429 layer_factory.hpp:77] Creating layer conv3_2
I0520 16:21:18.500471 25429 net.cpp:91] Creating Layer conv3_2
I0520 16:21:18.500475 25429 net.cpp:425] conv3_2 <- conv3_1
I0520 16:21:18.500481 25429 net.cpp:399] conv3_2 -> conv3_2
I0520 16:21:18.501759 25429 net.cpp:141] Setting up conv3_2
I0520 16:21:18.501770 25429 net.cpp:148] Top shape: 48 256 56 56 (38535168)
I0520 16:21:18.501775 25429 net.cpp:156] Memory required for data: 4421910720
I0520 16:21:18.501780 25429 layer_factory.hpp:77] Creating layer relu3_2
I0520 16:21:18.501788 25429 net.cpp:91] Creating Layer relu3_2
I0520 16:21:18.501792 25429 net.cpp:425] relu3_2 <- conv3_2
I0520 16:21:18.501797 25429 net.cpp:386] relu3_2 -> conv3_2 (in-place)
I0520 16:21:18.501803 25429 net.cpp:141] Setting up relu3_2
I0520 16:21:18.501808 25429 net.cpp:148] Top shape: 48 256 56 56 (38535168)
I0520 16:21:18.501811 25429 net.cpp:156] Memory required for data: 4576051392
I0520 16:21:18.501816 25429 layer_factory.hpp:77] Creating layer conv3_3
I0520 16:21:18.501823 25429 net.cpp:91] Creating Layer conv3_3
I0520 16:21:18.501827 25429 net.cpp:425] conv3_3 <- conv3_2
I0520 16:21:18.501832 25429 net.cpp:399] conv3_3 -> conv3_3
I0520 16:21:18.503113 25429 net.cpp:141] Setting up conv3_3
I0520 16:21:18.503128 25429 net.cpp:148] Top shape: 48 256 56 56 (38535168)
I0520 16:21:18.503131 25429 net.cpp:156] Memory required for data: 4730192064
I0520 16:21:18.503137 25429 layer_factory.hpp:77] Creating layer relu3_3
I0520 16:21:18.503146 25429 net.cpp:91] Creating Layer relu3_3
I0520 16:21:18.503151 25429 net.cpp:425] relu3_3 <- conv3_3
I0520 16:21:18.503155 25429 net.cpp:386] relu3_3 -> conv3_3 (in-place)
I0520 16:21:18.503164 25429 net.cpp:141] Setting up relu3_3
I0520 16:21:18.503168 25429 net.cpp:148] Top shape: 48 256 56 56 (38535168)
I0520 16:21:18.503171 25429 net.cpp:156] Memory required for data: 4884332736
I0520 16:21:18.503175 25429 layer_factory.hpp:77] Creating layer pool3
I0520 16:21:18.503181 25429 net.cpp:91] Creating Layer pool3
I0520 16:21:18.503185 25429 net.cpp:425] pool3 <- conv3_3
I0520 16:21:18.503190 25429 net.cpp:399] pool3 -> pool3
I0520 16:21:18.503221 25429 net.cpp:141] Setting up pool3
I0520 16:21:18.503227 25429 net.cpp:148] Top shape: 48 256 28 28 (9633792)
I0520 16:21:18.503231 25429 net.cpp:156] Memory required for data: 4922867904
I0520 16:21:18.503247 25429 layer_factory.hpp:77] Creating layer conv4_1
I0520 16:21:18.503255 25429 net.cpp:91] Creating Layer conv4_1
I0520 16:21:18.503259 25429 net.cpp:425] conv4_1 <- pool3
I0520 16:21:18.503265 25429 net.cpp:399] conv4_1 -> conv4_1
I0520 16:21:18.505904 25429 net.cpp:141] Setting up conv4_1
I0520 16:21:18.505923 25429 net.cpp:148] Top shape: 48 512 28 28 (19267584)
I0520 16:21:18.505928 25429 net.cpp:156] Memory required for data: 4999938240
I0520 16:21:18.505934 25429 layer_factory.hpp:77] Creating layer relu4_1
I0520 16:21:18.505941 25429 net.cpp:91] Creating Layer relu4_1
I0520 16:21:18.505945 25429 net.cpp:425] relu4_1 <- conv4_1
I0520 16:21:18.505952 25429 net.cpp:386] relu4_1 -> conv4_1 (in-place)
I0520 16:21:18.505959 25429 net.cpp:141] Setting up relu4_1
I0520 16:21:18.505964 25429 net.cpp:148] Top shape: 48 512 28 28 (19267584)
I0520 16:21:18.505967 25429 net.cpp:156] Memory required for data: 5077008576
I0520 16:21:18.505970 25429 layer_factory.hpp:77] Creating layer conv4_2
I0520 16:21:18.505977 25429 net.cpp:91] Creating Layer conv4_2
I0520 16:21:18.505980 25429 net.cpp:425] conv4_2 <- conv4_1
I0520 16:21:18.505987 25429 net.cpp:399] conv4_2 -> conv4_2
I0520 16:21:18.510538 25429 net.cpp:141] Setting up conv4_2
I0520 16:21:18.510568 25429 net.cpp:148] Top shape: 48 512 28 28 (19267584)
I0520 16:21:18.510572 25429 net.cpp:156] Memory required for data: 5154078912
I0520 16:21:18.510584 25429 layer_factory.hpp:77] Creating layer relu4_2
I0520 16:21:18.510596 25429 net.cpp:91] Creating Layer relu4_2
I0520 16:21:18.510601 25429 net.cpp:425] relu4_2 <- conv4_2
I0520 16:21:18.510607 25429 net.cpp:386] relu4_2 -> conv4_2 (in-place)
I0520 16:21:18.510615 25429 net.cpp:141] Setting up relu4_2
I0520 16:21:18.510619 25429 net.cpp:148] Top shape: 48 512 28 28 (19267584)
I0520 16:21:18.510624 25429 net.cpp:156] Memory required for data: 5231149248
I0520 16:21:18.510627 25429 layer_factory.hpp:77] Creating layer conv4_3
I0520 16:21:18.510637 25429 net.cpp:91] Creating Layer conv4_3
I0520 16:21:18.510640 25429 net.cpp:425] conv4_3 <- conv4_2
I0520 16:21:18.510645 25429 net.cpp:399] conv4_3 -> conv4_3
I0520 16:21:18.515548 25429 net.cpp:141] Setting up conv4_3
I0520 16:21:18.515583 25429 net.cpp:148] Top shape: 48 512 28 28 (19267584)
I0520 16:21:18.515586 25429 net.cpp:156] Memory required for data: 5308219584
I0520 16:21:18.515594 25429 layer_factory.hpp:77] Creating layer relu4_3
I0520 16:21:18.515604 25429 net.cpp:91] Creating Layer relu4_3
I0520 16:21:18.515609 25429 net.cpp:425] relu4_3 <- conv4_3
I0520 16:21:18.515617 25429 net.cpp:386] relu4_3 -> conv4_3 (in-place)
I0520 16:21:18.515626 25429 net.cpp:141] Setting up relu4_3
I0520 16:21:18.515631 25429 net.cpp:148] Top shape: 48 512 28 28 (19267584)
I0520 16:21:18.515635 25429 net.cpp:156] Memory required for data: 5385289920
I0520 16:21:18.515637 25429 layer_factory.hpp:77] Creating layer pool4
I0520 16:21:18.515643 25429 net.cpp:91] Creating Layer pool4
I0520 16:21:18.515648 25429 net.cpp:425] pool4 <- conv4_3
I0520 16:21:18.515653 25429 net.cpp:399] pool4 -> pool4
I0520 16:21:18.515686 25429 net.cpp:141] Setting up pool4
I0520 16:21:18.515694 25429 net.cpp:148] Top shape: 48 512 14 14 (4816896)
I0520 16:21:18.515697 25429 net.cpp:156] Memory required for data: 5404557504
I0520 16:21:18.515702 25429 layer_factory.hpp:77] Creating layer conv5_1
I0520 16:21:18.515709 25429 net.cpp:91] Creating Layer conv5_1
I0520 16:21:18.515712 25429 net.cpp:425] conv5_1 <- pool4
I0520 16:21:18.515720 25429 net.cpp:399] conv5_1 -> conv5_1
I0520 16:21:18.520192 25429 net.cpp:141] Setting up conv5_1
I0520 16:21:18.520218 25429 net.cpp:148] Top shape: 48 512 14 14 (4816896)
I0520 16:21:18.520222 25429 net.cpp:156] Memory required for data: 5423825088
I0520 16:21:18.520229 25429 layer_factory.hpp:77] Creating layer relu5_1
I0520 16:21:18.520238 25429 net.cpp:91] Creating Layer relu5_1
I0520 16:21:18.520242 25429 net.cpp:425] relu5_1 <- conv5_1
I0520 16:21:18.520249 25429 net.cpp:386] relu5_1 -> conv5_1 (in-place)
I0520 16:21:18.520265 25429 net.cpp:141] Setting up relu5_1
I0520 16:21:18.520278 25429 net.cpp:148] Top shape: 48 512 14 14 (4816896)
I0520 16:21:18.520282 25429 net.cpp:156] Memory required for data: 5443092672
I0520 16:21:18.520285 25429 layer_factory.hpp:77] Creating layer conv5_2
I0520 16:21:18.520293 25429 net.cpp:91] Creating Layer conv5_2
I0520 16:21:18.520297 25429 net.cpp:425] conv5_2 <- conv5_1
I0520 16:21:18.520303 25429 net.cpp:399] conv5_2 -> conv5_2
I0520 16:21:18.525046 25429 net.cpp:141] Setting up conv5_2
I0520 16:21:18.525074 25429 net.cpp:148] Top shape: 48 512 14 14 (4816896)
I0520 16:21:18.525079 25429 net.cpp:156] Memory required for data: 5462360256
I0520 16:21:18.525085 25429 layer_factory.hpp:77] Creating layer relu5_2
I0520 16:21:18.525094 25429 net.cpp:91] Creating Layer relu5_2
I0520 16:21:18.525099 25429 net.cpp:425] relu5_2 <- conv5_2
I0520 16:21:18.525106 25429 net.cpp:386] relu5_2 -> conv5_2 (in-place)
I0520 16:21:18.525115 25429 net.cpp:141] Setting up relu5_2
I0520 16:21:18.525118 25429 net.cpp:148] Top shape: 48 512 14 14 (4816896)
I0520 16:21:18.525122 25429 net.cpp:156] Memory required for data: 5481627840
I0520 16:21:18.525125 25429 layer_factory.hpp:77] Creating layer conv5_3
I0520 16:21:18.525135 25429 net.cpp:91] Creating Layer conv5_3
I0520 16:21:18.525138 25429 net.cpp:425] conv5_3 <- conv5_2
I0520 16:21:18.525143 25429 net.cpp:399] conv5_3 -> conv5_3
I0520 16:21:18.529587 25429 net.cpp:141] Setting up conv5_3
I0520 16:21:18.529615 25429 net.cpp:148] Top shape: 48 512 14 14 (4816896)
I0520 16:21:18.529620 25429 net.cpp:156] Memory required for data: 5500895424
I0520 16:21:18.529628 25429 layer_factory.hpp:77] Creating layer relu5_3
I0520 16:21:18.529638 25429 net.cpp:91] Creating Layer relu5_3
I0520 16:21:18.529641 25429 net.cpp:425] relu5_3 <- conv5_3
I0520 16:21:18.529647 25429 net.cpp:386] relu5_3 -> conv5_3 (in-place)
I0520 16:21:18.529656 25429 net.cpp:141] Setting up relu5_3
I0520 16:21:18.529660 25429 net.cpp:148] Top shape: 48 512 14 14 (4816896)
I0520 16:21:18.529664 25429 net.cpp:156] Memory required for data: 5520163008
I0520 16:21:18.529667 25429 layer_factory.hpp:77] Creating layer pool5
I0520 16:21:18.529675 25429 net.cpp:91] Creating Layer pool5
I0520 16:21:18.529680 25429 net.cpp:425] pool5 <- conv5_3
I0520 16:21:18.529685 25429 net.cpp:399] pool5 -> pool5
I0520 16:21:18.529721 25429 net.cpp:141] Setting up pool5
I0520 16:21:18.529728 25429 net.cpp:148] Top shape: 48 512 7 7 (1204224)
I0520 16:21:18.529731 25429 net.cpp:156] Memory required for data: 5524979904
I0520 16:21:18.529734 25429 layer_factory.hpp:77] Creating layer fc6
I0520 16:21:18.529748 25429 net.cpp:91] Creating Layer fc6
I0520 16:21:18.529753 25429 net.cpp:425] fc6 <- pool5
I0520 16:21:18.529758 25429 net.cpp:399] fc6 -> fc6
I0520 16:21:18.720582 25429 net.cpp:141] Setting up fc6
I0520 16:21:18.720616 25429 net.cpp:148] Top shape: 48 4096 (196608)
I0520 16:21:18.720619 25429 net.cpp:156] Memory required for data: 5525766336
I0520 16:21:18.720628 25429 layer_factory.hpp:77] Creating layer relu6
I0520 16:21:18.720638 25429 net.cpp:91] Creating Layer relu6
I0520 16:21:18.720641 25429 net.cpp:425] relu6 <- fc6
I0520 16:21:18.720649 25429 net.cpp:386] relu6 -> fc6 (in-place)
I0520 16:21:18.720659 25429 net.cpp:141] Setting up relu6
I0520 16:21:18.720662 25429 net.cpp:148] Top shape: 48 4096 (196608)
I0520 16:21:18.720665 25429 net.cpp:156] Memory required for data: 5526552768
I0520 16:21:18.720669 25429 layer_factory.hpp:77] Creating layer drop6
I0520 16:21:18.720674 25429 net.cpp:91] Creating Layer drop6
I0520 16:21:18.720677 25429 net.cpp:425] drop6 <- fc6
I0520 16:21:18.720681 25429 net.cpp:386] drop6 -> fc6 (in-place)
I0520 16:21:18.720710 25429 net.cpp:141] Setting up drop6
I0520 16:21:18.720715 25429 net.cpp:148] Top shape: 48 4096 (196608)
I0520 16:21:18.720718 25429 net.cpp:156] Memory required for data: 5527339200
I0520 16:21:18.720721 25429 layer_factory.hpp:77] Creating layer fc7
I0520 16:21:18.720728 25429 net.cpp:91] Creating Layer fc7
I0520 16:21:18.720731 25429 net.cpp:425] fc7 <- fc6
I0520 16:21:18.720746 25429 net.cpp:399] fc7 -> fc7
I0520 16:21:18.751061 25429 net.cpp:141] Setting up fc7
I0520 16:21:18.751096 25429 net.cpp:148] Top shape: 48 4096 (196608)
I0520 16:21:18.751101 25429 net.cpp:156] Memory required for data: 5528125632
I0520 16:21:18.751109 25429 layer_factory.hpp:77] Creating layer relu7
I0520 16:21:18.751119 25429 net.cpp:91] Creating Layer relu7
I0520 16:21:18.751123 25429 net.cpp:425] relu7 <- fc7
I0520 16:21:18.751130 25429 net.cpp:386] relu7 -> fc7 (in-place)
I0520 16:21:18.751139 25429 net.cpp:141] Setting up relu7
I0520 16:21:18.751143 25429 net.cpp:148] Top shape: 48 4096 (196608)
I0520 16:21:18.751147 25429 net.cpp:156] Memory required for data: 5528912064
I0520 16:21:18.751149 25429 layer_factory.hpp:77] Creating layer drop7
I0520 16:21:18.751157 25429 net.cpp:91] Creating Layer drop7
I0520 16:21:18.751159 25429 net.cpp:425] drop7 <- fc7
I0520 16:21:18.751163 25429 net.cpp:386] drop7 -> fc7 (in-place)
I0520 16:21:18.751188 25429 net.cpp:141] Setting up drop7
I0520 16:21:18.751193 25429 net.cpp:148] Top shape: 48 4096 (196608)
I0520 16:21:18.751195 25429 net.cpp:156] Memory required for data: 5529698496
I0520 16:21:18.751199 25429 layer_factory.hpp:77] Creating layer kaggle_fc8
I0520 16:21:18.751206 25429 net.cpp:91] Creating Layer kaggle_fc8
I0520 16:21:18.751210 25429 net.cpp:425] kaggle_fc8 <- fc7
I0520 16:21:18.751215 25429 net.cpp:399] kaggle_fc8 -> kaggle_fc8
I0520 16:21:18.752359 25429 net.cpp:141] Setting up kaggle_fc8
I0520 16:21:18.752368 25429 net.cpp:148] Top shape: 48 10 (480)
I0520 16:21:18.752372 25429 net.cpp:156] Memory required for data: 5529700416
I0520 16:21:18.752377 25429 layer_factory.hpp:77] Creating layer loss
I0520 16:21:18.752382 25429 net.cpp:91] Creating Layer loss
I0520 16:21:18.752387 25429 net.cpp:425] loss <- kaggle_fc8
I0520 16:21:18.752390 25429 net.cpp:425] loss <- label
I0520 16:21:18.752396 25429 net.cpp:399] loss -> loss
I0520 16:21:18.752408 25429 layer_factory.hpp:77] Creating layer loss
…
I0520 16:21:18.753347 25429 net.cpp:313] The NetState phase (1) differed from the phase (0) specified by a rule in layer data
I0520 16:21:18.753522 25429 net.cpp:49] Initializing net from parameters: 
name: "VGG_ILSVRC_16_layer"
state {
  phase: TEST
}
layer {
  name: "data"
  type: "Data"
  top: "data"
  top: "label"
  include {
    phase: TEST
  }
  transform_param {
    mirror: false
    crop_size: 224
    mean_value: 104
    mean_value: 117
    mean_value: 123
  }
  data_param {
    source: "data/kaggle/kaggle_test_lmdb"
    batch_size: 40
    backend: LMDB
  }
}
layer {
  name: "conv1_1"
  type: "Convolution"
  bottom: "data"
  top: "conv1_1"
  param {
    lr_mult: 0
    decay_mult: 0
  }
  param {
    lr_mult: 0
    decay_mult: 0
  }
  convolution_param {
    num_output: 64
    pad: 1
    kernel_size: 3
  }
}
layer {
  name: "relu1_1"
  type: "ReLU"
  bottom: "conv1_1"
  top: "conv1_1"
}
layer {
  name: "conv1_2"
  type: "Convolution"
  bottom: "conv1_1"
  top: "conv1_2"
  param {
    lr_mult: 0
    decay_mult: 0
  }
  param {
    lr_mult: 0
    decay_mult: 0
  }
  convolution_param {
    num_output: 64
    pad: 1
    kernel_size: 3
  }
}
layer {
  name: "relu1_2"
  type: "ReLU"
  bottom: "conv1_2"
  top: "conv1_2"
}
layer {
  name: "pool1"
  type: "Pooling"
  bottom: "conv1_2"
  top: "pool1"
  pooling_param {
    pool: MAX
    kernel_size: 2
    stride: 2
  }
}
layer {
  name: "conv2_1"
  type: "Convolution"
  bottom: "pool1"
  top: "conv2_1"
  param {
    lr_mult: 0
    decay_mult: 0
  }
  param {
    lr_mult: 0
    decay_mult: 0
  }
  convolution_param {
    num_output: 128
    pad: 1
    kernel_size: 3
  }
}
layer {
  name: "relu2_1"
  type: "ReLU"
  bottom: "conv2_1"
  top: "conv2_1"
}
layer {
  name: "conv2_2"
  type: "Convolution"
  bottom: "conv2_1"
  top: "conv2_2"
  param {
    lr_mult: 0
    decay_mult: 0
  }
  param {
    lr_mult: 0
    decay_mult: 0
  }
  convolution_param {
    num_output: 128
    pad: 1
    kernel_size: 3
  }
}
layer {
  name: "relu2_2"
  type: "ReLU"
  bottom: "conv2_2"
  top: "conv2_2"
}
layer {
  name: "pool2"
  type: "Pooling"
  bottom: "conv2_2"
  top: "pool2"
  pooling_param {
    pool: MAX
    kernel_size: 2
    stride: 2
  }
}
layer {
  name: "conv3_1"
  type: "Convolution"
  bottom: "pool2"
  top: "conv3_1"
  param {
    lr_mult: 0
    decay_mult: 0
  }
  param {
    lr_mult: 0
    decay_mult: 0
  }
  convolution_param {
    num_output: 256
    pad: 1
    kernel_size: 3
  }
}
layer {
  name: "relu3_1"
  type: "ReLU"
  bottom: "conv3_1"
  top: "conv3_1"
}
layer {
  name: "conv3_2"
  type: "Convolution"
  bottom: "conv3_1"
  top: "conv3_2"
  param {
    lr_mult: 0
    decay_mult: 0
  }
  param {
    lr_mult: 0
    decay_mult: 0
  }
  convolution_param {
    num_output: 256
    pad: 1
    kernel_size: 3
  }
}
layer {
  name: "relu3_2"
  type: "ReLU"
  bottom: "conv3_2"
  top: "conv3_2"
}
layer {
  name: "conv3_3"
  type: "Convolution"
  bottom: "conv3_2"
  top: "conv3_3"
  param {
    lr_mult: 0
    decay_mult: 0
  }
  param {
    lr_mult: 0
    decay_mult: 0
  }
  convolution_param {
    num_output: 256
    pad: 1
    kernel_size: 3
  }
}
layer {
  name: "relu3_3"
  type: "ReLU"
  bottom: "conv3_3"
  top: "conv3_3"
}
layer {
  name: "pool3"
  type: "Pooling"
  bottom: "conv3_3"
  top: "pool3"
  pooling_param {
    pool: MAX
    kernel_size: 2
    stride: 2
  }
}
layer {
  name: "conv4_1"
  type: "Convolution"
  bottom: "pool3"
  top: "conv4_1"
  param {
    lr_mult: 0
    decay_mult: 0
  }
  param {
    lr_mult: 0
    decay_mult: 0
  }
  convolution_param {
    num_output: 512
    pad: 1
    kernel_size: 3
  }
}
layer {
  name: "relu4_1"
  type: "ReLU"
  bottom: "conv4_1"
  top: "conv4_1"
}
layer {
  name: "conv4_2"
  type: "Convolution"
  bottom: "conv4_1"
  top: "conv4_2"
  param {
    lr_mult: 0
    decay_mult: 1
  }
  param {
    lr_mult: 0
    decay_mult: 0
  }
  convolution_param {
    num_output: 512
    pad: 1
    kernel_size: 3
  }
}
layer {
  name: "relu4_2"
  type: "ReLU"
  bottom: "conv4_2"
  top: "conv4_2"
}
layer {
  name: "conv4_3"
  type: "Convolution"
  bottom: "conv4_2"
  top: "conv4_3"
  param {
    lr_mult: 0
    decay_mult: 0
  }
  param {
    lr_mult: 0
    decay_mult: 0
  }
  convolution_param {
    num_output: 512
    pad: 1
    kernel_size: 3
  }
}
layer {
  name: "relu4_3"
  type: "ReLU"
  bottom: "conv4_3"
  top: "conv4_3"
}
layer {
  name: "pool4"
  type: "Pooling"
  bottom: "conv4_3"
  top: "pool4"
  pooling_param {
    pool: MAX
    kernel_size: 2
    stride: 2
  }
}
layer {
  name: "conv5_1"
  type: "Convolution"
  bottom: "pool4"
  top: "conv5_1"
  param {
    lr_mult: 1
    decay_mult: 1
  }
  param {
    lr_mult: 2
    decay_mult: 0
  }
  convolution_param {
    num_output: 512
    pad: 1
    kernel_size: 3
  }
}
layer {
  name: "relu5_1"
  type: "ReLU"
  bottom: "conv5_1"
  top: "conv5_1"
}
layer {
  name: "conv5_2"
  type: "Convolution"
  bottom: "conv5_1"
  top: "conv5_2"
  param {
    lr_mult: 1
    decay_mult: 1
  }
  param {
    lr_mult: 2
    decay_mult: 0
  }
  convolution_param {
    num_output: 512
    pad: 1
    kernel_size: 3
  }
}
layer {
  name: "relu5_2"
  type: "ReLU"
  bottom: "conv5_2"
  top: "conv5_2"
}
layer {
  name: "conv5_3"
  type: "Convolution"
  bottom: "conv5_2"
  top: "conv5_3"
  param {
    lr_mult: 1
    decay_mult: 1
  }
  param {
    lr_mult: 2
    decay_mult: 0
  }
  convolution_param {
    num_output: 512
    pad: 1
    kernel_size: 3
  }
}
layer {
  name: "relu5_3"
  type: "ReLU"
  bottom: "conv5_3"
  top: "conv5_3"
}
layer {
  name: "pool5"
  type: "Pooling"
  bottom: "conv5_3"
  top: "pool5"
  pooling_param {
    pool: MAX
    kernel_size: 2
    stride: 2
  }
}
layer {
  name: "fc6"
  type: "InnerProduct"
  bottom: "pool5"
  top: "fc6"
  param {
    lr_mult: 1
    decay_mult: 1
  }
  param {
    lr_mult: 2
    decay_mult: 0
  }
  inner_product_param {
    num_output: 4096
  }
}
layer {
  name: "relu6"
  type: "ReLU"
  bottom: "fc6"
  top: "fc6"
}
layer {
  name: "drop6"
  type: "Dropout"
  bottom: "fc6"
  top: "fc6"
  dropout_param {
    dropout_ratio: 0.5
  }
}
layer {
  name: "fc7"
  type: "InnerProduct"
  bottom: "fc6"
  top: "fc7"
  param {
    lr_mult: 1
    decay_mult: 1
  }
  param {
    lr_mult: 2
    decay_mult: 0
  }
  inner_product_param {
    num_output: 4096
  }
}
layer {
  name: "relu7"
  type: "ReLU"
  bottom: "fc7"
  top: "fc7"
}
layer {
  name: "drop7"
  type: "Dropout"
  bottom: "fc7"
  top: "fc7"
  dropout_param {
    dropout_ratio: 0.5
  }
}
layer {
  name: "kaggle_fc8"
  type: "InnerProduct"
  bottom: "fc7"
  top: "kaggle_fc8"
  param {
    lr_mult: 10
    decay_mult: 1
  }
  param {
    lr_mult: 20
    decay_mult: 0
  }
  inner_product_param {
    num_output: 10
    weight_filler {
      type: "gaussian"
      std: 0.01
    }
    bias_filler {
      type: "constant"
      value: 0
    }
  }
}
layer {
  name: "loss"
  type: "SoftmaxWithLoss"
  bottom: "kaggle_fc8"
  bottom: "label"
  top: "loss"
}
layer {
  name: "accuracy"
  type: "Accuracy"
  bottom: "kaggle_fc8"
  bottom: "label"
  top: "accuracy"
  include {
    phase: TEST
  }
}
I0520 16:21:18.753649 25429 layer_factory.hpp:77] Creating layer data
I0520 16:21:18.753722 25429 net.cpp:91] Creating Layer data
I0520 16:21:18.753732 25429 net.cpp:399] data -> data
I0520 16:21:18.753741 25429 net.cpp:399] data -> label
I0520 16:21:18.755100 25434 db_lmdb.cpp:35] Opened lmdb data/kaggle/kaggle_test_lmdb
I0520 16:21:18.755519 25429 data_layer.cpp:41] output data size: 40,3,224,224
I0520 16:21:18.786507 25429 net.cpp:141] Setting up data
I0520 16:21:18.786543 25429 net.cpp:148] Top shape: 40 3 224 224 (6021120)
I0520 16:21:18.786548 25429 net.cpp:148] Top shape: 40 (40)
I0520 16:21:18.786551 25429 net.cpp:156] Memory required for data: 24084640
I0520 16:21:18.786558 25429 layer_factory.hpp:77] Creating layer label_data_1_split
I0520 16:21:18.786571 25429 net.cpp:91] Creating Layer label_data_1_split
I0520 16:21:18.786574 25429 net.cpp:425] label_data_1_split <- label
I0520 16:21:18.786582 25429 net.cpp:399] label_data_1_split -> label_data_1_split_0
I0520 16:21:18.786592 25429 net.cpp:399] label_data_1_split -> label_data_1_split_1
I0520 16:21:18.786691 25429 net.cpp:141] Setting up label_data_1_split
I0520 16:21:18.786700 25429 net.cpp:148] Top shape: 40 (40)
I0520 16:21:18.786705 25429 net.cpp:148] Top shape: 40 (40)
I0520 16:21:18.786707 25429 net.cpp:156] Memory required for data: 24084960
I0520 16:21:18.786710 25429 layer_factory.hpp:77] Creating layer conv1_1
I0520 16:21:18.786722 25429 net.cpp:91] Creating Layer conv1_1
I0520 16:21:18.786726 25429 net.cpp:425] conv1_1 <- data
I0520 16:21:18.786731 25429 net.cpp:399] conv1_1 -> conv1_1
I0520 16:21:18.786964 25429 net.cpp:141] Setting up conv1_1
I0520 16:21:18.786974 25429 net.cpp:148] Top shape: 40 64 224 224 (128450560)
I0520 16:21:18.786978 25429 net.cpp:156] Memory required for data: 537887200
I0520 16:21:18.786986 25429 layer_factory.hpp:77] Creating layer relu1_1
I0520 16:21:18.786993 25429 net.cpp:91] Creating Layer relu1_1
I0520 16:21:18.786996 25429 net.cpp:425] relu1_1 <- conv1_1
I0520 16:21:18.787003 25429 net.cpp:386] relu1_1 -> conv1_1 (in-place)
I0520 16:21:18.787009 25429 net.cpp:141] Setting up relu1_1
I0520 16:21:18.787014 25429 net.cpp:148] Top shape: 40 64 224 224 (128450560)
I0520 16:21:18.787016 25429 net.cpp:156] Memory required for data: 1051689440
I0520 16:21:18.787019 25429 layer_factory.hpp:77] Creating layer conv1_2
I0520 16:21:18.787027 25429 net.cpp:91] Creating Layer conv1_2
I0520 16:21:18.787031 25429 net.cpp:425] conv1_2 <- conv1_1
I0520 16:21:18.787036 25429 net.cpp:399] conv1_2 -> conv1_2
I0520 16:21:18.787679 25429 net.cpp:141] Setting up conv1_2
I0520 16:21:18.787693 25429 net.cpp:148] Top shape: 40 64 224 224 (128450560)
I0520 16:21:18.787696 25429 net.cpp:156] Memory required for data: 1565491680
I0520 16:21:18.787705 25429 layer_factory.hpp:77] Creating layer relu1_2
I0520 16:21:18.787713 25429 net.cpp:91] Creating Layer relu1_2
I0520 16:21:18.787715 25429 net.cpp:425] relu1_2 <- conv1_2
I0520 16:21:18.787721 25429 net.cpp:386] relu1_2 -> conv1_2 (in-place)
I0520 16:21:18.787729 25429 net.cpp:141] Setting up relu1_2
I0520 16:21:18.787732 25429 net.cpp:148] Top shape: 40 64 224 224 (128450560)
I0520 16:21:18.787735 25429 net.cpp:156] Memory required for data: 2079293920
I0520 16:21:18.787739 25429 layer_factory.hpp:77] Creating layer pool1
I0520 16:21:18.787745 25429 net.cpp:91] Creating Layer pool1
I0520 16:21:18.787749 25429 net.cpp:425] pool1 <- conv1_2
I0520 16:21:18.787755 25429 net.cpp:399] pool1 -> pool1
I0520 16:21:18.789551 25429 net.cpp:141] Setting up pool1
I0520 16:21:18.789568 25429 net.cpp:148] Top shape: 40 64 112 112 (32112640)
I0520 16:21:18.789572 25429 net.cpp:156] Memory required for data: 2207744480
I0520 16:21:18.789575 25429 layer_factory.hpp:77] Creating layer conv2_1
I0520 16:21:18.789583 25429 net.cpp:91] Creating Layer conv2_1
I0520 16:21:18.789587 25429 net.cpp:425] conv2_1 <- pool1
I0520 16:21:18.789592 25429 net.cpp:399] conv2_1 -> conv2_1
I0520 16:21:18.790169 25429 net.cpp:141] Setting up conv2_1
I0520 16:21:18.790180 25429 net.cpp:148] Top shape: 40 128 112 112 (64225280)
I0520 16:21:18.790184 25429 net.cpp:156] Memory required for data: 2464645600
I0520 16:21:18.790191 25429 layer_factory.hpp:77] Creating layer relu2_1
I0520 16:21:18.790199 25429 net.cpp:91] Creating Layer relu2_1
I0520 16:21:18.790202 25429 net.cpp:425] relu2_1 <- conv2_1
I0520 16:21:18.790208 25429 net.cpp:386] relu2_1 -> conv2_1 (in-place)
I0520 16:21:18.790215 25429 net.cpp:141] Setting up relu2_1
I0520 16:21:18.790218 25429 net.cpp:148] Top shape: 40 128 112 112 (64225280)
I0520 16:21:18.790221 25429 net.cpp:156] Memory required for data: 2721546720
I0520 16:21:18.790225 25429 layer_factory.hpp:77] Creating layer conv2_2
I0520 16:21:18.790231 25429 net.cpp:91] Creating Layer conv2_2
I0520 16:21:18.790235 25429 net.cpp:425] conv2_2 <- conv2_1
I0520 16:21:18.790240 25429 net.cpp:399] conv2_2 -> conv2_2
I0520 16:21:18.790498 25429 net.cpp:141] Setting up conv2_2
I0520 16:21:18.790506 25429 net.cpp:148] Top shape: 40 128 112 112 (64225280)
I0520 16:21:18.790509 25429 net.cpp:156] Memory required for data: 2978447840
I0520 16:21:18.790515 25429 layer_factory.hpp:77] Creating layer relu2_2
I0520 16:21:18.790520 25429 net.cpp:91] Creating Layer relu2_2
I0520 16:21:18.790524 25429 net.cpp:425] relu2_2 <- conv2_2
I0520 16:21:18.790529 25429 net.cpp:386] relu2_2 -> conv2_2 (in-place)
I0520 16:21:18.790535 25429 net.cpp:141] Setting up relu2_2
I0520 16:21:18.790539 25429 net.cpp:148] Top shape: 40 128 112 112 (64225280)
I0520 16:21:18.790542 25429 net.cpp:156] Memory required for data: 3235348960
I0520 16:21:18.790545 25429 layer_factory.hpp:77] Creating layer pool2
I0520 16:21:18.790550 25429 net.cpp:91] Creating Layer pool2
I0520 16:21:18.790554 25429 net.cpp:425] pool2 <- conv2_2
I0520 16:21:18.790557 25429 net.cpp:399] pool2 -> pool2
I0520 16:21:18.790592 25429 net.cpp:141] Setting up pool2
I0520 16:21:18.790597 25429 net.cpp:148] Top shape: 40 128 56 56 (16056320)
I0520 16:21:18.790601 25429 net.cpp:156] Memory required for data: 3299574240
I0520 16:21:18.790603 25429 layer_factory.hpp:77] Creating layer conv3_1
I0520 16:21:18.790611 25429 net.cpp:91] Creating Layer conv3_1
I0520 16:21:18.790614 25429 net.cpp:425] conv3_1 <- pool2
I0520 16:21:18.790621 25429 net.cpp:399] conv3_1 -> conv3_1
I0520 16:21:18.791318 25429 net.cpp:141] Setting up conv3_1
I0520 16:21:18.791332 25429 net.cpp:148] Top shape: 40 256 56 56 (32112640)
I0520 16:21:18.791334 25429 net.cpp:156] Memory required for data: 3428024800
I0520 16:21:18.791343 25429 layer_factory.hpp:77] Creating layer relu3_1
I0520 16:21:18.791349 25429 net.cpp:91] Creating Layer relu3_1
I0520 16:21:18.791352 25429 net.cpp:425] relu3_1 <- conv3_1
I0520 16:21:18.791357 25429 net.cpp:386] relu3_1 -> conv3_1 (in-place)
I0520 16:21:18.791363 25429 net.cpp:141] Setting up relu3_1
I0520 16:21:18.791368 25429 net.cpp:148] Top shape: 40 256 56 56 (32112640)
I0520 16:21:18.791370 25429 net.cpp:156] Memory required for data: 3556475360
I0520 16:21:18.791373 25429 layer_factory.hpp:77] Creating layer conv3_2
I0520 16:21:18.791380 25429 net.cpp:91] Creating Layer conv3_2
I0520 16:21:18.791383 25429 net.cpp:425] conv3_2 <- conv3_1
I0520 16:21:18.791388 25429 net.cpp:399] conv3_2 -> conv3_2
I0520 16:21:18.792467 25429 net.cpp:141] Setting up conv3_2
I0520 16:21:18.792479 25429 net.cpp:148] Top shape: 40 256 56 56 (32112640)
I0520 16:21:18.792484 25429 net.cpp:156] Memory required for data: 3684925920
I0520 16:21:18.792489 25429 layer_factory.hpp:77] Creating layer relu3_2
I0520 16:21:18.792495 25429 net.cpp:91] Creating Layer relu3_2
I0520 16:21:18.792505 25429 net.cpp:425] relu3_2 <- conv3_2
I0520 16:21:18.792516 25429 net.cpp:386] relu3_2 -> conv3_2 (in-place)
I0520 16:21:18.792522 25429 net.cpp:141] Setting up relu3_2
I0520 16:21:18.792526 25429 net.cpp:148] Top shape: 40 256 56 56 (32112640)
I0520 16:21:18.792529 25429 net.cpp:156] Memory required for data: 3813376480
I0520 16:21:18.792533 25429 layer_factory.hpp:77] Creating layer conv3_3
I0520 16:21:18.792542 25429 net.cpp:91] Creating Layer conv3_3
I0520 16:21:18.792546 25429 net.cpp:425] conv3_3 <- conv3_2
I0520 16:21:18.792551 25429 net.cpp:399] conv3_3 -> conv3_3
I0520 16:21:18.793647 25429 net.cpp:141] Setting up conv3_3
I0520 16:21:18.793659 25429 net.cpp:148] Top shape: 40 256 56 56 (32112640)
I0520 16:21:18.793663 25429 net.cpp:156] Memory required for data: 3941827040
I0520 16:21:18.793668 25429 layer_factory.hpp:77] Creating layer relu3_3
I0520 16:21:18.793673 25429 net.cpp:91] Creating Layer relu3_3
I0520 16:21:18.793678 25429 net.cpp:425] relu3_3 <- conv3_3
I0520 16:21:18.793683 25429 net.cpp:386] relu3_3 -> conv3_3 (in-place)
I0520 16:21:18.793689 25429 net.cpp:141] Setting up relu3_3
I0520 16:21:18.793692 25429 net.cpp:148] Top shape: 40 256 56 56 (32112640)
I0520 16:21:18.793695 25429 net.cpp:156] Memory required for data: 4070277600
I0520 16:21:18.793699 25429 layer_factory.hpp:77] Creating layer pool3
I0520 16:21:18.793704 25429 net.cpp:91] Creating Layer pool3
I0520 16:21:18.793707 25429 net.cpp:425] pool3 <- conv3_3
I0520 16:21:18.793714 25429 net.cpp:399] pool3 -> pool3
I0520 16:21:18.793743 25429 net.cpp:141] Setting up pool3
I0520 16:21:18.793751 25429 net.cpp:148] Top shape: 40 256 28 28 (8028160)
I0520 16:21:18.793753 25429 net.cpp:156] Memory required for data: 4102390240
I0520 16:21:18.793756 25429 layer_factory.hpp:77] Creating layer conv4_1
I0520 16:21:18.793763 25429 net.cpp:91] Creating Layer conv4_1
I0520 16:21:18.793766 25429 net.cpp:425] conv4_1 <- pool3
I0520 16:21:18.793771 25429 net.cpp:399] conv4_1 -> conv4_1
I0520 16:21:18.795716 25429 net.cpp:141] Setting up conv4_1
I0520 16:21:18.795732 25429 net.cpp:148] Top shape: 40 512 28 28 (16056320)
I0520 16:21:18.795735 25429 net.cpp:156] Memory required for data: 4166615520
I0520 16:21:18.795742 25429 layer_factory.hpp:77] Creating layer relu4_1
I0520 16:21:18.795747 25429 net.cpp:91] Creating Layer relu4_1
I0520 16:21:18.795752 25429 net.cpp:425] relu4_1 <- conv4_1
I0520 16:21:18.795758 25429 net.cpp:386] relu4_1 -> conv4_1 (in-place)
I0520 16:21:18.795763 25429 net.cpp:141] Setting up relu4_1
I0520 16:21:18.795768 25429 net.cpp:148] Top shape: 40 512 28 28 (16056320)
I0520 16:21:18.795770 25429 net.cpp:156] Memory required for data: 4230840800
I0520 16:21:18.795773 25429 layer_factory.hpp:77] Creating layer conv4_2
I0520 16:21:18.795780 25429 net.cpp:91] Creating Layer conv4_2
I0520 16:21:18.795783 25429 net.cpp:425] conv4_2 <- conv4_1
I0520 16:21:18.795789 25429 net.cpp:399] conv4_2 -> conv4_2
I0520 16:21:18.799716 25429 net.cpp:141] Setting up conv4_2
I0520 16:21:18.799746 25429 net.cpp:148] Top shape: 40 512 28 28 (16056320)
I0520 16:21:18.799749 25429 net.cpp:156] Memory required for data: 4295066080
I0520 16:21:18.799763 25429 layer_factory.hpp:77] Creating layer relu4_2
I0520 16:21:18.799773 25429 net.cpp:91] Creating Layer relu4_2
I0520 16:21:18.799777 25429 net.cpp:425] relu4_2 <- conv4_2
I0520 16:21:18.799783 25429 net.cpp:386] relu4_2 -> conv4_2 (in-place)
I0520 16:21:18.799792 25429 net.cpp:141] Setting up relu4_2
I0520 16:21:18.799795 25429 net.cpp:148] Top shape: 40 512 28 28 (16056320)
I0520 16:21:18.799798 25429 net.cpp:156] Memory required for data: 4359291360
I0520 16:21:18.799801 25429 layer_factory.hpp:77] Creating layer conv4_3
I0520 16:21:18.799810 25429 net.cpp:91] Creating Layer conv4_3
I0520 16:21:18.799813 25429 net.cpp:425] conv4_3 <- conv4_2
I0520 16:21:18.799819 25429 net.cpp:399] conv4_3 -> conv4_3
I0520 16:21:18.804260 25429 net.cpp:141] Setting up conv4_3
I0520 16:21:18.804292 25429 net.cpp:148] Top shape: 40 512 28 28 (16056320)
I0520 16:21:18.804296 25429 net.cpp:156] Memory required for data: 4423516640
I0520 16:21:18.804318 25429 layer_factory.hpp:77] Creating layer relu4_3
I0520 16:21:18.804328 25429 net.cpp:91] Creating Layer relu4_3
I0520 16:21:18.804333 25429 net.cpp:425] relu4_3 <- conv4_3
I0520 16:21:18.804338 25429 net.cpp:386] relu4_3 -> conv4_3 (in-place)
I0520 16:21:18.804347 25429 net.cpp:141] Setting up relu4_3
I0520 16:21:18.804352 25429 net.cpp:148] Top shape: 40 512 28 28 (16056320)
I0520 16:21:18.804354 25429 net.cpp:156] Memory required for data: 4487741920
I0520 16:21:18.804358 25429 layer_factory.hpp:77] Creating layer pool4
I0520 16:21:18.804363 25429 net.cpp:91] Creating Layer pool4
I0520 16:21:18.804366 25429 net.cpp:425] pool4 <- conv4_3
I0520 16:21:18.804373 25429 net.cpp:399] pool4 -> pool4
I0520 16:21:18.804409 25429 net.cpp:141] Setting up pool4
I0520 16:21:18.804415 25429 net.cpp:148] Top shape: 40 512 14 14 (4014080)
I0520 16:21:18.804419 25429 net.cpp:156] Memory required for data: 4503798240
I0520 16:21:18.804421 25429 layer_factory.hpp:77] Creating layer conv5_1
I0520 16:21:18.804430 25429 net.cpp:91] Creating Layer conv5_1
I0520 16:21:18.804435 25429 net.cpp:425] conv5_1 <- pool4
I0520 16:21:18.804440 25429 net.cpp:399] conv5_1 -> conv5_1
I0520 16:21:18.808846 25429 net.cpp:141] Setting up conv5_1
I0520 16:21:18.808879 25429 net.cpp:148] Top shape: 40 512 14 14 (4014080)
I0520 16:21:18.808882 25429 net.cpp:156] Memory required for data: 4519854560
I0520 16:21:18.808889 25429 layer_factory.hpp:77] Creating layer relu5_1
I0520 16:21:18.808898 25429 net.cpp:91] Creating Layer relu5_1
I0520 16:21:18.808903 25429 net.cpp:425] relu5_1 <- conv5_1
I0520 16:21:18.808909 25429 net.cpp:386] relu5_1 -> conv5_1 (in-place)
I0520 16:21:18.808918 25429 net.cpp:141] Setting up relu5_1
I0520 16:21:18.808923 25429 net.cpp:148] Top shape: 40 512 14 14 (4014080)
I0520 16:21:18.808925 25429 net.cpp:156] Memory required for data: 4535910880
I0520 16:21:18.808928 25429 layer_factory.hpp:77] Creating layer conv5_2
I0520 16:21:18.808938 25429 net.cpp:91] Creating Layer conv5_2
I0520 16:21:18.808940 25429 net.cpp:425] conv5_2 <- conv5_1
I0520 16:21:18.808948 25429 net.cpp:399] conv5_2 -> conv5_2
I0520 16:21:18.813338 25429 net.cpp:141] Setting up conv5_2
I0520 16:21:18.813372 25429 net.cpp:148] Top shape: 40 512 14 14 (4014080)
I0520 16:21:18.813375 25429 net.cpp:156] Memory required for data: 4551967200
I0520 16:21:18.813383 25429 layer_factory.hpp:77] Creating layer relu5_2
I0520 16:21:18.813395 25429 net.cpp:91] Creating Layer relu5_2
I0520 16:21:18.813400 25429 net.cpp:425] relu5_2 <- conv5_2
I0520 16:21:18.813405 25429 net.cpp:386] relu5_2 -> conv5_2 (in-place)
I0520 16:21:18.813415 25429 net.cpp:141] Setting up relu5_2
I0520 16:21:18.813418 25429 net.cpp:148] Top shape: 40 512 14 14 (4014080)
I0520 16:21:18.813421 25429 net.cpp:156] Memory required for data: 4568023520
I0520 16:21:18.813424 25429 layer_factory.hpp:77] Creating layer conv5_3
I0520 16:21:18.813433 25429 net.cpp:91] Creating Layer conv5_3
I0520 16:21:18.813437 25429 net.cpp:425] conv5_3 <- conv5_2
I0520 16:21:18.813443 25429 net.cpp:399] conv5_3 -> conv5_3
I0520 16:21:18.819275 25429 net.cpp:141] Setting up conv5_3
I0520 16:21:18.819303 25429 net.cpp:148] Top shape: 40 512 14 14 (4014080)
I0520 16:21:18.819306 25429 net.cpp:156] Memory required for data: 4584079840
I0520 16:21:18.819314 25429 layer_factory.hpp:77] Creating layer relu5_3
I0520 16:21:18.819321 25429 net.cpp:91] Creating Layer relu5_3
I0520 16:21:18.819326 25429 net.cpp:425] relu5_3 <- conv5_3
I0520 16:21:18.819334 25429 net.cpp:386] relu5_3 -> conv5_3 (in-place)
I0520 16:21:18.819341 25429 net.cpp:141] Setting up relu5_3
I0520 16:21:18.819345 25429 net.cpp:148] Top shape: 40 512 14 14 (4014080)
I0520 16:21:18.819349 25429 net.cpp:156] Memory required for data: 4600136160
I0520 16:21:18.819351 25429 layer_factory.hpp:77] Creating layer pool5
I0520 16:21:18.819361 25429 net.cpp:91] Creating Layer pool5
I0520 16:21:18.819365 25429 net.cpp:425] pool5 <- conv5_3
I0520 16:21:18.819370 25429 net.cpp:399] pool5 -> pool5
I0520 16:21:18.819418 25429 net.cpp:141] Setting up pool5
I0520 16:21:18.819433 25429 net.cpp:148] Top shape: 40 512 7 7 (1003520)
I0520 16:21:18.819437 25429 net.cpp:156] Memory required for data: 4604150240
I0520 16:21:18.819439 25429 layer_factory.hpp:77] Creating layer fc6
I0520 16:21:18.819447 25429 net.cpp:91] Creating Layer fc6
I0520 16:21:18.819449 25429 net.cpp:425] fc6 <- pool5
I0520 16:21:18.819455 25429 net.cpp:399] fc6 -> fc6
I0520 16:21:19.006526 25429 net.cpp:141] Setting up fc6
I0520 16:21:19.006567 25429 net.cpp:148] Top shape: 40 4096 (163840)
I0520 16:21:19.006570 25429 net.cpp:156] Memory required for data: 4604805600
I0520 16:21:19.006580 25429 layer_factory.hpp:77] Creating layer relu6
I0520 16:21:19.006590 25429 net.cpp:91] Creating Layer relu6
I0520 16:21:19.006595 25429 net.cpp:425] relu6 <- fc6
I0520 16:21:19.006602 25429 net.cpp:386] relu6 -> fc6 (in-place)
I0520 16:21:19.006613 25429 net.cpp:141] Setting up relu6
I0520 16:21:19.006616 25429 net.cpp:148] Top shape: 40 4096 (163840)
I0520 16:21:19.006619 25429 net.cpp:156] Memory required for data: 4605460960
I0520 16:21:19.006623 25429 layer_factory.hpp:77] Creating layer drop6
I0520 16:21:19.006629 25429 net.cpp:91] Creating Layer drop6
I0520 16:21:19.006633 25429 net.cpp:425] drop6 <- fc6
I0520 16:21:19.006636 25429 net.cpp:386] drop6 -> fc6 (in-place)
I0520 16:21:19.006661 25429 net.cpp:141] Setting up drop6
I0520 16:21:19.006667 25429 net.cpp:148] Top shape: 40 4096 (163840)
I0520 16:21:19.006670 25429 net.cpp:156] Memory required for data: 4606116320
I0520 16:21:19.006674 25429 layer_factory.hpp:77] Creating layer fc7
I0520 16:21:19.006680 25429 net.cpp:91] Creating Layer fc7
I0520 16:21:19.006685 25429 net.cpp:425] fc7 <- fc6
I0520 16:21:19.006688 25429 net.cpp:399] fc7 -> fc7
I0520 16:21:19.037753 25429 net.cpp:141] Setting up fc7
I0520 16:21:19.037791 25429 net.cpp:148] Top shape: 40 4096 (163840)
I0520 16:21:19.037794 25429 net.cpp:156] Memory required for data: 4606771680
I0520 16:21:19.037803 25429 layer_factory.hpp:77] Creating layer relu7
I0520 16:21:19.037813 25429 net.cpp:91] Creating Layer relu7
I0520 16:21:19.037818 25429 net.cpp:425] relu7 <- fc7
I0520 16:21:19.037827 25429 net.cpp:386] relu7 -> fc7 (in-place)
I0520 16:21:19.037835 25429 net.cpp:141] Setting up relu7
I0520 16:21:19.037839 25429 net.cpp:148] Top shape: 40 4096 (163840)
I0520 16:21:19.037842 25429 net.cpp:156] Memory required for data: 4607427040
I0520 16:21:19.037845 25429 layer_factory.hpp:77] Creating layer drop7
I0520 16:21:19.037852 25429 net.cpp:91] Creating Layer drop7
I0520 16:21:19.037855 25429 net.cpp:425] drop7 <- fc7
I0520 16:21:19.037859 25429 net.cpp:386] drop7 -> fc7 (in-place)
I0520 16:21:19.037886 25429 net.cpp:141] Setting up drop7
I0520 16:21:19.037892 25429 net.cpp:148] Top shape: 40 4096 (163840)
I0520 16:21:19.037895 25429 net.cpp:156] Memory required for data: 4608082400
I0520 16:21:19.037899 25429 layer_factory.hpp:77] Creating layer kaggle_fc8
I0520 16:21:19.037907 25429 net.cpp:91] Creating Layer kaggle_fc8
I0520 16:21:19.037911 25429 net.cpp:425] kaggle_fc8 <- fc7
I0520 16:21:19.037916 25429 net.cpp:399] kaggle_fc8 -> kaggle_fc8
I0520 16:21:19.039060 25429 net.cpp:141] Setting up kaggle_fc8
I0520 16:21:19.039068 25429 net.cpp:148] Top shape: 40 10 (400)
I0520 16:21:19.039072 25429 net.cpp:156] Memory required for data: 4608084000
I0520 16:21:19.039077 25429 layer_factory.hpp:77] Creating layer kaggle_fc8_kaggle_fc8_0_split
I0520 16:21:19.039083 25429 net.cpp:91] Creating Layer kaggle_fc8_kaggle_fc8_0_split
I0520 16:21:19.039086 25429 net.cpp:425] kaggle_fc8_kaggle_fc8_0_split <- kaggle_fc8
I0520 16:21:19.039093 25429 net.cpp:399] kaggle_fc8_kaggle_fc8_0_split -> kaggle_fc8_kaggle_fc8_0_split_0
I0520 16:21:19.039098 25429 net.cpp:399] kaggle_fc8_kaggle_fc8_0_split -> kaggle_fc8_kaggle_fc8_0_split_1
I0520 16:21:19.039127 25429 net.cpp:141] Setting up kaggle_fc8_kaggle_fc8_0_split
I0520 16:21:19.039134 25429 net.cpp:148] Top shape: 40 10 (400)
I0520 16:21:19.039137 25429 net.cpp:148] Top shape: 40 10 (400)
I0520 16:21:19.039140 25429 net.cpp:156] Memory required for data: 4608087200
I0520 16:21:19.039155 25429 layer_factory.hpp:77] Creating layer loss
I0520 16:21:19.039167 25429 net.cpp:91] Creating Layer loss
I0520 16:21:19.039171 25429 net.cpp:425] loss <- kaggle_fc8_kaggle_fc8_0_split_0
I0520 16:21:19.039175 25429 net.cpp:425] loss <- label_data_1_split_0
I0520 16:21:19.039180 25429 net.cpp:399] loss -> loss
…
