…
I0515 18:59:11.604266 27515 net.cpp:313] The NetState phase (0) differed from the phase (1) specified by a rule in layer accuracy
I0515 18:59:11.604444 27515 net.cpp:49] Initializing net from parameters: 
name: "VGG_ILSVRC_16_layer"
state {
  phase: TRAIN
}
layer {
  name: "data"
  type: "Data"
  top: "data"
  top: "label"
  include {
    phase: TRAIN
  }
  transform_param {
    mirror: true
    crop_size: 224
    mean_value: 104
    mean_value: 117
    mean_value: 123
  }
  data_param {
    source: "data/kaggle/kaggle_train_lmdb"
    batch_size: 48
    backend: LMDB
  }
}
layer {
  name: "conv1_1"
  type: "Convolution"
  bottom: "data"
  top: "conv1_1"
  param {
    lr_mult: 1
    decay_mult: 1
  }
  param {
    lr_mult: 2
    decay_mult: 0
  }
  convolution_param {
    num_output: 64
    pad: 1
    kernel_size: 3
  }
}
layer {
  name: "relu1_1"
  type: "ReLU"
  bottom: "conv1_1"
  top: "conv1_1"
}
layer {
  name: "conv1_2"
  type: "Convolution"
  bottom: "conv1_1"
  top: "conv1_2"
  param {
    lr_mult: 1
    decay_mult: 1
  }
  param {
    lr_mult: 2
    decay_mult: 0
  }
  convolution_param {
    num_output: 64
    pad: 1
    kernel_size: 3
  }
}
layer {
  name: "relu1_2"
  type: "ReLU"
  bottom: "conv1_2"
  top: "conv1_2"
}
layer {
  name: "pool1"
  type: "Pooling"
  bottom: "conv1_2"
  top: "pool1"
  pooling_param {
    pool: MAX
    kernel_size: 2
    stride: 2
  }
}
layer {
  name: "conv2_1"
  type: "Convolution"
  bottom: "pool1"
  top: "conv2_1"
  param {
    lr_mult: 1
    decay_mult: 1
  }
  param {
    lr_mult: 2
    decay_mult: 0
  }
  convolution_param {
    num_output: 128
    pad: 1
    kernel_size: 3
  }
}
layer {
  name: "relu2_1"
  type: "ReLU"
  bottom: "conv2_1"
  top: "conv2_1"
}
layer {
  name: "conv2_2"
  type: "Convolution"
  bottom: "conv2_1"
  top: "conv2_2"
  param {
    lr_mult: 1
    decay_mult: 1
  }
  param {
    lr_mult: 2
    decay_mult: 0
  }
  convolution_param {
    num_output: 128
    pad: 1
    kernel_size: 3
  }
}
layer {
  name: "relu2_2"
  type: "ReLU"
  bottom: "conv2_2"
  top: "conv2_2"
}
layer {
  name: "pool2"
  type: "Pooling"
  bottom: "conv2_2"
  top: "pool2"
  pooling_param {
    pool: MAX
    kernel_size: 2
    stride: 2
  }
}
layer {
  name: "conv3_1"
  type: "Convolution"
  bottom: "pool2"
  top: "conv3_1"
  param {
    lr_mult: 1
    decay_mult: 1
  }
  param {
    lr_mult: 2
    decay_mult: 0
  }
  convolution_param {
    num_output: 256
    pad: 1
    kernel_size: 3
  }
}
layer {
  name: "relu3_1"
  type: "ReLU"
  bottom: "conv3_1"
  top: "conv3_1"
}
layer {
  name: "conv3_2"
  type: "Convolution"
  bottom: "conv3_1"
  top: "conv3_2"
  param {
    lr_mult: 1
    decay_mult: 1
  }
  param {
    lr_mult: 2
    decay_mult: 0
  }
  convolution_param {
    num_output: 256
    pad: 1
    kernel_size: 3
  }
}
layer {
  name: "relu3_2"
  type: "ReLU"
  bottom: "conv3_2"
  top: "conv3_2"
}
layer {
  name: "conv3_3"
  type: "Convolution"
  bottom: "conv3_2"
  top: "conv3_3"
  param {
    lr_mult: 1
    decay_mult: 1
  }
  param {
    lr_mult: 2
    decay_mult: 0
  }
  convolution_param {
    num_output: 256
    pad: 1
    kernel_size: 3
  }
}
layer {
  name: "relu3_3"
  type: "ReLU"
  bottom: "conv3_3"
  top: "conv3_3"
}
layer {
  name: "pool3"
  type: "Pooling"
  bottom: "conv3_3"
  top: "pool3"
  pooling_param {
    pool: MAX
    kernel_size: 2
    stride: 2
  }
}
layer {
  name: "conv4_1"
  type: "Convolution"
  bottom: "pool3"
  top: "conv4_1"
  param {
    lr_mult: 1
    decay_mult: 1
  }
  param {
    lr_mult: 2
    decay_mult: 0
  }
  convolution_param {
    num_output: 512
    pad: 1
    kernel_size: 3
  }
}
layer {
  name: "relu4_1"
  type: "ReLU"
  bottom: "conv4_1"
  top: "conv4_1"
}
layer {
  name: "conv4_2"
  type: "Convolution"
  bottom: "conv4_1"
  top: "conv4_2"
  param {
    lr_mult: 1
    decay_mult: 1
  }
  param {
    lr_mult: 2
    decay_mult: 0
  }
  convolution_param {
    num_output: 512
    pad: 1
    kernel_size: 3
  }
}
layer {
  name: "relu4_2"
  type: "ReLU"
  bottom: "conv4_2"
  top: "conv4_2"
}
layer {
  name: "conv4_3"
  type: "Convolution"
  bottom: "conv4_2"
  top: "conv4_3"
  param {
    lr_mult: 1
    decay_mult: 1
  }
  param {
    lr_mult: 2
    decay_mult: 0
  }
  convolution_param {
    num_output: 512
    pad: 1
    kernel_size: 3
  }
}
layer {
  name: "relu4_3"
  type: "ReLU"
  bottom: "conv4_3"
  top: "conv4_3"
}
layer {
  name: "pool4"
  type: "Pooling"
  bottom: "conv4_3"
  top: "pool4"
  pooling_param {
    pool: MAX
    kernel_size: 2
    stride: 2
  }
}
layer {
  name: "conv5_1"
  type: "Convolution"
  bottom: "pool4"
  top: "conv5_1"
  param {
    lr_mult: 1
    decay_mult: 1
  }
  param {
    lr_mult: 2
    decay_mult: 0
  }
  convolution_param {
    num_output: 512
    pad: 1
    kernel_size: 3
  }
}
layer {
  name: "relu5_1"
  type: "ReLU"
  bottom: "conv5_1"
  top: "conv5_1"
}
layer {
  name: "conv5_2"
  type: "Convolution"
  bottom: "conv5_1"
  top: "conv5_2"
  param {
    lr_mult: 1
    decay_mult: 1
  }
  param {
    lr_mult: 2
    decay_mult: 0
  }
  convolution_param {
    num_output: 512
    pad: 1
    kernel_size: 3
  }
}
layer {
  name: "relu5_2"
  type: "ReLU"
  bottom: "conv5_2"
  top: "conv5_2"
}
layer {
  name: "conv5_3"
  type: "Convolution"
  bottom: "conv5_2"
  top: "conv5_3"
  param {
    lr_mult: 1
    decay_mult: 1
  }
  param {
    lr_mult: 2
    decay_mult: 0
  }
  convolution_param {
    num_output: 512
    pad: 1
    kernel_size: 3
  }
}
layer {
  name: "relu5_3"
  type: "ReLU"
  bottom: "conv5_3"
  top: "conv5_3"
}
layer {
  name: "pool5"
  type: "Pooling"
  bottom: "conv5_3"
  top: "pool5"
  pooling_param {
    pool: MAX
    kernel_size: 2
    stride: 2
  }
}
layer {
  name: "fc6"
  type: "InnerProduct"
  bottom: "pool5"
  top: "fc6"
  param {
    lr_mult: 1
    decay_mult: 1
  }
  param {
    lr_mult: 2
    decay_mult: 0
  }
  inner_product_param {
    num_output: 4096
  }
}
layer {
  name: "relu6"
  type: "ReLU"
  bottom: "fc6"
  top: "fc6"
}
layer {
  name: "drop6"
  type: "Dropout"
  bottom: "fc6"
  top: "fc6"
  dropout_param {
    dropout_ratio: 0.5
  }
}
layer {
  name: "fc7"
  type: "InnerProduct"
  bottom: "fc6"
  top: "fc7"
  param {
    lr_mult: 1
    decay_mult: 1
  }
  param {
    lr_mult: 2
    decay_mult: 0
  }
  inner_product_param {
    num_output: 4096
  }
}
layer {
  name: "relu7"
  type: "ReLU"
  bottom: "fc7"
  top: "fc7"
}
layer {
  name: "drop7"
  type: "Dropout"
  bottom: "fc7"
  top: "fc7"
  dropout_param {
    dropout_ratio: 0.5
  }
}
layer {
  name: "kaggel_fc8"
  type: "InnerProduct"
  bottom: "fc7"
  top: "kaggle_fc8"
  param {
    lr_mult: 10
    decay_mult: 1
  }
  param {
    lr_mult: 20
    decay_mult: 0
  }
  inner_product_param {
    num_output: 10
    weight_filler {
      type: "gaussian"
      std: 0.01
    }
    bias_filler {
      type: "constant"
      value: 0
    }
  }
}
layer {
  name: "loss"
  type: "SoftmaxWithLoss"
  bottom: "kaggle_fc8"
  bottom: "label"
  top: "loss"
}
I0515 18:59:11.604578 27515 layer_factory.hpp:77] Creating layer data
I0515 18:59:11.605046 27515 net.cpp:91] Creating Layer data
I0515 18:59:11.605060 27515 net.cpp:399] data -> data
I0515 18:59:11.605084 27515 net.cpp:399] data -> label
I0515 18:59:11.606458 27518 db_lmdb.cpp:35] Opened lmdb data/kaggle/kaggle_train_lmdb
I0515 18:59:11.614778 27515 data_layer.cpp:41] output data size: 48,3,224,224
I0515 18:59:11.654427 27515 net.cpp:141] Setting up data
I0515 18:59:11.654472 27515 net.cpp:148] Top shape: 48 3 224 224 (7225344)
I0515 18:59:11.654485 27515 net.cpp:148] Top shape: 48 (48)
I0515 18:59:11.654489 27515 net.cpp:156] Memory required for data: 28901568
I0515 18:59:11.654500 27515 layer_factory.hpp:77] Creating layer conv1_1
I0515 18:59:11.654526 27515 net.cpp:91] Creating Layer conv1_1
I0515 18:59:11.654532 27515 net.cpp:425] conv1_1 <- data
I0515 18:59:11.654544 27515 net.cpp:399] conv1_1 -> conv1_1
I0515 18:59:11.655642 27515 net.cpp:141] Setting up conv1_1
I0515 18:59:11.655655 27515 net.cpp:148] Top shape: 48 64 224 224 (154140672)
I0515 18:59:11.655659 27515 net.cpp:156] Memory required for data: 645464256
I0515 18:59:11.655673 27515 layer_factory.hpp:77] Creating layer relu1_1
I0515 18:59:11.655681 27515 net.cpp:91] Creating Layer relu1_1
I0515 18:59:11.655685 27515 net.cpp:425] relu1_1 <- conv1_1
I0515 18:59:11.655690 27515 net.cpp:386] relu1_1 -> conv1_1 (in-place)
I0515 18:59:11.655697 27515 net.cpp:141] Setting up relu1_1
I0515 18:59:11.655701 27515 net.cpp:148] Top shape: 48 64 224 224 (154140672)
I0515 18:59:11.655704 27515 net.cpp:156] Memory required for data: 1262026944
I0515 18:59:11.655706 27515 layer_factory.hpp:77] Creating layer conv1_2
I0515 18:59:11.655714 27515 net.cpp:91] Creating Layer conv1_2
I0515 18:59:11.655719 27515 net.cpp:425] conv1_2 <- conv1_1
I0515 18:59:11.655722 27515 net.cpp:399] conv1_2 -> conv1_2
I0515 18:59:11.655913 27515 net.cpp:141] Setting up conv1_2
I0515 18:59:11.655921 27515 net.cpp:148] Top shape: 48 64 224 224 (154140672)
I0515 18:59:11.655925 27515 net.cpp:156] Memory required for data: 1878589632
I0515 18:59:11.655931 27515 layer_factory.hpp:77] Creating layer relu1_2
I0515 18:59:11.655939 27515 net.cpp:91] Creating Layer relu1_2
I0515 18:59:11.655943 27515 net.cpp:425] relu1_2 <- conv1_2
I0515 18:59:11.655947 27515 net.cpp:386] relu1_2 -> conv1_2 (in-place)
I0515 18:59:11.655952 27515 net.cpp:141] Setting up relu1_2
I0515 18:59:11.655956 27515 net.cpp:148] Top shape: 48 64 224 224 (154140672)
I0515 18:59:11.655959 27515 net.cpp:156] Memory required for data: 2495152320
I0515 18:59:11.655962 27515 layer_factory.hpp:77] Creating layer pool1
I0515 18:59:11.655967 27515 net.cpp:91] Creating Layer pool1
I0515 18:59:11.655971 27515 net.cpp:425] pool1 <- conv1_2
I0515 18:59:11.655975 27515 net.cpp:399] pool1 -> pool1
I0515 18:59:11.656016 27515 net.cpp:141] Setting up pool1
I0515 18:59:11.656023 27515 net.cpp:148] Top shape: 48 64 112 112 (38535168)
I0515 18:59:11.656026 27515 net.cpp:156] Memory required for data: 2649292992
I0515 18:59:11.656029 27515 layer_factory.hpp:77] Creating layer conv2_1
I0515 18:59:11.656036 27515 net.cpp:91] Creating Layer conv2_1
I0515 18:59:11.656039 27515 net.cpp:425] conv2_1 <- pool1
I0515 18:59:11.656044 27515 net.cpp:399] conv2_1 -> conv2_1
I0515 18:59:11.657034 27515 net.cpp:141] Setting up conv2_1
I0515 18:59:11.657047 27515 net.cpp:148] Top shape: 48 128 112 112 (77070336)
I0515 18:59:11.657050 27515 net.cpp:156] Memory required for data: 2957574336
I0515 18:59:11.657059 27515 layer_factory.hpp:77] Creating layer relu2_1
I0515 18:59:11.657068 27515 net.cpp:91] Creating Layer relu2_1
I0515 18:59:11.657071 27515 net.cpp:425] relu2_1 <- conv2_1
I0515 18:59:11.657075 27515 net.cpp:386] relu2_1 -> conv2_1 (in-place)
I0515 18:59:11.657081 27515 net.cpp:141] Setting up relu2_1
I0515 18:59:11.657086 27515 net.cpp:148] Top shape: 48 128 112 112 (77070336)
I0515 18:59:11.657089 27515 net.cpp:156] Memory required for data: 3265855680
I0515 18:59:11.657093 27515 layer_factory.hpp:77] Creating layer conv2_2
I0515 18:59:11.657101 27515 net.cpp:91] Creating Layer conv2_2
I0515 18:59:11.657104 27515 net.cpp:425] conv2_2 <- conv2_1
I0515 18:59:11.657109 27515 net.cpp:399] conv2_2 -> conv2_2
I0515 18:59:11.659529 27515 net.cpp:141] Setting up conv2_2
I0515 18:59:11.659540 27515 net.cpp:148] Top shape: 48 128 112 112 (77070336)
I0515 18:59:11.659543 27515 net.cpp:156] Memory required for data: 3574137024
I0515 18:59:11.659549 27515 layer_factory.hpp:77] Creating layer relu2_2
I0515 18:59:11.659554 27515 net.cpp:91] Creating Layer relu2_2
I0515 18:59:11.659565 27515 net.cpp:425] relu2_2 <- conv2_2
I0515 18:59:11.659579 27515 net.cpp:386] relu2_2 -> conv2_2 (in-place)
I0515 18:59:11.659584 27515 net.cpp:141] Setting up relu2_2
I0515 18:59:11.659587 27515 net.cpp:148] Top shape: 48 128 112 112 (77070336)
I0515 18:59:11.659590 27515 net.cpp:156] Memory required for data: 3882418368
I0515 18:59:11.659593 27515 layer_factory.hpp:77] Creating layer pool2
I0515 18:59:11.659598 27515 net.cpp:91] Creating Layer pool2
I0515 18:59:11.659601 27515 net.cpp:425] pool2 <- conv2_2
I0515 18:59:11.659605 27515 net.cpp:399] pool2 -> pool2
I0515 18:59:11.659636 27515 net.cpp:141] Setting up pool2
I0515 18:59:11.659641 27515 net.cpp:148] Top shape: 48 128 56 56 (19267584)
I0515 18:59:11.659643 27515 net.cpp:156] Memory required for data: 3959488704
I0515 18:59:11.659646 27515 layer_factory.hpp:77] Creating layer conv3_1
I0515 18:59:11.659656 27515 net.cpp:91] Creating Layer conv3_1
I0515 18:59:11.659658 27515 net.cpp:425] conv3_1 <- pool2
I0515 18:59:11.659664 27515 net.cpp:399] conv3_1 -> conv3_1
I0515 18:59:11.660384 27515 net.cpp:141] Setting up conv3_1
I0515 18:59:11.660399 27515 net.cpp:148] Top shape: 48 256 56 56 (38535168)
I0515 18:59:11.660403 27515 net.cpp:156] Memory required for data: 4113629376
I0515 18:59:11.660411 27515 layer_factory.hpp:77] Creating layer relu3_1
I0515 18:59:11.660416 27515 net.cpp:91] Creating Layer relu3_1
I0515 18:59:11.660419 27515 net.cpp:425] relu3_1 <- conv3_1
I0515 18:59:11.660424 27515 net.cpp:386] relu3_1 -> conv3_1 (in-place)
I0515 18:59:11.660429 27515 net.cpp:141] Setting up relu3_1
I0515 18:59:11.660434 27515 net.cpp:148] Top shape: 48 256 56 56 (38535168)
I0515 18:59:11.660436 27515 net.cpp:156] Memory required for data: 4267770048
I0515 18:59:11.660439 27515 layer_factory.hpp:77] Creating layer conv3_2
I0515 18:59:11.660447 27515 net.cpp:91] Creating Layer conv3_2
I0515 18:59:11.660450 27515 net.cpp:425] conv3_2 <- conv3_1
I0515 18:59:11.660455 27515 net.cpp:399] conv3_2 -> conv3_2
I0515 18:59:11.661586 27515 net.cpp:141] Setting up conv3_2
I0515 18:59:11.661599 27515 net.cpp:148] Top shape: 48 256 56 56 (38535168)
I0515 18:59:11.661602 27515 net.cpp:156] Memory required for data: 4421910720
I0515 18:59:11.661608 27515 layer_factory.hpp:77] Creating layer relu3_2
I0515 18:59:11.661613 27515 net.cpp:91] Creating Layer relu3_2
I0515 18:59:11.661617 27515 net.cpp:425] relu3_2 <- conv3_2
I0515 18:59:11.661623 27515 net.cpp:386] relu3_2 -> conv3_2 (in-place)
I0515 18:59:11.661628 27515 net.cpp:141] Setting up relu3_2
I0515 18:59:11.661631 27515 net.cpp:148] Top shape: 48 256 56 56 (38535168)
I0515 18:59:11.661634 27515 net.cpp:156] Memory required for data: 4576051392
I0515 18:59:11.661638 27515 layer_factory.hpp:77] Creating layer conv3_3
I0515 18:59:11.661643 27515 net.cpp:91] Creating Layer conv3_3
I0515 18:59:11.661646 27515 net.cpp:425] conv3_3 <- conv3_2
I0515 18:59:11.661653 27515 net.cpp:399] conv3_3 -> conv3_3
I0515 18:59:11.662770 27515 net.cpp:141] Setting up conv3_3
I0515 18:59:11.662781 27515 net.cpp:148] Top shape: 48 256 56 56 (38535168)
I0515 18:59:11.662788 27515 net.cpp:156] Memory required for data: 4730192064
I0515 18:59:11.662794 27515 layer_factory.hpp:77] Creating layer relu3_3
I0515 18:59:11.662802 27515 net.cpp:91] Creating Layer relu3_3
I0515 18:59:11.662806 27515 net.cpp:425] relu3_3 <- conv3_3
I0515 18:59:11.662809 27515 net.cpp:386] relu3_3 -> conv3_3 (in-place)
I0515 18:59:11.662816 27515 net.cpp:141] Setting up relu3_3
I0515 18:59:11.662819 27515 net.cpp:148] Top shape: 48 256 56 56 (38535168)
I0515 18:59:11.662822 27515 net.cpp:156] Memory required for data: 4884332736
I0515 18:59:11.662825 27515 layer_factory.hpp:77] Creating layer pool3
I0515 18:59:11.662832 27515 net.cpp:91] Creating Layer pool3
I0515 18:59:11.662834 27515 net.cpp:425] pool3 <- conv3_3
I0515 18:59:11.662838 27515 net.cpp:399] pool3 -> pool3
I0515 18:59:11.662868 27515 net.cpp:141] Setting up pool3
I0515 18:59:11.662873 27515 net.cpp:148] Top shape: 48 256 28 28 (9633792)
I0515 18:59:11.662875 27515 net.cpp:156] Memory required for data: 4922867904
I0515 18:59:11.662890 27515 layer_factory.hpp:77] Creating layer conv4_1
I0515 18:59:11.662896 27515 net.cpp:91] Creating Layer conv4_1
I0515 18:59:11.662899 27515 net.cpp:425] conv4_1 <- pool3
I0515 18:59:11.662905 27515 net.cpp:399] conv4_1 -> conv4_1
I0515 18:59:11.665181 27515 net.cpp:141] Setting up conv4_1
I0515 18:59:11.665199 27515 net.cpp:148] Top shape: 48 512 28 28 (19267584)
I0515 18:59:11.665201 27515 net.cpp:156] Memory required for data: 4999938240
I0515 18:59:11.665207 27515 layer_factory.hpp:77] Creating layer relu4_1
I0515 18:59:11.665213 27515 net.cpp:91] Creating Layer relu4_1
I0515 18:59:11.665217 27515 net.cpp:425] relu4_1 <- conv4_1
I0515 18:59:11.665223 27515 net.cpp:386] relu4_1 -> conv4_1 (in-place)
I0515 18:59:11.665230 27515 net.cpp:141] Setting up relu4_1
I0515 18:59:11.665233 27515 net.cpp:148] Top shape: 48 512 28 28 (19267584)
I0515 18:59:11.665236 27515 net.cpp:156] Memory required for data: 5077008576
I0515 18:59:11.665240 27515 layer_factory.hpp:77] Creating layer conv4_2
I0515 18:59:11.665244 27515 net.cpp:91] Creating Layer conv4_2
I0515 18:59:11.665247 27515 net.cpp:425] conv4_2 <- conv4_1
I0515 18:59:11.665253 27515 net.cpp:399] conv4_2 -> conv4_2
I0515 18:59:11.669131 27515 net.cpp:141] Setting up conv4_2
I0515 18:59:11.669158 27515 net.cpp:148] Top shape: 48 512 28 28 (19267584)
I0515 18:59:11.669162 27515 net.cpp:156] Memory required for data: 5154078912
I0515 18:59:11.669175 27515 layer_factory.hpp:77] Creating layer relu4_2
I0515 18:59:11.669185 27515 net.cpp:91] Creating Layer relu4_2
I0515 18:59:11.669191 27515 net.cpp:425] relu4_2 <- conv4_2
I0515 18:59:11.669198 27515 net.cpp:386] relu4_2 -> conv4_2 (in-place)
I0515 18:59:11.669206 27515 net.cpp:141] Setting up relu4_2
I0515 18:59:11.669210 27515 net.cpp:148] Top shape: 48 512 28 28 (19267584)
I0515 18:59:11.669229 27515 net.cpp:156] Memory required for data: 5231149248
I0515 18:59:11.669232 27515 layer_factory.hpp:77] Creating layer conv4_3
I0515 18:59:11.669239 27515 net.cpp:91] Creating Layer conv4_3
I0515 18:59:11.669242 27515 net.cpp:425] conv4_3 <- conv4_2
I0515 18:59:11.669247 27515 net.cpp:399] conv4_3 -> conv4_3
I0515 18:59:11.673226 27515 net.cpp:141] Setting up conv4_3
I0515 18:59:11.673255 27515 net.cpp:148] Top shape: 48 512 28 28 (19267584)
I0515 18:59:11.673259 27515 net.cpp:156] Memory required for data: 5308219584
I0515 18:59:11.673265 27515 layer_factory.hpp:77] Creating layer relu4_3
I0515 18:59:11.673274 27515 net.cpp:91] Creating Layer relu4_3
I0515 18:59:11.673279 27515 net.cpp:425] relu4_3 <- conv4_3
I0515 18:59:11.673285 27515 net.cpp:386] relu4_3 -> conv4_3 (in-place)
I0515 18:59:11.673293 27515 net.cpp:141] Setting up relu4_3
I0515 18:59:11.673297 27515 net.cpp:148] Top shape: 48 512 28 28 (19267584)
I0515 18:59:11.673300 27515 net.cpp:156] Memory required for data: 5385289920
I0515 18:59:11.673303 27515 layer_factory.hpp:77] Creating layer pool4
I0515 18:59:11.673310 27515 net.cpp:91] Creating Layer pool4
I0515 18:59:11.673312 27515 net.cpp:425] pool4 <- conv4_3
I0515 18:59:11.673317 27515 net.cpp:399] pool4 -> pool4
I0515 18:59:11.673346 27515 net.cpp:141] Setting up pool4
I0515 18:59:11.673352 27515 net.cpp:148] Top shape: 48 512 14 14 (4816896)
I0515 18:59:11.673354 27515 net.cpp:156] Memory required for data: 5404557504
I0515 18:59:11.673357 27515 layer_factory.hpp:77] Creating layer conv5_1
I0515 18:59:11.673367 27515 net.cpp:91] Creating Layer conv5_1
I0515 18:59:11.673369 27515 net.cpp:425] conv5_1 <- pool4
I0515 18:59:11.673377 27515 net.cpp:399] conv5_1 -> conv5_1
I0515 18:59:11.677314 27515 net.cpp:141] Setting up conv5_1
I0515 18:59:11.677340 27515 net.cpp:148] Top shape: 48 512 14 14 (4816896)
I0515 18:59:11.677342 27515 net.cpp:156] Memory required for data: 5423825088
I0515 18:59:11.677350 27515 layer_factory.hpp:77] Creating layer relu5_1
I0515 18:59:11.677358 27515 net.cpp:91] Creating Layer relu5_1
I0515 18:59:11.677362 27515 net.cpp:425] relu5_1 <- conv5_1
I0515 18:59:11.677368 27515 net.cpp:386] relu5_1 -> conv5_1 (in-place)
I0515 18:59:11.677383 27515 net.cpp:141] Setting up relu5_1
I0515 18:59:11.677394 27515 net.cpp:148] Top shape: 48 512 14 14 (4816896)
I0515 18:59:11.677397 27515 net.cpp:156] Memory required for data: 5443092672
I0515 18:59:11.677400 27515 layer_factory.hpp:77] Creating layer conv5_2
I0515 18:59:11.677409 27515 net.cpp:91] Creating Layer conv5_2
I0515 18:59:11.677412 27515 net.cpp:425] conv5_2 <- conv5_1
I0515 18:59:11.677417 27515 net.cpp:399] conv5_2 -> conv5_2
I0515 18:59:11.681403 27515 net.cpp:141] Setting up conv5_2
I0515 18:59:11.681429 27515 net.cpp:148] Top shape: 48 512 14 14 (4816896)
I0515 18:59:11.681432 27515 net.cpp:156] Memory required for data: 5462360256
I0515 18:59:11.681439 27515 layer_factory.hpp:77] Creating layer relu5_2
I0515 18:59:11.681447 27515 net.cpp:91] Creating Layer relu5_2
I0515 18:59:11.681452 27515 net.cpp:425] relu5_2 <- conv5_2
I0515 18:59:11.681457 27515 net.cpp:386] relu5_2 -> conv5_2 (in-place)
I0515 18:59:11.681465 27515 net.cpp:141] Setting up relu5_2
I0515 18:59:11.681469 27515 net.cpp:148] Top shape: 48 512 14 14 (4816896)
I0515 18:59:11.681473 27515 net.cpp:156] Memory required for data: 5481627840
I0515 18:59:11.681475 27515 layer_factory.hpp:77] Creating layer conv5_3
I0515 18:59:11.681483 27515 net.cpp:91] Creating Layer conv5_3
I0515 18:59:11.681485 27515 net.cpp:425] conv5_3 <- conv5_2
I0515 18:59:11.681491 27515 net.cpp:399] conv5_3 -> conv5_3
I0515 18:59:11.685492 27515 net.cpp:141] Setting up conv5_3
I0515 18:59:11.685518 27515 net.cpp:148] Top shape: 48 512 14 14 (4816896)
I0515 18:59:11.685520 27515 net.cpp:156] Memory required for data: 5500895424
I0515 18:59:11.685528 27515 layer_factory.hpp:77] Creating layer relu5_3
I0515 18:59:11.685535 27515 net.cpp:91] Creating Layer relu5_3
I0515 18:59:11.685539 27515 net.cpp:425] relu5_3 <- conv5_3
I0515 18:59:11.685544 27515 net.cpp:386] relu5_3 -> conv5_3 (in-place)
I0515 18:59:11.685550 27515 net.cpp:141] Setting up relu5_3
I0515 18:59:11.685554 27515 net.cpp:148] Top shape: 48 512 14 14 (4816896)
I0515 18:59:11.685557 27515 net.cpp:156] Memory required for data: 5520163008
I0515 18:59:11.685560 27515 layer_factory.hpp:77] Creating layer pool5
I0515 18:59:11.685566 27515 net.cpp:91] Creating Layer pool5
I0515 18:59:11.685570 27515 net.cpp:425] pool5 <- conv5_3
I0515 18:59:11.685575 27515 net.cpp:399] pool5 -> pool5
I0515 18:59:11.685611 27515 net.cpp:141] Setting up pool5
I0515 18:59:11.685616 27515 net.cpp:148] Top shape: 48 512 7 7 (1204224)
I0515 18:59:11.685619 27515 net.cpp:156] Memory required for data: 5524979904
I0515 18:59:11.685622 27515 layer_factory.hpp:77] Creating layer fc6
I0515 18:59:11.685633 27515 net.cpp:91] Creating Layer fc6
I0515 18:59:11.685637 27515 net.cpp:425] fc6 <- pool5
I0515 18:59:11.685644 27515 net.cpp:399] fc6 -> fc6
I0515 18:59:11.872259 27515 net.cpp:141] Setting up fc6
I0515 18:59:11.872293 27515 net.cpp:148] Top shape: 48 4096 (196608)
I0515 18:59:11.872297 27515 net.cpp:156] Memory required for data: 5525766336
I0515 18:59:11.872305 27515 layer_factory.hpp:77] Creating layer relu6
I0515 18:59:11.872314 27515 net.cpp:91] Creating Layer relu6
I0515 18:59:11.872319 27515 net.cpp:425] relu6 <- fc6
I0515 18:59:11.872325 27515 net.cpp:386] relu6 -> fc6 (in-place)
I0515 18:59:11.872334 27515 net.cpp:141] Setting up relu6
I0515 18:59:11.872337 27515 net.cpp:148] Top shape: 48 4096 (196608)
I0515 18:59:11.872339 27515 net.cpp:156] Memory required for data: 5526552768
I0515 18:59:11.872342 27515 layer_factory.hpp:77] Creating layer drop6
I0515 18:59:11.872351 27515 net.cpp:91] Creating Layer drop6
I0515 18:59:11.872354 27515 net.cpp:425] drop6 <- fc6
I0515 18:59:11.872367 27515 net.cpp:386] drop6 -> fc6 (in-place)
I0515 18:59:11.872393 27515 net.cpp:141] Setting up drop6
I0515 18:59:11.872398 27515 net.cpp:148] Top shape: 48 4096 (196608)
I0515 18:59:11.872401 27515 net.cpp:156] Memory required for data: 5527339200
I0515 18:59:11.872405 27515 layer_factory.hpp:77] Creating layer fc7
I0515 18:59:11.872411 27515 net.cpp:91] Creating Layer fc7
I0515 18:59:11.872413 27515 net.cpp:425] fc7 <- fc6
I0515 18:59:11.872429 27515 net.cpp:399] fc7 -> fc7
I0515 18:59:11.902617 27515 net.cpp:141] Setting up fc7
I0515 18:59:11.902653 27515 net.cpp:148] Top shape: 48 4096 (196608)
I0515 18:59:11.902657 27515 net.cpp:156] Memory required for data: 5528125632
I0515 18:59:11.902667 27515 layer_factory.hpp:77] Creating layer relu7
I0515 18:59:11.902676 27515 net.cpp:91] Creating Layer relu7
I0515 18:59:11.902680 27515 net.cpp:425] relu7 <- fc7
I0515 18:59:11.902688 27515 net.cpp:386] relu7 -> fc7 (in-place)
I0515 18:59:11.902696 27515 net.cpp:141] Setting up relu7
I0515 18:59:11.902700 27515 net.cpp:148] Top shape: 48 4096 (196608)
I0515 18:59:11.902703 27515 net.cpp:156] Memory required for data: 5528912064
I0515 18:59:11.902705 27515 layer_factory.hpp:77] Creating layer drop7
I0515 18:59:11.902711 27515 net.cpp:91] Creating Layer drop7
I0515 18:59:11.902715 27515 net.cpp:425] drop7 <- fc7
I0515 18:59:11.902719 27515 net.cpp:386] drop7 -> fc7 (in-place)
I0515 18:59:11.902742 27515 net.cpp:141] Setting up drop7
I0515 18:59:11.902747 27515 net.cpp:148] Top shape: 48 4096 (196608)
I0515 18:59:11.902750 27515 net.cpp:156] Memory required for data: 5529698496
I0515 18:59:11.902753 27515 layer_factory.hpp:77] Creating layer kaggel_fc8
I0515 18:59:11.902761 27515 net.cpp:91] Creating Layer kaggel_fc8
I0515 18:59:11.902765 27515 net.cpp:425] kaggel_fc8 <- fc7
I0515 18:59:11.902770 27515 net.cpp:399] kaggel_fc8 -> kaggle_fc8
I0515 18:59:11.903874 27515 net.cpp:141] Setting up kaggel_fc8
I0515 18:59:11.903882 27515 net.cpp:148] Top shape: 48 10 (480)
I0515 18:59:11.903885 27515 net.cpp:156] Memory required for data: 5529700416
I0515 18:59:11.903890 27515 layer_factory.hpp:77] Creating layer loss
I0515 18:59:11.903897 27515 net.cpp:91] Creating Layer loss
I0515 18:59:11.903899 27515 net.cpp:425] loss <- kaggle_fc8
I0515 18:59:11.903903 27515 net.cpp:425] loss <- label
I0515 18:59:11.903909 27515 net.cpp:399] loss -> loss
I0515 18:59:11.903919 27515 layer_factory.hpp:77] Creating layer loss
…
I0515 18:59:11.905011 27515 net.cpp:313] The NetState phase (1) differed from the phase (0) specified by a rule in layer data
I0515 18:59:11.905182 27515 net.cpp:49] Initializing net from parameters: 
name: "VGG_ILSVRC_16_layer"
state {
  phase: TEST
}
layer {
  name: "data"
  type: "Data"
  top: "data"
  top: "label"
  include {
    phase: TEST
  }
  transform_param {
    mirror: false
    crop_size: 224
    mean_value: 104
    mean_value: 117
    mean_value: 123
  }
  data_param {
    source: "data/kaggle/kaggle_test_lmdb"
    batch_size: 40
    backend: LMDB
  }
}
layer {
  name: "conv1_1"
  type: "Convolution"
  bottom: "data"
  top: "conv1_1"
  param {
    lr_mult: 1
    decay_mult: 1
  }
  param {
    lr_mult: 2
    decay_mult: 0
  }
  convolution_param {
    num_output: 64
    pad: 1
    kernel_size: 3
  }
}
layer {
  name: "relu1_1"
  type: "ReLU"
  bottom: "conv1_1"
  top: "conv1_1"
}
layer {
  name: "conv1_2"
  type: "Convolution"
  bottom: "conv1_1"
  top: "conv1_2"
  param {
    lr_mult: 1
    decay_mult: 1
  }
  param {
    lr_mult: 2
    decay_mult: 0
  }
  convolution_param {
    num_output: 64
    pad: 1
    kernel_size: 3
  }
}
layer {
  name: "relu1_2"
  type: "ReLU"
  bottom: "conv1_2"
  top: "conv1_2"
}
layer {
  name: "pool1"
  type: "Pooling"
  bottom: "conv1_2"
  top: "pool1"
  pooling_param {
    pool: MAX
    kernel_size: 2
    stride: 2
  }
}
layer {
  name: "conv2_1"
  type: "Convolution"
  bottom: "pool1"
  top: "conv2_1"
  param {
    lr_mult: 1
    decay_mult: 1
  }
  param {
    lr_mult: 2
    decay_mult: 0
  }
  convolution_param {
    num_output: 128
    pad: 1
    kernel_size: 3
  }
}
layer {
  name: "relu2_1"
  type: "ReLU"
  bottom: "conv2_1"
  top: "conv2_1"
}
layer {
  name: "conv2_2"
  type: "Convolution"
  bottom: "conv2_1"
  top: "conv2_2"
  param {
    lr_mult: 1
    decay_mult: 1
  }
  param {
    lr_mult: 2
    decay_mult: 0
  }
  convolution_param {
    num_output: 128
    pad: 1
    kernel_size: 3
  }
}
layer {
  name: "relu2_2"
  type: "ReLU"
  bottom: "conv2_2"
  top: "conv2_2"
}
layer {
  name: "pool2"
  type: "Pooling"
  bottom: "conv2_2"
  top: "pool2"
  pooling_param {
    pool: MAX
    kernel_size: 2
    stride: 2
  }
}
layer {
  name: "conv3_1"
  type: "Convolution"
  bottom: "pool2"
  top: "conv3_1"
  param {
    lr_mult: 1
    decay_mult: 1
  }
  param {
    lr_mult: 2
    decay_mult: 0
  }
  convolution_param {
    num_output: 256
    pad: 1
    kernel_size: 3
  }
}
layer {
  name: "relu3_1"
  type: "ReLU"
  bottom: "conv3_1"
  top: "conv3_1"
}
layer {
  name: "conv3_2"
  type: "Convolution"
  bottom: "conv3_1"
  top: "conv3_2"
  param {
    lr_mult: 1
    decay_mult: 1
  }
  param {
    lr_mult: 2
    decay_mult: 0
  }
  convolution_param {
    num_output: 256
    pad: 1
    kernel_size: 3
  }
}
layer {
  name: "relu3_2"
  type: "ReLU"
  bottom: "conv3_2"
  top: "conv3_2"
}
layer {
  name: "conv3_3"
  type: "Convolution"
  bottom: "conv3_2"
  top: "conv3_3"
  param {
    lr_mult: 1
    decay_mult: 1
  }
  param {
    lr_mult: 2
    decay_mult: 0
  }
  convolution_param {
    num_output: 256
    pad: 1
    kernel_size: 3
  }
}
layer {
  name: "relu3_3"
  type: "ReLU"
  bottom: "conv3_3"
  top: "conv3_3"
}
layer {
  name: "pool3"
  type: "Pooling"
  bottom: "conv3_3"
  top: "pool3"
  pooling_param {
    pool: MAX
    kernel_size: 2
    stride: 2
  }
}
layer {
  name: "conv4_1"
  type: "Convolution"
  bottom: "pool3"
  top: "conv4_1"
  param {
    lr_mult: 1
    decay_mult: 1
  }
  param {
    lr_mult: 2
    decay_mult: 0
  }
  convolution_param {
    num_output: 512
    pad: 1
    kernel_size: 3
  }
}
layer {
  name: "relu4_1"
  type: "ReLU"
  bottom: "conv4_1"
  top: "conv4_1"
}
layer {
  name: "conv4_2"
  type: "Convolution"
  bottom: "conv4_1"
  top: "conv4_2"
  param {
    lr_mult: 1
    decay_mult: 1
  }
  param {
    lr_mult: 2
    decay_mult: 0
  }
  convolution_param {
    num_output: 512
    pad: 1
    kernel_size: 3
  }
}
layer {
  name: "relu4_2"
  type: "ReLU"
  bottom: "conv4_2"
  top: "conv4_2"
}
layer {
  name: "conv4_3"
  type: "Convolution"
  bottom: "conv4_2"
  top: "conv4_3"
  param {
    lr_mult: 1
    decay_mult: 1
  }
  param {
    lr_mult: 2
    decay_mult: 0
  }
  convolution_param {
    num_output: 512
    pad: 1
    kernel_size: 3
  }
}
layer {
  name: "relu4_3"
  type: "ReLU"
  bottom: "conv4_3"
  top: "conv4_3"
}
layer {
  name: "pool4"
  type: "Pooling"
  bottom: "conv4_3"
  top: "pool4"
  pooling_param {
    pool: MAX
    kernel_size: 2
    stride: 2
  }
}
layer {
  name: "conv5_1"
  type: "Convolution"
  bottom: "pool4"
  top: "conv5_1"
  param {
    lr_mult: 1
    decay_mult: 1
  }
  param {
    lr_mult: 2
    decay_mult: 0
  }
  convolution_param {
    num_output: 512
    pad: 1
    kernel_size: 3
  }
}
layer {
  name: "relu5_1"
  type: "ReLU"
  bottom: "conv5_1"
  top: "conv5_1"
}
layer {
  name: "conv5_2"
  type: "Convolution"
  bottom: "conv5_1"
  top: "conv5_2"
  param {
    lr_mult: 1
    decay_mult: 1
  }
  param {
    lr_mult: 2
    decay_mult: 0
  }
  convolution_param {
    num_output: 512
    pad: 1
    kernel_size: 3
  }
}
layer {
  name: "relu5_2"
  type: "ReLU"
  bottom: "conv5_2"
  top: "conv5_2"
}
layer {
  name: "conv5_3"
  type: "Convolution"
  bottom: "conv5_2"
  top: "conv5_3"
  param {
    lr_mult: 1
    decay_mult: 1
  }
  param {
    lr_mult: 2
    decay_mult: 0
  }
  convolution_param {
    num_output: 512
    pad: 1
    kernel_size: 3
  }
}
layer {
  name: "relu5_3"
  type: "ReLU"
  bottom: "conv5_3"
  top: "conv5_3"
}
layer {
  name: "pool5"
  type: "Pooling"
  bottom: "conv5_3"
  top: "pool5"
  pooling_param {
    pool: MAX
    kernel_size: 2
    stride: 2
  }
}
layer {
  name: "fc6"
  type: "InnerProduct"
  bottom: "pool5"
  top: "fc6"
  param {
    lr_mult: 1
    decay_mult: 1
  }
  param {
    lr_mult: 2
    decay_mult: 0
  }
  inner_product_param {
    num_output: 4096
  }
}
layer {
  name: "relu6"
  type: "ReLU"
  bottom: "fc6"
  top: "fc6"
}
layer {
  name: "drop6"
  type: "Dropout"
  bottom: "fc6"
  top: "fc6"
  dropout_param {
    dropout_ratio: 0.5
  }
}
layer {
  name: "fc7"
  type: "InnerProduct"
  bottom: "fc6"
  top: "fc7"
  param {
    lr_mult: 1
    decay_mult: 1
  }
  param {
    lr_mult: 2
    decay_mult: 0
  }
  inner_product_param {
    num_output: 4096
  }
}
layer {
  name: "relu7"
  type: "ReLU"
  bottom: "fc7"
  top: "fc7"
}
layer {
  name: "drop7"
  type: "Dropout"
  bottom: "fc7"
  top: "fc7"
  dropout_param {
    dropout_ratio: 0.5
  }
}
layer {
  name: "kaggel_fc8"
  type: "InnerProduct"
  bottom: "fc7"
  top: "kaggle_fc8"
  param {
    lr_mult: 10
    decay_mult: 1
  }
  param {
    lr_mult: 20
    decay_mult: 0
  }
  inner_product_param {
    num_output: 10
    weight_filler {
      type: "gaussian"
      std: 0.01
    }
    bias_filler {
      type: "constant"
      value: 0
    }
  }
}
layer {
  name: "loss"
  type: "SoftmaxWithLoss"
  bottom: "kaggle_fc8"
  bottom: "label"
  top: "loss"
}
layer {
  name: "accuracy"
  type: "Accuracy"
  bottom: "kaggle_fc8"
  bottom: "label"
  top: "accuracy"
  include {
    phase: TEST
  }
}
I0515 18:59:11.905310 27515 layer_factory.hpp:77] Creating layer data
I0515 18:59:11.905381 27515 net.cpp:91] Creating Layer data
I0515 18:59:11.905390 27515 net.cpp:399] data -> data
I0515 18:59:11.905398 27515 net.cpp:399] data -> label
I0515 18:59:11.906731 27520 db_lmdb.cpp:35] Opened lmdb data/kaggle/kaggle_test_lmdb
I0515 18:59:11.907140 27515 data_layer.cpp:41] output data size: 40,3,224,224
I0515 18:59:11.937970 27515 net.cpp:141] Setting up data
I0515 18:59:11.938005 27515 net.cpp:148] Top shape: 40 3 224 224 (6021120)
I0515 18:59:11.938011 27515 net.cpp:148] Top shape: 40 (40)
I0515 18:59:11.938014 27515 net.cpp:156] Memory required for data: 24084640
I0515 18:59:11.938020 27515 layer_factory.hpp:77] Creating layer label_data_1_split
I0515 18:59:11.939635 27515 net.cpp:91] Creating Layer label_data_1_split
I0515 18:59:11.939653 27515 net.cpp:425] label_data_1_split <- label
I0515 18:59:11.939663 27515 net.cpp:399] label_data_1_split -> label_data_1_split_0
I0515 18:59:11.939674 27515 net.cpp:399] label_data_1_split -> label_data_1_split_1
I0515 18:59:11.940904 27515 net.cpp:141] Setting up label_data_1_split
I0515 18:59:11.940922 27515 net.cpp:148] Top shape: 40 (40)
I0515 18:59:11.940927 27515 net.cpp:148] Top shape: 40 (40)
I0515 18:59:11.940929 27515 net.cpp:156] Memory required for data: 24084960
I0515 18:59:11.940933 27515 layer_factory.hpp:77] Creating layer conv1_1
I0515 18:59:11.940944 27515 net.cpp:91] Creating Layer conv1_1
I0515 18:59:11.940948 27515 net.cpp:425] conv1_1 <- data
I0515 18:59:11.940954 27515 net.cpp:399] conv1_1 -> conv1_1
I0515 18:59:11.941179 27515 net.cpp:141] Setting up conv1_1
I0515 18:59:11.941187 27515 net.cpp:148] Top shape: 40 64 224 224 (128450560)
I0515 18:59:11.941190 27515 net.cpp:156] Memory required for data: 537887200
I0515 18:59:11.941200 27515 layer_factory.hpp:77] Creating layer relu1_1
I0515 18:59:11.941205 27515 net.cpp:91] Creating Layer relu1_1
I0515 18:59:11.941208 27515 net.cpp:425] relu1_1 <- conv1_1
I0515 18:59:11.941213 27515 net.cpp:386] relu1_1 -> conv1_1 (in-place)
I0515 18:59:11.941220 27515 net.cpp:141] Setting up relu1_1
I0515 18:59:11.941223 27515 net.cpp:148] Top shape: 40 64 224 224 (128450560)
I0515 18:59:11.941226 27515 net.cpp:156] Memory required for data: 1051689440
I0515 18:59:11.941229 27515 layer_factory.hpp:77] Creating layer conv1_2
I0515 18:59:11.941236 27515 net.cpp:91] Creating Layer conv1_2
I0515 18:59:11.941241 27515 net.cpp:425] conv1_2 <- conv1_1
I0515 18:59:11.941244 27515 net.cpp:399] conv1_2 -> conv1_2
I0515 18:59:11.941835 27515 net.cpp:141] Setting up conv1_2
I0515 18:59:11.941848 27515 net.cpp:148] Top shape: 40 64 224 224 (128450560)
I0515 18:59:11.941851 27515 net.cpp:156] Memory required for data: 1565491680
I0515 18:59:11.941859 27515 layer_factory.hpp:77] Creating layer relu1_2
I0515 18:59:11.941864 27515 net.cpp:91] Creating Layer relu1_2
I0515 18:59:11.941867 27515 net.cpp:425] relu1_2 <- conv1_2
I0515 18:59:11.941871 27515 net.cpp:386] relu1_2 -> conv1_2 (in-place)
I0515 18:59:11.941877 27515 net.cpp:141] Setting up relu1_2
I0515 18:59:11.941881 27515 net.cpp:148] Top shape: 40 64 224 224 (128450560)
I0515 18:59:11.941884 27515 net.cpp:156] Memory required for data: 2079293920
I0515 18:59:11.941886 27515 layer_factory.hpp:77] Creating layer pool1
I0515 18:59:11.941895 27515 net.cpp:91] Creating Layer pool1
I0515 18:59:11.941897 27515 net.cpp:425] pool1 <- conv1_2
I0515 18:59:11.941901 27515 net.cpp:399] pool1 -> pool1
I0515 18:59:11.941932 27515 net.cpp:141] Setting up pool1
I0515 18:59:11.941938 27515 net.cpp:148] Top shape: 40 64 112 112 (32112640)
I0515 18:59:11.941941 27515 net.cpp:156] Memory required for data: 2207744480
I0515 18:59:11.941951 27515 layer_factory.hpp:77] Creating layer conv2_1
I0515 18:59:11.941967 27515 net.cpp:91] Creating Layer conv2_1
I0515 18:59:11.941970 27515 net.cpp:425] conv2_1 <- pool1
I0515 18:59:11.941974 27515 net.cpp:399] conv2_1 -> conv2_1
I0515 18:59:11.942523 27515 net.cpp:141] Setting up conv2_1
I0515 18:59:11.942534 27515 net.cpp:148] Top shape: 40 128 112 112 (64225280)
I0515 18:59:11.942538 27515 net.cpp:156] Memory required for data: 2464645600
I0515 18:59:11.942545 27515 layer_factory.hpp:77] Creating layer relu2_1
I0515 18:59:11.942551 27515 net.cpp:91] Creating Layer relu2_1
I0515 18:59:11.942555 27515 net.cpp:425] relu2_1 <- conv2_1
I0515 18:59:11.942561 27515 net.cpp:386] relu2_1 -> conv2_1 (in-place)
I0515 18:59:11.942566 27515 net.cpp:141] Setting up relu2_1
I0515 18:59:11.942570 27515 net.cpp:148] Top shape: 40 128 112 112 (64225280)
I0515 18:59:11.942574 27515 net.cpp:156] Memory required for data: 2721546720
I0515 18:59:11.942576 27515 layer_factory.hpp:77] Creating layer conv2_2
I0515 18:59:11.942584 27515 net.cpp:91] Creating Layer conv2_2
I0515 18:59:11.942586 27515 net.cpp:425] conv2_2 <- conv2_1
I0515 18:59:11.942590 27515 net.cpp:399] conv2_2 -> conv2_2
I0515 18:59:11.942834 27515 net.cpp:141] Setting up conv2_2
I0515 18:59:11.942842 27515 net.cpp:148] Top shape: 40 128 112 112 (64225280)
I0515 18:59:11.942845 27515 net.cpp:156] Memory required for data: 2978447840
I0515 18:59:11.942850 27515 layer_factory.hpp:77] Creating layer relu2_2
I0515 18:59:11.942857 27515 net.cpp:91] Creating Layer relu2_2
I0515 18:59:11.942862 27515 net.cpp:425] relu2_2 <- conv2_2
I0515 18:59:11.942865 27515 net.cpp:386] relu2_2 -> conv2_2 (in-place)
I0515 18:59:11.942870 27515 net.cpp:141] Setting up relu2_2
I0515 18:59:11.942874 27515 net.cpp:148] Top shape: 40 128 112 112 (64225280)
I0515 18:59:11.942876 27515 net.cpp:156] Memory required for data: 3235348960
I0515 18:59:11.942879 27515 layer_factory.hpp:77] Creating layer pool2
I0515 18:59:11.942885 27515 net.cpp:91] Creating Layer pool2
I0515 18:59:11.942888 27515 net.cpp:425] pool2 <- conv2_2
I0515 18:59:11.942893 27515 net.cpp:399] pool2 -> pool2
I0515 18:59:11.942924 27515 net.cpp:141] Setting up pool2
I0515 18:59:11.942929 27515 net.cpp:148] Top shape: 40 128 56 56 (16056320)
I0515 18:59:11.942931 27515 net.cpp:156] Memory required for data: 3299574240
I0515 18:59:11.942934 27515 layer_factory.hpp:77] Creating layer conv3_1
I0515 18:59:11.942941 27515 net.cpp:91] Creating Layer conv3_1
I0515 18:59:11.942945 27515 net.cpp:425] conv3_1 <- pool2
I0515 18:59:11.942948 27515 net.cpp:399] conv3_1 -> conv3_1
I0515 18:59:11.943645 27515 net.cpp:141] Setting up conv3_1
I0515 18:59:11.943657 27515 net.cpp:148] Top shape: 40 256 56 56 (32112640)
I0515 18:59:11.943660 27515 net.cpp:156] Memory required for data: 3428024800
I0515 18:59:11.943668 27515 layer_factory.hpp:77] Creating layer relu3_1
I0515 18:59:11.943675 27515 net.cpp:91] Creating Layer relu3_1
I0515 18:59:11.943680 27515 net.cpp:425] relu3_1 <- conv3_1
I0515 18:59:11.943683 27515 net.cpp:386] relu3_1 -> conv3_1 (in-place)
I0515 18:59:11.943689 27515 net.cpp:141] Setting up relu3_1
I0515 18:59:11.943693 27515 net.cpp:148] Top shape: 40 256 56 56 (32112640)
I0515 18:59:11.943696 27515 net.cpp:156] Memory required for data: 3556475360
I0515 18:59:11.943699 27515 layer_factory.hpp:77] Creating layer conv3_2
I0515 18:59:11.943706 27515 net.cpp:91] Creating Layer conv3_2
I0515 18:59:11.943708 27515 net.cpp:425] conv3_2 <- conv3_1
I0515 18:59:11.943713 27515 net.cpp:399] conv3_2 -> conv3_2
I0515 18:59:11.944823 27515 net.cpp:141] Setting up conv3_2
I0515 18:59:11.944834 27515 net.cpp:148] Top shape: 40 256 56 56 (32112640)
I0515 18:59:11.944839 27515 net.cpp:156] Memory required for data: 3684925920
I0515 18:59:11.944847 27515 layer_factory.hpp:77] Creating layer relu3_2
I0515 18:59:11.944854 27515 net.cpp:91] Creating Layer relu3_2
I0515 18:59:11.944857 27515 net.cpp:425] relu3_2 <- conv3_2
I0515 18:59:11.944861 27515 net.cpp:386] relu3_2 -> conv3_2 (in-place)
I0515 18:59:11.944867 27515 net.cpp:141] Setting up relu3_2
I0515 18:59:11.944878 27515 net.cpp:148] Top shape: 40 256 56 56 (32112640)
I0515 18:59:11.944886 27515 net.cpp:156] Memory required for data: 3813376480
I0515 18:59:11.944890 27515 layer_factory.hpp:77] Creating layer conv3_3
I0515 18:59:11.944898 27515 net.cpp:91] Creating Layer conv3_3
I0515 18:59:11.944901 27515 net.cpp:425] conv3_3 <- conv3_2
I0515 18:59:11.944907 27515 net.cpp:399] conv3_3 -> conv3_3
I0515 18:59:11.946009 27515 net.cpp:141] Setting up conv3_3
I0515 18:59:11.946022 27515 net.cpp:148] Top shape: 40 256 56 56 (32112640)
I0515 18:59:11.946024 27515 net.cpp:156] Memory required for data: 3941827040
I0515 18:59:11.946029 27515 layer_factory.hpp:77] Creating layer relu3_3
I0515 18:59:11.946035 27515 net.cpp:91] Creating Layer relu3_3
I0515 18:59:11.946038 27515 net.cpp:425] relu3_3 <- conv3_3
I0515 18:59:11.946043 27515 net.cpp:386] relu3_3 -> conv3_3 (in-place)
I0515 18:59:11.946049 27515 net.cpp:141] Setting up relu3_3
I0515 18:59:11.946053 27515 net.cpp:148] Top shape: 40 256 56 56 (32112640)
I0515 18:59:11.946056 27515 net.cpp:156] Memory required for data: 4070277600
I0515 18:59:11.946059 27515 layer_factory.hpp:77] Creating layer pool3
I0515 18:59:11.946064 27515 net.cpp:91] Creating Layer pool3
I0515 18:59:11.946068 27515 net.cpp:425] pool3 <- conv3_3
I0515 18:59:11.946074 27515 net.cpp:399] pool3 -> pool3
I0515 18:59:11.946104 27515 net.cpp:141] Setting up pool3
I0515 18:59:11.946110 27515 net.cpp:148] Top shape: 40 256 28 28 (8028160)
I0515 18:59:11.946112 27515 net.cpp:156] Memory required for data: 4102390240
I0515 18:59:11.946115 27515 layer_factory.hpp:77] Creating layer conv4_1
I0515 18:59:11.946122 27515 net.cpp:91] Creating Layer conv4_1
I0515 18:59:11.946125 27515 net.cpp:425] conv4_1 <- pool3
I0515 18:59:11.946131 27515 net.cpp:399] conv4_1 -> conv4_1
I0515 18:59:11.948040 27515 net.cpp:141] Setting up conv4_1
I0515 18:59:11.948055 27515 net.cpp:148] Top shape: 40 512 28 28 (16056320)
I0515 18:59:11.948058 27515 net.cpp:156] Memory required for data: 4166615520
I0515 18:59:11.948065 27515 layer_factory.hpp:77] Creating layer relu4_1
I0515 18:59:11.948071 27515 net.cpp:91] Creating Layer relu4_1
I0515 18:59:11.948074 27515 net.cpp:425] relu4_1 <- conv4_1
I0515 18:59:11.948078 27515 net.cpp:386] relu4_1 -> conv4_1 (in-place)
I0515 18:59:11.948084 27515 net.cpp:141] Setting up relu4_1
I0515 18:59:11.948088 27515 net.cpp:148] Top shape: 40 512 28 28 (16056320)
I0515 18:59:11.948091 27515 net.cpp:156] Memory required for data: 4230840800
I0515 18:59:11.948094 27515 layer_factory.hpp:77] Creating layer conv4_2
I0515 18:59:11.948101 27515 net.cpp:91] Creating Layer conv4_2
I0515 18:59:11.948104 27515 net.cpp:425] conv4_2 <- conv4_1
I0515 18:59:11.948109 27515 net.cpp:399] conv4_2 -> conv4_2
I0515 18:59:11.951979 27515 net.cpp:141] Setting up conv4_2
I0515 18:59:11.952008 27515 net.cpp:148] Top shape: 40 512 28 28 (16056320)
I0515 18:59:11.952013 27515 net.cpp:156] Memory required for data: 4295066080
I0515 18:59:11.952028 27515 layer_factory.hpp:77] Creating layer relu4_2
I0515 18:59:11.952036 27515 net.cpp:91] Creating Layer relu4_2
I0515 18:59:11.952041 27515 net.cpp:425] relu4_2 <- conv4_2
I0515 18:59:11.952046 27515 net.cpp:386] relu4_2 -> conv4_2 (in-place)
I0515 18:59:11.952054 27515 net.cpp:141] Setting up relu4_2
I0515 18:59:11.952057 27515 net.cpp:148] Top shape: 40 512 28 28 (16056320)
I0515 18:59:11.952060 27515 net.cpp:156] Memory required for data: 4359291360
I0515 18:59:11.952064 27515 layer_factory.hpp:77] Creating layer conv4_3
I0515 18:59:11.952071 27515 net.cpp:91] Creating Layer conv4_3
I0515 18:59:11.952075 27515 net.cpp:425] conv4_3 <- conv4_2
I0515 18:59:11.952080 27515 net.cpp:399] conv4_3 -> conv4_3
I0515 18:59:11.956097 27515 net.cpp:141] Setting up conv4_3
I0515 18:59:11.956128 27515 net.cpp:148] Top shape: 40 512 28 28 (16056320)
I0515 18:59:11.956131 27515 net.cpp:156] Memory required for data: 4423516640
I0515 18:59:11.956140 27515 layer_factory.hpp:77] Creating layer relu4_3
I0515 18:59:11.956151 27515 net.cpp:91] Creating Layer relu4_3
I0515 18:59:11.956163 27515 net.cpp:425] relu4_3 <- conv4_3
I0515 18:59:11.956176 27515 net.cpp:386] relu4_3 -> conv4_3 (in-place)
I0515 18:59:11.956183 27515 net.cpp:141] Setting up relu4_3
I0515 18:59:11.956187 27515 net.cpp:148] Top shape: 40 512 28 28 (16056320)
I0515 18:59:11.956190 27515 net.cpp:156] Memory required for data: 4487741920
I0515 18:59:11.956193 27515 layer_factory.hpp:77] Creating layer pool4
I0515 18:59:11.956199 27515 net.cpp:91] Creating Layer pool4
I0515 18:59:11.956203 27515 net.cpp:425] pool4 <- conv4_3
I0515 18:59:11.956209 27515 net.cpp:399] pool4 -> pool4
I0515 18:59:11.956243 27515 net.cpp:141] Setting up pool4
I0515 18:59:11.956249 27515 net.cpp:148] Top shape: 40 512 14 14 (4014080)
I0515 18:59:11.956253 27515 net.cpp:156] Memory required for data: 4503798240
I0515 18:59:11.956255 27515 layer_factory.hpp:77] Creating layer conv5_1
I0515 18:59:11.956264 27515 net.cpp:91] Creating Layer conv5_1
I0515 18:59:11.956267 27515 net.cpp:425] conv5_1 <- pool4
I0515 18:59:11.956272 27515 net.cpp:399] conv5_1 -> conv5_1
I0515 18:59:11.960188 27515 net.cpp:141] Setting up conv5_1
I0515 18:59:11.960222 27515 net.cpp:148] Top shape: 40 512 14 14 (4014080)
I0515 18:59:11.960227 27515 net.cpp:156] Memory required for data: 4519854560
I0515 18:59:11.960232 27515 layer_factory.hpp:77] Creating layer relu5_1
I0515 18:59:11.960242 27515 net.cpp:91] Creating Layer relu5_1
I0515 18:59:11.960247 27515 net.cpp:425] relu5_1 <- conv5_1
I0515 18:59:11.960253 27515 net.cpp:386] relu5_1 -> conv5_1 (in-place)
I0515 18:59:11.960259 27515 net.cpp:141] Setting up relu5_1
I0515 18:59:11.960263 27515 net.cpp:148] Top shape: 40 512 14 14 (4014080)
I0515 18:59:11.960266 27515 net.cpp:156] Memory required for data: 4535910880
I0515 18:59:11.960269 27515 layer_factory.hpp:77] Creating layer conv5_2
I0515 18:59:11.960278 27515 net.cpp:91] Creating Layer conv5_2
I0515 18:59:11.960281 27515 net.cpp:425] conv5_2 <- conv5_1
I0515 18:59:11.960286 27515 net.cpp:399] conv5_2 -> conv5_2
I0515 18:59:11.964148 27515 net.cpp:141] Setting up conv5_2
I0515 18:59:11.964174 27515 net.cpp:148] Top shape: 40 512 14 14 (4014080)
I0515 18:59:11.964179 27515 net.cpp:156] Memory required for data: 4551967200
I0515 18:59:11.964185 27515 layer_factory.hpp:77] Creating layer relu5_2
I0515 18:59:11.964193 27515 net.cpp:91] Creating Layer relu5_2
I0515 18:59:11.964197 27515 net.cpp:425] relu5_2 <- conv5_2
I0515 18:59:11.964205 27515 net.cpp:386] relu5_2 -> conv5_2 (in-place)
I0515 18:59:11.964212 27515 net.cpp:141] Setting up relu5_2
I0515 18:59:11.964216 27515 net.cpp:148] Top shape: 40 512 14 14 (4014080)
I0515 18:59:11.964220 27515 net.cpp:156] Memory required for data: 4568023520
I0515 18:59:11.964222 27515 layer_factory.hpp:77] Creating layer conv5_3
I0515 18:59:11.964229 27515 net.cpp:91] Creating Layer conv5_3
I0515 18:59:11.964232 27515 net.cpp:425] conv5_3 <- conv5_2
I0515 18:59:11.964238 27515 net.cpp:399] conv5_3 -> conv5_3
I0515 18:59:11.968005 27515 net.cpp:141] Setting up conv5_3
I0515 18:59:11.968029 27515 net.cpp:148] Top shape: 40 512 14 14 (4014080)
I0515 18:59:11.968032 27515 net.cpp:156] Memory required for data: 4584079840
I0515 18:59:11.968040 27515 layer_factory.hpp:77] Creating layer relu5_3
I0515 18:59:11.968047 27515 net.cpp:91] Creating Layer relu5_3
I0515 18:59:11.968051 27515 net.cpp:425] relu5_3 <- conv5_3
I0515 18:59:11.968058 27515 net.cpp:386] relu5_3 -> conv5_3 (in-place)
I0515 18:59:11.968065 27515 net.cpp:141] Setting up relu5_3
I0515 18:59:11.968070 27515 net.cpp:148] Top shape: 40 512 14 14 (4014080)
I0515 18:59:11.968072 27515 net.cpp:156] Memory required for data: 4600136160
I0515 18:59:11.968075 27515 layer_factory.hpp:77] Creating layer pool5
I0515 18:59:11.968087 27515 net.cpp:91] Creating Layer pool5
I0515 18:59:11.968091 27515 net.cpp:425] pool5 <- conv5_3
I0515 18:59:11.968096 27515 net.cpp:399] pool5 -> pool5
I0515 18:59:11.968134 27515 net.cpp:141] Setting up pool5
I0515 18:59:11.968140 27515 net.cpp:148] Top shape: 40 512 7 7 (1003520)
I0515 18:59:11.968143 27515 net.cpp:156] Memory required for data: 4604150240
I0515 18:59:11.968155 27515 layer_factory.hpp:77] Creating layer fc6
I0515 18:59:11.968169 27515 net.cpp:91] Creating Layer fc6
I0515 18:59:11.968173 27515 net.cpp:425] fc6 <- pool5
I0515 18:59:11.968178 27515 net.cpp:399] fc6 -> fc6
I0515 18:59:12.149317 27515 net.cpp:141] Setting up fc6
I0515 18:59:12.149351 27515 net.cpp:148] Top shape: 40 4096 (163840)
I0515 18:59:12.149354 27515 net.cpp:156] Memory required for data: 4604805600
I0515 18:59:12.149363 27515 layer_factory.hpp:77] Creating layer relu6
I0515 18:59:12.149374 27515 net.cpp:91] Creating Layer relu6
I0515 18:59:12.149379 27515 net.cpp:425] relu6 <- fc6
I0515 18:59:12.149385 27515 net.cpp:386] relu6 -> fc6 (in-place)
I0515 18:59:12.149394 27515 net.cpp:141] Setting up relu6
I0515 18:59:12.149397 27515 net.cpp:148] Top shape: 40 4096 (163840)
I0515 18:59:12.149400 27515 net.cpp:156] Memory required for data: 4605460960
I0515 18:59:12.149404 27515 layer_factory.hpp:77] Creating layer drop6
I0515 18:59:12.149411 27515 net.cpp:91] Creating Layer drop6
I0515 18:59:12.149415 27515 net.cpp:425] drop6 <- fc6
I0515 18:59:12.149418 27515 net.cpp:386] drop6 -> fc6 (in-place)
I0515 18:59:12.149442 27515 net.cpp:141] Setting up drop6
I0515 18:59:12.149448 27515 net.cpp:148] Top shape: 40 4096 (163840)
I0515 18:59:12.149451 27515 net.cpp:156] Memory required for data: 4606116320
I0515 18:59:12.149453 27515 layer_factory.hpp:77] Creating layer fc7
I0515 18:59:12.149461 27515 net.cpp:91] Creating Layer fc7
I0515 18:59:12.149464 27515 net.cpp:425] fc7 <- fc6
I0515 18:59:12.149469 27515 net.cpp:399] fc7 -> fc7
I0515 18:59:12.178546 27515 net.cpp:141] Setting up fc7
I0515 18:59:12.178585 27515 net.cpp:148] Top shape: 40 4096 (163840)
I0515 18:59:12.178588 27515 net.cpp:156] Memory required for data: 4606771680
I0515 18:59:12.178597 27515 layer_factory.hpp:77] Creating layer relu7
I0515 18:59:12.178607 27515 net.cpp:91] Creating Layer relu7
I0515 18:59:12.178612 27515 net.cpp:425] relu7 <- fc7
I0515 18:59:12.178618 27515 net.cpp:386] relu7 -> fc7 (in-place)
I0515 18:59:12.178627 27515 net.cpp:141] Setting up relu7
I0515 18:59:12.178630 27515 net.cpp:148] Top shape: 40 4096 (163840)
I0515 18:59:12.178633 27515 net.cpp:156] Memory required for data: 4607427040
I0515 18:59:12.178637 27515 layer_factory.hpp:77] Creating layer drop7
I0515 18:59:12.178643 27515 net.cpp:91] Creating Layer drop7
I0515 18:59:12.178647 27515 net.cpp:425] drop7 <- fc7
I0515 18:59:12.178652 27515 net.cpp:386] drop7 -> fc7 (in-place)
I0515 18:59:12.178678 27515 net.cpp:141] Setting up drop7
I0515 18:59:12.178683 27515 net.cpp:148] Top shape: 40 4096 (163840)
I0515 18:59:12.178686 27515 net.cpp:156] Memory required for data: 4608082400
I0515 18:59:12.178689 27515 layer_factory.hpp:77] Creating layer kaggel_fc8
I0515 18:59:12.178696 27515 net.cpp:91] Creating Layer kaggel_fc8
I0515 18:59:12.178699 27515 net.cpp:425] kaggel_fc8 <- fc7
I0515 18:59:12.178705 27515 net.cpp:399] kaggel_fc8 -> kaggle_fc8
I0515 18:59:12.179795 27515 net.cpp:141] Setting up kaggel_fc8
I0515 18:59:12.179803 27515 net.cpp:148] Top shape: 40 10 (400)
I0515 18:59:12.179806 27515 net.cpp:156] Memory required for data: 4608084000
I0515 18:59:12.179811 27515 layer_factory.hpp:77] Creating layer kaggle_fc8_kaggel_fc8_0_split
I0515 18:59:12.179817 27515 net.cpp:91] Creating Layer kaggle_fc8_kaggel_fc8_0_split
I0515 18:59:12.179821 27515 net.cpp:425] kaggle_fc8_kaggel_fc8_0_split <- kaggle_fc8
I0515 18:59:12.179826 27515 net.cpp:399] kaggle_fc8_kaggel_fc8_0_split -> kaggle_fc8_kaggel_fc8_0_split_0
I0515 18:59:12.179831 27515 net.cpp:399] kaggle_fc8_kaggel_fc8_0_split -> kaggle_fc8_kaggel_fc8_0_split_1
I0515 18:59:12.179865 27515 net.cpp:141] Setting up kaggle_fc8_kaggel_fc8_0_split
I0515 18:59:12.179872 27515 net.cpp:148] Top shape: 40 10 (400)
I0515 18:59:12.179874 27515 net.cpp:148] Top shape: 40 10 (400)
I0515 18:59:12.179877 27515 net.cpp:156] Memory required for data: 4608087200
I0515 18:59:12.179880 27515 layer_factory.hpp:77] Creating layer loss
I0515 18:59:12.179886 27515 net.cpp:91] Creating Layer loss
I0515 18:59:12.179890 27515 net.cpp:425] loss <- kaggle_fc8_kaggel_fc8_0_split_0
I0515 18:59:12.179913 27515 net.cpp:425] loss <- label_data_1_split_0
I0515 18:59:12.179918 27515 net.cpp:399] loss -> loss
…
