…
I0516 16:56:22.742748   834 net.cpp:313] The NetState phase (0) differed from the phase (1) specified by a rule in layer accuracy
I0516 16:56:22.742957   834 net.cpp:49] Initializing net from parameters: 
name: "VGG_ILSVRC_16_layer"
state {
  phase: TRAIN
}
layer {
  name: "data"
  type: "Data"
  top: "data"
  top: "label"
  include {
    phase: TRAIN
  }
  transform_param {
    mirror: true
    crop_size: 224
    mean_value: 104
    mean_value: 117
    mean_value: 123
  }
  data_param {
    source: "data/kaggle/kaggle_train_lmdb"
    batch_size: 48
    backend: LMDB
  }
}
layer {
  name: "conv1_1"
  type: "Convolution"
  bottom: "data"
  top: "conv1_1"
  param {
    lr_mult: 1
    decay_mult: 1
  }
  param {
    lr_mult: 2
    decay_mult: 0
  }
  convolution_param {
    num_output: 64
    pad: 1
    kernel_size: 3
  }
}
layer {
  name: "relu1_1"
  type: "ReLU"
  bottom: "conv1_1"
  top: "conv1_1"
}
layer {
  name: "conv1_2"
  type: "Convolution"
  bottom: "conv1_1"
  top: "conv1_2"
  param {
    lr_mult: 1
    decay_mult: 1
  }
  param {
    lr_mult: 2
    decay_mult: 0
  }
  convolution_param {
    num_output: 64
    pad: 1
    kernel_size: 3
  }
}
layer {
  name: "relu1_2"
  type: "ReLU"
  bottom: "conv1_2"
  top: "conv1_2"
}
layer {
  name: "pool1"
  type: "Pooling"
  bottom: "conv1_2"
  top: "pool1"
  pooling_param {
    pool: MAX
    kernel_size: 2
    stride: 2
  }
}
layer {
  name: "conv2_1"
  type: "Convolution"
  bottom: "pool1"
  top: "conv2_1"
  param {
    lr_mult: 1
    decay_mult: 1
  }
  param {
    lr_mult: 2
    decay_mult: 0
  }
  convolution_param {
    num_output: 128
    pad: 1
    kernel_size: 3
  }
}
layer {
  name: "relu2_1"
  type: "ReLU"
  bottom: "conv2_1"
  top: "conv2_1"
}
layer {
  name: "conv2_2"
  type: "Convolution"
  bottom: "conv2_1"
  top: "conv2_2"
  param {
    lr_mult: 1
    decay_mult: 1
  }
  param {
    lr_mult: 2
    decay_mult: 0
  }
  convolution_param {
    num_output: 128
    pad: 1
    kernel_size: 3
  }
}
layer {
  name: "relu2_2"
  type: "ReLU"
  bottom: "conv2_2"
  top: "conv2_2"
}
layer {
  name: "pool2"
  type: "Pooling"
  bottom: "conv2_2"
  top: "pool2"
  pooling_param {
    pool: MAX
    kernel_size: 2
    stride: 2
  }
}
layer {
  name: "conv3_1"
  type: "Convolution"
  bottom: "pool2"
  top: "conv3_1"
  param {
    lr_mult: 1
    decay_mult: 1
  }
  param {
    lr_mult: 2
    decay_mult: 0
  }
  convolution_param {
    num_output: 256
    pad: 1
    kernel_size: 3
  }
}
layer {
  name: "relu3_1"
  type: "ReLU"
  bottom: "conv3_1"
  top: "conv3_1"
}
layer {
  name: "conv3_2"
  type: "Convolution"
  bottom: "conv3_1"
  top: "conv3_2"
  param {
    lr_mult: 1
    decay_mult: 1
  }
  param {
    lr_mult: 2
    decay_mult: 0
  }
  convolution_param {
    num_output: 256
    pad: 1
    kernel_size: 3
  }
}
layer {
  name: "relu3_2"
  type: "ReLU"
  bottom: "conv3_2"
  top: "conv3_2"
}
layer {
  name: "conv3_3"
  type: "Convolution"
  bottom: "conv3_2"
  top: "conv3_3"
  param {
    lr_mult: 1
    decay_mult: 1
  }
  param {
    lr_mult: 2
    decay_mult: 0
  }
  convolution_param {
    num_output: 256
    pad: 1
    kernel_size: 3
  }
}
layer {
  name: "relu3_3"
  type: "ReLU"
  bottom: "conv3_3"
  top: "conv3_3"
}
layer {
  name: "pool3"
  type: "Pooling"
  bottom: "conv3_3"
  top: "pool3"
  pooling_param {
    pool: MAX
    kernel_size: 2
    stride: 2
  }
}
layer {
  name: "conv4_1"
  type: "Convolution"
  bottom: "pool3"
  top: "conv4_1"
  param {
    lr_mult: 1
    decay_mult: 1
  }
  param {
    lr_mult: 2
    decay_mult: 0
  }
  convolution_param {
    num_output: 512
    pad: 1
    kernel_size: 3
  }
}
layer {
  name: "relu4_1"
  type: "ReLU"
  bottom: "conv4_1"
  top: "conv4_1"
}
layer {
  name: "conv4_2"
  type: "Convolution"
  bottom: "conv4_1"
  top: "conv4_2"
  param {
    lr_mult: 1
    decay_mult: 1
  }
  param {
    lr_mult: 2
    decay_mult: 0
  }
  convolution_param {
    num_output: 512
    pad: 1
    kernel_size: 3
  }
}
layer {
  name: "relu4_2"
  type: "ReLU"
  bottom: "conv4_2"
  top: "conv4_2"
}
layer {
  name: "conv4_3"
  type: "Convolution"
  bottom: "conv4_2"
  top: "conv4_3"
  param {
    lr_mult: 1
    decay_mult: 1
  }
  param {
    lr_mult: 2
    decay_mult: 0
  }
  convolution_param {
    num_output: 512
    pad: 1
    kernel_size: 3
  }
}
layer {
  name: "relu4_3"
  type: "ReLU"
  bottom: "conv4_3"
  top: "conv4_3"
}
layer {
  name: "pool4"
  type: "Pooling"
  bottom: "conv4_3"
  top: "pool4"
  pooling_param {
    pool: MAX
    kernel_size: 2
    stride: 2
  }
}
layer {
  name: "conv5_1"
  type: "Convolution"
  bottom: "pool4"
  top: "conv5_1"
  param {
    lr_mult: 1
    decay_mult: 1
  }
  param {
    lr_mult: 2
    decay_mult: 0
  }
  convolution_param {
    num_output: 512
    pad: 1
    kernel_size: 3
  }
}
layer {
  name: "relu5_1"
  type: "ReLU"
  bottom: "conv5_1"
  top: "conv5_1"
}
layer {
  name: "conv5_2"
  type: "Convolution"
  bottom: "conv5_1"
  top: "conv5_2"
  param {
    lr_mult: 1
    decay_mult: 1
  }
  param {
    lr_mult: 2
    decay_mult: 0
  }
  convolution_param {
    num_output: 512
    pad: 1
    kernel_size: 3
  }
}
layer {
  name: "relu5_2"
  type: "ReLU"
  bottom: "conv5_2"
  top: "conv5_2"
}
layer {
  name: "conv5_3"
  type: "Convolution"
  bottom: "conv5_2"
  top: "conv5_3"
  param {
    lr_mult: 1
    decay_mult: 1
  }
  param {
    lr_mult: 2
    decay_mult: 0
  }
  convolution_param {
    num_output: 512
    pad: 1
    kernel_size: 3
  }
}
layer {
  name: "relu5_3"
  type: "ReLU"
  bottom: "conv5_3"
  top: "conv5_3"
}
layer {
  name: "pool5"
  type: "Pooling"
  bottom: "conv5_3"
  top: "pool5"
  pooling_param {
    pool: MAX
    kernel_size: 2
    stride: 2
  }
}
layer {
  name: "fc6"
  type: "InnerProduct"
  bottom: "pool5"
  top: "fc6"
  param {
    lr_mult: 1
    decay_mult: 1
  }
  param {
    lr_mult: 2
    decay_mult: 0
  }
  inner_product_param {
    num_output: 4096
  }
}
layer {
  name: "relu6"
  type: "ReLU"
  bottom: "fc6"
  top: "fc6"
}
layer {
  name: "drop6"
  type: "Dropout"
  bottom: "fc6"
  top: "fc6"
  dropout_param {
    dropout_ratio: 0.5
  }
}
layer {
  name: "fc7"
  type: "InnerProduct"
  bottom: "fc6"
  top: "fc7"
  param {
    lr_mult: 1
    decay_mult: 1
  }
  param {
    lr_mult: 2
    decay_mult: 0
  }
  inner_product_param {
    num_output: 4096
  }
}
layer {
  name: "relu7"
  type: "ReLU"
  bottom: "fc7"
  top: "fc7"
}
layer {
  name: "drop7"
  type: "Dropout"
  bottom: "fc7"
  top: "fc7"
  dropout_param {
    dropout_ratio: 0.5
  }
}
layer {
  name: "kaggel_fc8"
  type: "InnerProduct"
  bottom: "fc7"
  top: "kaggle_fc8"
  param {
    lr_mult: 10
    decay_mult: 1
  }
  param {
    lr_mult: 20
    decay_mult: 0
  }
  inner_product_param {
    num_output: 10
    weight_filler {
      type: "gaussian"
      std: 0.01
    }
    bias_filler {
      type: "constant"
      value: 0
    }
  }
}
layer {
  name: "loss"
  type: "SoftmaxWithLoss"
  bottom: "kaggle_fc8"
  bottom: "label"
  top: "loss"
}
I0516 16:56:22.743134   834 layer_factory.hpp:77] Creating layer data
I0516 16:56:22.744016   834 net.cpp:91] Creating Layer data
I0516 16:56:22.744034   834 net.cpp:399] data -> data
I0516 16:56:22.744060   834 net.cpp:399] data -> label
I0516 16:56:22.745486   837 db_lmdb.cpp:35] Opened lmdb data/kaggle/kaggle_train_lmdb
I0516 16:56:22.755420   834 data_layer.cpp:41] output data size: 48,3,224,224
I0516 16:56:22.800071   834 net.cpp:141] Setting up data
I0516 16:56:22.800122   834 net.cpp:148] Top shape: 48 3 224 224 (7225344)
I0516 16:56:22.800138   834 net.cpp:148] Top shape: 48 (48)
I0516 16:56:22.800143   834 net.cpp:156] Memory required for data: 28901568
I0516 16:56:22.800154   834 layer_factory.hpp:77] Creating layer conv1_1
I0516 16:56:22.800181   834 net.cpp:91] Creating Layer conv1_1
I0516 16:56:22.800187   834 net.cpp:425] conv1_1 <- data
I0516 16:56:22.800202   834 net.cpp:399] conv1_1 -> conv1_1
I0516 16:56:22.801301   834 net.cpp:141] Setting up conv1_1
I0516 16:56:22.801319   834 net.cpp:148] Top shape: 48 64 224 224 (154140672)
I0516 16:56:22.801323   834 net.cpp:156] Memory required for data: 645464256
I0516 16:56:22.801339   834 layer_factory.hpp:77] Creating layer relu1_1
I0516 16:56:22.801348   834 net.cpp:91] Creating Layer relu1_1
I0516 16:56:22.801352   834 net.cpp:425] relu1_1 <- conv1_1
I0516 16:56:22.801359   834 net.cpp:386] relu1_1 -> conv1_1 (in-place)
I0516 16:56:22.801368   834 net.cpp:141] Setting up relu1_1
I0516 16:56:22.801373   834 net.cpp:148] Top shape: 48 64 224 224 (154140672)
I0516 16:56:22.801376   834 net.cpp:156] Memory required for data: 1262026944
I0516 16:56:22.801379   834 layer_factory.hpp:77] Creating layer conv1_2
I0516 16:56:22.801388   834 net.cpp:91] Creating Layer conv1_2
I0516 16:56:22.801391   834 net.cpp:425] conv1_2 <- conv1_1
I0516 16:56:22.801398   834 net.cpp:399] conv1_2 -> conv1_2
I0516 16:56:22.803985   834 net.cpp:141] Setting up conv1_2
I0516 16:56:22.803998   834 net.cpp:148] Top shape: 48 64 224 224 (154140672)
I0516 16:56:22.804002   834 net.cpp:156] Memory required for data: 1878589632
I0516 16:56:22.804011   834 layer_factory.hpp:77] Creating layer relu1_2
I0516 16:56:22.804018   834 net.cpp:91] Creating Layer relu1_2
I0516 16:56:22.804023   834 net.cpp:425] relu1_2 <- conv1_2
I0516 16:56:22.804028   834 net.cpp:386] relu1_2 -> conv1_2 (in-place)
I0516 16:56:22.804033   834 net.cpp:141] Setting up relu1_2
I0516 16:56:22.804039   834 net.cpp:148] Top shape: 48 64 224 224 (154140672)
I0516 16:56:22.804041   834 net.cpp:156] Memory required for data: 2495152320
I0516 16:56:22.804044   834 layer_factory.hpp:77] Creating layer pool1
I0516 16:56:22.804052   834 net.cpp:91] Creating Layer pool1
I0516 16:56:22.804056   834 net.cpp:425] pool1 <- conv1_2
I0516 16:56:22.804060   834 net.cpp:399] pool1 -> pool1
I0516 16:56:22.804107   834 net.cpp:141] Setting up pool1
I0516 16:56:22.804114   834 net.cpp:148] Top shape: 48 64 112 112 (38535168)
I0516 16:56:22.804117   834 net.cpp:156] Memory required for data: 2649292992
I0516 16:56:22.804121   834 layer_factory.hpp:77] Creating layer conv2_1
I0516 16:56:22.804129   834 net.cpp:91] Creating Layer conv2_1
I0516 16:56:22.804133   834 net.cpp:425] conv2_1 <- pool1
I0516 16:56:22.804138   834 net.cpp:399] conv2_1 -> conv2_1
I0516 16:56:22.805122   834 net.cpp:141] Setting up conv2_1
I0516 16:56:22.805136   834 net.cpp:148] Top shape: 48 128 112 112 (77070336)
I0516 16:56:22.805140   834 net.cpp:156] Memory required for data: 2957574336
I0516 16:56:22.805150   834 layer_factory.hpp:77] Creating layer relu2_1
I0516 16:56:22.805155   834 net.cpp:91] Creating Layer relu2_1
I0516 16:56:22.805160   834 net.cpp:425] relu2_1 <- conv2_1
I0516 16:56:22.805166   834 net.cpp:386] relu2_1 -> conv2_1 (in-place)
I0516 16:56:22.805172   834 net.cpp:141] Setting up relu2_1
I0516 16:56:22.805176   834 net.cpp:148] Top shape: 48 128 112 112 (77070336)
I0516 16:56:22.805179   834 net.cpp:156] Memory required for data: 3265855680
I0516 16:56:22.805183   834 layer_factory.hpp:77] Creating layer conv2_2
I0516 16:56:22.805191   834 net.cpp:91] Creating Layer conv2_2
I0516 16:56:22.805194   834 net.cpp:425] conv2_2 <- conv2_1
I0516 16:56:22.805200   834 net.cpp:399] conv2_2 -> conv2_2
I0516 16:56:22.805459   834 net.cpp:141] Setting up conv2_2
I0516 16:56:22.805466   834 net.cpp:148] Top shape: 48 128 112 112 (77070336)
I0516 16:56:22.805470   834 net.cpp:156] Memory required for data: 3574137024
I0516 16:56:22.805475   834 layer_factory.hpp:77] Creating layer relu2_2
I0516 16:56:22.805481   834 net.cpp:91] Creating Layer relu2_2
I0516 16:56:22.805492   834 net.cpp:425] relu2_2 <- conv2_2
I0516 16:56:22.805505   834 net.cpp:386] relu2_2 -> conv2_2 (in-place)
I0516 16:56:22.805511   834 net.cpp:141] Setting up relu2_2
I0516 16:56:22.805516   834 net.cpp:148] Top shape: 48 128 112 112 (77070336)
I0516 16:56:22.805519   834 net.cpp:156] Memory required for data: 3882418368
I0516 16:56:22.805522   834 layer_factory.hpp:77] Creating layer pool2
I0516 16:56:22.805527   834 net.cpp:91] Creating Layer pool2
I0516 16:56:22.805531   834 net.cpp:425] pool2 <- conv2_2
I0516 16:56:22.805537   834 net.cpp:399] pool2 -> pool2
I0516 16:56:22.805567   834 net.cpp:141] Setting up pool2
I0516 16:56:22.805572   834 net.cpp:148] Top shape: 48 128 56 56 (19267584)
I0516 16:56:22.805575   834 net.cpp:156] Memory required for data: 3959488704
I0516 16:56:22.805578   834 layer_factory.hpp:77] Creating layer conv3_1
I0516 16:56:22.805588   834 net.cpp:91] Creating Layer conv3_1
I0516 16:56:22.805591   834 net.cpp:425] conv3_1 <- pool2
I0516 16:56:22.805596   834 net.cpp:399] conv3_1 -> conv3_1
I0516 16:56:22.806341   834 net.cpp:141] Setting up conv3_1
I0516 16:56:22.806355   834 net.cpp:148] Top shape: 48 256 56 56 (38535168)
I0516 16:56:22.806359   834 net.cpp:156] Memory required for data: 4113629376
I0516 16:56:22.806367   834 layer_factory.hpp:77] Creating layer relu3_1
I0516 16:56:22.806373   834 net.cpp:91] Creating Layer relu3_1
I0516 16:56:22.806376   834 net.cpp:425] relu3_1 <- conv3_1
I0516 16:56:22.806383   834 net.cpp:386] relu3_1 -> conv3_1 (in-place)
I0516 16:56:22.806390   834 net.cpp:141] Setting up relu3_1
I0516 16:56:22.806394   834 net.cpp:148] Top shape: 48 256 56 56 (38535168)
I0516 16:56:22.806397   834 net.cpp:156] Memory required for data: 4267770048
I0516 16:56:22.806401   834 layer_factory.hpp:77] Creating layer conv3_2
I0516 16:56:22.806408   834 net.cpp:91] Creating Layer conv3_2
I0516 16:56:22.806412   834 net.cpp:425] conv3_2 <- conv3_1
I0516 16:56:22.806417   834 net.cpp:399] conv3_2 -> conv3_2
I0516 16:56:22.807596   834 net.cpp:141] Setting up conv3_2
I0516 16:56:22.807610   834 net.cpp:148] Top shape: 48 256 56 56 (38535168)
I0516 16:56:22.807615   834 net.cpp:156] Memory required for data: 4421910720
I0516 16:56:22.807621   834 layer_factory.hpp:77] Creating layer relu3_2
I0516 16:56:22.807626   834 net.cpp:91] Creating Layer relu3_2
I0516 16:56:22.807629   834 net.cpp:425] relu3_2 <- conv3_2
I0516 16:56:22.807634   834 net.cpp:386] relu3_2 -> conv3_2 (in-place)
I0516 16:56:22.807641   834 net.cpp:141] Setting up relu3_2
I0516 16:56:22.807644   834 net.cpp:148] Top shape: 48 256 56 56 (38535168)
I0516 16:56:22.807647   834 net.cpp:156] Memory required for data: 4576051392
I0516 16:56:22.807651   834 layer_factory.hpp:77] Creating layer conv3_3
I0516 16:56:22.807658   834 net.cpp:91] Creating Layer conv3_3
I0516 16:56:22.807662   834 net.cpp:425] conv3_3 <- conv3_2
I0516 16:56:22.807667   834 net.cpp:399] conv3_3 -> conv3_3
I0516 16:56:22.808856   834 net.cpp:141] Setting up conv3_3
I0516 16:56:22.808871   834 net.cpp:148] Top shape: 48 256 56 56 (38535168)
I0516 16:56:22.808873   834 net.cpp:156] Memory required for data: 4730192064
I0516 16:56:22.808879   834 layer_factory.hpp:77] Creating layer relu3_3
I0516 16:56:22.808887   834 net.cpp:91] Creating Layer relu3_3
I0516 16:56:22.808892   834 net.cpp:425] relu3_3 <- conv3_3
I0516 16:56:22.808897   834 net.cpp:386] relu3_3 -> conv3_3 (in-place)
I0516 16:56:22.808903   834 net.cpp:141] Setting up relu3_3
I0516 16:56:22.808908   834 net.cpp:148] Top shape: 48 256 56 56 (38535168)
I0516 16:56:22.808912   834 net.cpp:156] Memory required for data: 4884332736
I0516 16:56:22.808914   834 layer_factory.hpp:77] Creating layer pool3
I0516 16:56:22.808920   834 net.cpp:91] Creating Layer pool3
I0516 16:56:22.808923   834 net.cpp:425] pool3 <- conv3_3
I0516 16:56:22.808928   834 net.cpp:399] pool3 -> pool3
I0516 16:56:22.808960   834 net.cpp:141] Setting up pool3
I0516 16:56:22.808966   834 net.cpp:148] Top shape: 48 256 28 28 (9633792)
I0516 16:56:22.808969   834 net.cpp:156] Memory required for data: 4922867904
I0516 16:56:22.808986   834 layer_factory.hpp:77] Creating layer conv4_1
I0516 16:56:22.808995   834 net.cpp:91] Creating Layer conv4_1
I0516 16:56:22.808998   834 net.cpp:425] conv4_1 <- pool3
I0516 16:56:22.809005   834 net.cpp:399] conv4_1 -> conv4_1
I0516 16:56:22.811444   834 net.cpp:141] Setting up conv4_1
I0516 16:56:22.811461   834 net.cpp:148] Top shape: 48 512 28 28 (19267584)
I0516 16:56:22.811465   834 net.cpp:156] Memory required for data: 4999938240
I0516 16:56:22.811471   834 layer_factory.hpp:77] Creating layer relu4_1
I0516 16:56:22.811480   834 net.cpp:91] Creating Layer relu4_1
I0516 16:56:22.811483   834 net.cpp:425] relu4_1 <- conv4_1
I0516 16:56:22.811488   834 net.cpp:386] relu4_1 -> conv4_1 (in-place)
I0516 16:56:22.811496   834 net.cpp:141] Setting up relu4_1
I0516 16:56:22.811499   834 net.cpp:148] Top shape: 48 512 28 28 (19267584)
I0516 16:56:22.811502   834 net.cpp:156] Memory required for data: 5077008576
I0516 16:56:22.811506   834 layer_factory.hpp:77] Creating layer conv4_2
I0516 16:56:22.811514   834 net.cpp:91] Creating Layer conv4_2
I0516 16:56:22.811517   834 net.cpp:425] conv4_2 <- conv4_1
I0516 16:56:22.811522   834 net.cpp:399] conv4_2 -> conv4_2
I0516 16:56:22.815683   834 net.cpp:141] Setting up conv4_2
I0516 16:56:22.815713   834 net.cpp:148] Top shape: 48 512 28 28 (19267584)
I0516 16:56:22.815717   834 net.cpp:156] Memory required for data: 5154078912
I0516 16:56:22.815731   834 layer_factory.hpp:77] Creating layer relu4_2
I0516 16:56:22.815740   834 net.cpp:91] Creating Layer relu4_2
I0516 16:56:22.815745   834 net.cpp:425] relu4_2 <- conv4_2
I0516 16:56:22.815752   834 net.cpp:386] relu4_2 -> conv4_2 (in-place)
I0516 16:56:22.815759   834 net.cpp:141] Setting up relu4_2
I0516 16:56:22.815764   834 net.cpp:148] Top shape: 48 512 28 28 (19267584)
I0516 16:56:22.815768   834 net.cpp:156] Memory required for data: 5231149248
I0516 16:56:22.815770   834 layer_factory.hpp:77] Creating layer conv4_3
I0516 16:56:22.815778   834 net.cpp:91] Creating Layer conv4_3
I0516 16:56:22.815781   834 net.cpp:425] conv4_3 <- conv4_2
I0516 16:56:22.815788   834 net.cpp:399] conv4_3 -> conv4_3
I0516 16:56:22.819849   834 net.cpp:141] Setting up conv4_3
I0516 16:56:22.819875   834 net.cpp:148] Top shape: 48 512 28 28 (19267584)
I0516 16:56:22.819878   834 net.cpp:156] Memory required for data: 5308219584
I0516 16:56:22.819886   834 layer_factory.hpp:77] Creating layer relu4_3
I0516 16:56:22.819895   834 net.cpp:91] Creating Layer relu4_3
I0516 16:56:22.819900   834 net.cpp:425] relu4_3 <- conv4_3
I0516 16:56:22.819906   834 net.cpp:386] relu4_3 -> conv4_3 (in-place)
I0516 16:56:22.819914   834 net.cpp:141] Setting up relu4_3
I0516 16:56:22.819918   834 net.cpp:148] Top shape: 48 512 28 28 (19267584)
I0516 16:56:22.819921   834 net.cpp:156] Memory required for data: 5385289920
I0516 16:56:22.819924   834 layer_factory.hpp:77] Creating layer pool4
I0516 16:56:22.819931   834 net.cpp:91] Creating Layer pool4
I0516 16:56:22.819934   834 net.cpp:425] pool4 <- conv4_3
I0516 16:56:22.819939   834 net.cpp:399] pool4 -> pool4
I0516 16:56:22.819972   834 net.cpp:141] Setting up pool4
I0516 16:56:22.819977   834 net.cpp:148] Top shape: 48 512 14 14 (4816896)
I0516 16:56:22.819980   834 net.cpp:156] Memory required for data: 5404557504
I0516 16:56:22.819983   834 layer_factory.hpp:77] Creating layer conv5_1
I0516 16:56:22.819991   834 net.cpp:91] Creating Layer conv5_1
I0516 16:56:22.819995   834 net.cpp:425] conv5_1 <- pool4
I0516 16:56:22.820003   834 net.cpp:399] conv5_1 -> conv5_1
I0516 16:56:22.824074   834 net.cpp:141] Setting up conv5_1
I0516 16:56:22.824098   834 net.cpp:148] Top shape: 48 512 14 14 (4816896)
I0516 16:56:22.824102   834 net.cpp:156] Memory required for data: 5423825088
I0516 16:56:22.824110   834 layer_factory.hpp:77] Creating layer relu5_1
I0516 16:56:22.824117   834 net.cpp:91] Creating Layer relu5_1
I0516 16:56:22.824121   834 net.cpp:425] relu5_1 <- conv5_1
I0516 16:56:22.824128   834 net.cpp:386] relu5_1 -> conv5_1 (in-place)
I0516 16:56:22.824146   834 net.cpp:141] Setting up relu5_1
I0516 16:56:22.824158   834 net.cpp:148] Top shape: 48 512 14 14 (4816896)
I0516 16:56:22.824162   834 net.cpp:156] Memory required for data: 5443092672
I0516 16:56:22.824164   834 layer_factory.hpp:77] Creating layer conv5_2
I0516 16:56:22.824172   834 net.cpp:91] Creating Layer conv5_2
I0516 16:56:22.824177   834 net.cpp:425] conv5_2 <- conv5_1
I0516 16:56:22.824182   834 net.cpp:399] conv5_2 -> conv5_2
I0516 16:56:22.828275   834 net.cpp:141] Setting up conv5_2
I0516 16:56:22.828301   834 net.cpp:148] Top shape: 48 512 14 14 (4816896)
I0516 16:56:22.828305   834 net.cpp:156] Memory required for data: 5462360256
I0516 16:56:22.828312   834 layer_factory.hpp:77] Creating layer relu5_2
I0516 16:56:22.828321   834 net.cpp:91] Creating Layer relu5_2
I0516 16:56:22.828325   834 net.cpp:425] relu5_2 <- conv5_2
I0516 16:56:22.828331   834 net.cpp:386] relu5_2 -> conv5_2 (in-place)
I0516 16:56:22.828338   834 net.cpp:141] Setting up relu5_2
I0516 16:56:22.828342   834 net.cpp:148] Top shape: 48 512 14 14 (4816896)
I0516 16:56:22.828346   834 net.cpp:156] Memory required for data: 5481627840
I0516 16:56:22.828349   834 layer_factory.hpp:77] Creating layer conv5_3
I0516 16:56:22.828368   834 net.cpp:91] Creating Layer conv5_3
I0516 16:56:22.828373   834 net.cpp:425] conv5_3 <- conv5_2
I0516 16:56:22.828378   834 net.cpp:399] conv5_3 -> conv5_3
I0516 16:56:22.832394   834 net.cpp:141] Setting up conv5_3
I0516 16:56:22.832422   834 net.cpp:148] Top shape: 48 512 14 14 (4816896)
I0516 16:56:22.832424   834 net.cpp:156] Memory required for data: 5500895424
I0516 16:56:22.832432   834 layer_factory.hpp:77] Creating layer relu5_3
I0516 16:56:22.832440   834 net.cpp:91] Creating Layer relu5_3
I0516 16:56:22.832444   834 net.cpp:425] relu5_3 <- conv5_3
I0516 16:56:22.832449   834 net.cpp:386] relu5_3 -> conv5_3 (in-place)
I0516 16:56:22.832458   834 net.cpp:141] Setting up relu5_3
I0516 16:56:22.832461   834 net.cpp:148] Top shape: 48 512 14 14 (4816896)
I0516 16:56:22.832464   834 net.cpp:156] Memory required for data: 5520163008
I0516 16:56:22.832468   834 layer_factory.hpp:77] Creating layer pool5
I0516 16:56:22.832474   834 net.cpp:91] Creating Layer pool5
I0516 16:56:22.832478   834 net.cpp:425] pool5 <- conv5_3
I0516 16:56:22.832482   834 net.cpp:399] pool5 -> pool5
I0516 16:56:22.832520   834 net.cpp:141] Setting up pool5
I0516 16:56:22.832525   834 net.cpp:148] Top shape: 48 512 7 7 (1204224)
I0516 16:56:22.832527   834 net.cpp:156] Memory required for data: 5524979904
I0516 16:56:22.832530   834 layer_factory.hpp:77] Creating layer fc6
I0516 16:56:22.832543   834 net.cpp:91] Creating Layer fc6
I0516 16:56:22.832547   834 net.cpp:425] fc6 <- pool5
I0516 16:56:22.832551   834 net.cpp:399] fc6 -> fc6
I0516 16:56:23.017905   834 net.cpp:141] Setting up fc6
I0516 16:56:23.017938   834 net.cpp:148] Top shape: 48 4096 (196608)
I0516 16:56:23.017942   834 net.cpp:156] Memory required for data: 5525766336
I0516 16:56:23.017951   834 layer_factory.hpp:77] Creating layer relu6
I0516 16:56:23.017959   834 net.cpp:91] Creating Layer relu6
I0516 16:56:23.017964   834 net.cpp:425] relu6 <- fc6
I0516 16:56:23.017971   834 net.cpp:386] relu6 -> fc6 (in-place)
I0516 16:56:23.017979   834 net.cpp:141] Setting up relu6
I0516 16:56:23.017983   834 net.cpp:148] Top shape: 48 4096 (196608)
I0516 16:56:23.017987   834 net.cpp:156] Memory required for data: 5526552768
I0516 16:56:23.017989   834 layer_factory.hpp:77] Creating layer drop6
I0516 16:56:23.017995   834 net.cpp:91] Creating Layer drop6
I0516 16:56:23.017998   834 net.cpp:425] drop6 <- fc6
I0516 16:56:23.018003   834 net.cpp:386] drop6 -> fc6 (in-place)
I0516 16:56:23.018026   834 net.cpp:141] Setting up drop6
I0516 16:56:23.018031   834 net.cpp:148] Top shape: 48 4096 (196608)
I0516 16:56:23.018034   834 net.cpp:156] Memory required for data: 5527339200
I0516 16:56:23.018038   834 layer_factory.hpp:77] Creating layer fc7
I0516 16:56:23.018044   834 net.cpp:91] Creating Layer fc7
I0516 16:56:23.018049   834 net.cpp:425] fc7 <- fc6
I0516 16:56:23.018061   834 net.cpp:399] fc7 -> fc7
I0516 16:56:23.048177   834 net.cpp:141] Setting up fc7
I0516 16:56:23.048213   834 net.cpp:148] Top shape: 48 4096 (196608)
I0516 16:56:23.048218   834 net.cpp:156] Memory required for data: 5528125632
I0516 16:56:23.048226   834 layer_factory.hpp:77] Creating layer relu7
I0516 16:56:23.048238   834 net.cpp:91] Creating Layer relu7
I0516 16:56:23.048241   834 net.cpp:425] relu7 <- fc7
I0516 16:56:23.048248   834 net.cpp:386] relu7 -> fc7 (in-place)
I0516 16:56:23.048256   834 net.cpp:141] Setting up relu7
I0516 16:56:23.048259   834 net.cpp:148] Top shape: 48 4096 (196608)
I0516 16:56:23.048262   834 net.cpp:156] Memory required for data: 5528912064
I0516 16:56:23.048265   834 layer_factory.hpp:77] Creating layer drop7
I0516 16:56:23.048271   834 net.cpp:91] Creating Layer drop7
I0516 16:56:23.048274   834 net.cpp:425] drop7 <- fc7
I0516 16:56:23.048280   834 net.cpp:386] drop7 -> fc7 (in-place)
I0516 16:56:23.048302   834 net.cpp:141] Setting up drop7
I0516 16:56:23.048308   834 net.cpp:148] Top shape: 48 4096 (196608)
I0516 16:56:23.048311   834 net.cpp:156] Memory required for data: 5529698496
I0516 16:56:23.048315   834 layer_factory.hpp:77] Creating layer kaggel_fc8
I0516 16:56:23.048321   834 net.cpp:91] Creating Layer kaggel_fc8
I0516 16:56:23.048324   834 net.cpp:425] kaggel_fc8 <- fc7
I0516 16:56:23.048331   834 net.cpp:399] kaggel_fc8 -> kaggle_fc8
I0516 16:56:23.049460   834 net.cpp:141] Setting up kaggel_fc8
I0516 16:56:23.049468   834 net.cpp:148] Top shape: 48 10 (480)
I0516 16:56:23.049471   834 net.cpp:156] Memory required for data: 5529700416
I0516 16:56:23.049477   834 layer_factory.hpp:77] Creating layer loss
I0516 16:56:23.049484   834 net.cpp:91] Creating Layer loss
I0516 16:56:23.049487   834 net.cpp:425] loss <- kaggle_fc8
I0516 16:56:23.049491   834 net.cpp:425] loss <- label
I0516 16:56:23.049497   834 net.cpp:399] loss -> loss
I0516 16:56:23.049507   834 layer_factory.hpp:77] Creating layer loss
…
I0516 16:56:23.050433   834 net.cpp:313] The NetState phase (1) differed from the phase (0) specified by a rule in layer data
I0516 16:56:23.050600   834 net.cpp:49] Initializing net from parameters: 
name: "VGG_ILSVRC_16_layer"
state {
  phase: TEST
}
layer {
  name: "data"
  type: "Data"
  top: "data"
  top: "label"
  include {
    phase: TEST
  }
  transform_param {
    mirror: false
    crop_size: 224
    mean_value: 104
    mean_value: 117
    mean_value: 123
  }
  data_param {
    source: "data/kaggle/kaggle_test_lmdb"
    batch_size: 40
    backend: LMDB
  }
}
layer {
  name: "conv1_1"
  type: "Convolution"
  bottom: "data"
  top: "conv1_1"
  param {
    lr_mult: 1
    decay_mult: 1
  }
  param {
    lr_mult: 2
    decay_mult: 0
  }
  convolution_param {
    num_output: 64
    pad: 1
    kernel_size: 3
  }
}
layer {
  name: "relu1_1"
  type: "ReLU"
  bottom: "conv1_1"
  top: "conv1_1"
}
layer {
  name: "conv1_2"
  type: "Convolution"
  bottom: "conv1_1"
  top: "conv1_2"
  param {
    lr_mult: 1
    decay_mult: 1
  }
  param {
    lr_mult: 2
    decay_mult: 0
  }
  convolution_param {
    num_output: 64
    pad: 1
    kernel_size: 3
  }
}
layer {
  name: "relu1_2"
  type: "ReLU"
  bottom: "conv1_2"
  top: "conv1_2"
}
layer {
  name: "pool1"
  type: "Pooling"
  bottom: "conv1_2"
  top: "pool1"
  pooling_param {
    pool: MAX
    kernel_size: 2
    stride: 2
  }
}
layer {
  name: "conv2_1"
  type: "Convolution"
  bottom: "pool1"
  top: "conv2_1"
  param {
    lr_mult: 1
    decay_mult: 1
  }
  param {
    lr_mult: 2
    decay_mult: 0
  }
  convolution_param {
    num_output: 128
    pad: 1
    kernel_size: 3
  }
}
layer {
  name: "relu2_1"
  type: "ReLU"
  bottom: "conv2_1"
  top: "conv2_1"
}
layer {
  name: "conv2_2"
  type: "Convolution"
  bottom: "conv2_1"
  top: "conv2_2"
  param {
    lr_mult: 1
    decay_mult: 1
  }
  param {
    lr_mult: 2
    decay_mult: 0
  }
  convolution_param {
    num_output: 128
    pad: 1
    kernel_size: 3
  }
}
layer {
  name: "relu2_2"
  type: "ReLU"
  bottom: "conv2_2"
  top: "conv2_2"
}
layer {
  name: "pool2"
  type: "Pooling"
  bottom: "conv2_2"
  top: "pool2"
  pooling_param {
    pool: MAX
    kernel_size: 2
    stride: 2
  }
}
layer {
  name: "conv3_1"
  type: "Convolution"
  bottom: "pool2"
  top: "conv3_1"
  param {
    lr_mult: 1
    decay_mult: 1
  }
  param {
    lr_mult: 2
    decay_mult: 0
  }
  convolution_param {
    num_output: 256
    pad: 1
    kernel_size: 3
  }
}
layer {
  name: "relu3_1"
  type: "ReLU"
  bottom: "conv3_1"
  top: "conv3_1"
}
layer {
  name: "conv3_2"
  type: "Convolution"
  bottom: "conv3_1"
  top: "conv3_2"
  param {
    lr_mult: 1
    decay_mult: 1
  }
  param {
    lr_mult: 2
    decay_mult: 0
  }
  convolution_param {
    num_output: 256
    pad: 1
    kernel_size: 3
  }
}
layer {
  name: "relu3_2"
  type: "ReLU"
  bottom: "conv3_2"
  top: "conv3_2"
}
layer {
  name: "conv3_3"
  type: "Convolution"
  bottom: "conv3_2"
  top: "conv3_3"
  param {
    lr_mult: 1
    decay_mult: 1
  }
  param {
    lr_mult: 2
    decay_mult: 0
  }
  convolution_param {
    num_output: 256
    pad: 1
    kernel_size: 3
  }
}
layer {
  name: "relu3_3"
  type: "ReLU"
  bottom: "conv3_3"
  top: "conv3_3"
}
layer {
  name: "pool3"
  type: "Pooling"
  bottom: "conv3_3"
  top: "pool3"
  pooling_param {
    pool: MAX
    kernel_size: 2
    stride: 2
  }
}
layer {
  name: "conv4_1"
  type: "Convolution"
  bottom: "pool3"
  top: "conv4_1"
  param {
    lr_mult: 1
    decay_mult: 1
  }
  param {
    lr_mult: 2
    decay_mult: 0
  }
  convolution_param {
    num_output: 512
    pad: 1
    kernel_size: 3
  }
}
layer {
  name: "relu4_1"
  type: "ReLU"
  bottom: "conv4_1"
  top: "conv4_1"
}
layer {
  name: "conv4_2"
  type: "Convolution"
  bottom: "conv4_1"
  top: "conv4_2"
  param {
    lr_mult: 1
    decay_mult: 1
  }
  param {
    lr_mult: 2
    decay_mult: 0
  }
  convolution_param {
    num_output: 512
    pad: 1
    kernel_size: 3
  }
}
layer {
  name: "relu4_2"
  type: "ReLU"
  bottom: "conv4_2"
  top: "conv4_2"
}
layer {
  name: "conv4_3"
  type: "Convolution"
  bottom: "conv4_2"
  top: "conv4_3"
  param {
    lr_mult: 1
    decay_mult: 1
  }
  param {
    lr_mult: 2
    decay_mult: 0
  }
  convolution_param {
    num_output: 512
    pad: 1
    kernel_size: 3
  }
}
layer {
  name: "relu4_3"
  type: "ReLU"
  bottom: "conv4_3"
  top: "conv4_3"
}
layer {
  name: "pool4"
  type: "Pooling"
  bottom: "conv4_3"
  top: "pool4"
  pooling_param {
    pool: MAX
    kernel_size: 2
    stride: 2
  }
}
layer {
  name: "conv5_1"
  type: "Convolution"
  bottom: "pool4"
  top: "conv5_1"
  param {
    lr_mult: 1
    decay_mult: 1
  }
  param {
    lr_mult: 2
    decay_mult: 0
  }
  convolution_param {
    num_output: 512
    pad: 1
    kernel_size: 3
  }
}
layer {
  name: "relu5_1"
  type: "ReLU"
  bottom: "conv5_1"
  top: "conv5_1"
}
layer {
  name: "conv5_2"
  type: "Convolution"
  bottom: "conv5_1"
  top: "conv5_2"
  param {
    lr_mult: 1
    decay_mult: 1
  }
  param {
    lr_mult: 2
    decay_mult: 0
  }
  convolution_param {
    num_output: 512
    pad: 1
    kernel_size: 3
  }
}
layer {
  name: "relu5_2"
  type: "ReLU"
  bottom: "conv5_2"
  top: "conv5_2"
}
layer {
  name: "conv5_3"
  type: "Convolution"
  bottom: "conv5_2"
  top: "conv5_3"
  param {
    lr_mult: 1
    decay_mult: 1
  }
  param {
    lr_mult: 2
    decay_mult: 0
  }
  convolution_param {
    num_output: 512
    pad: 1
    kernel_size: 3
  }
}
layer {
  name: "relu5_3"
  type: "ReLU"
  bottom: "conv5_3"
  top: "conv5_3"
}
layer {
  name: "pool5"
  type: "Pooling"
  bottom: "conv5_3"
  top: "pool5"
  pooling_param {
    pool: MAX
    kernel_size: 2
    stride: 2
  }
}
layer {
  name: "fc6"
  type: "InnerProduct"
  bottom: "pool5"
  top: "fc6"
  param {
    lr_mult: 1
    decay_mult: 1
  }
  param {
    lr_mult: 2
    decay_mult: 0
  }
  inner_product_param {
    num_output: 4096
  }
}
layer {
  name: "relu6"
  type: "ReLU"
  bottom: "fc6"
  top: "fc6"
}
layer {
  name: "drop6"
  type: "Dropout"
  bottom: "fc6"
  top: "fc6"
  dropout_param {
    dropout_ratio: 0.5
  }
}
layer {
  name: "fc7"
  type: "InnerProduct"
  bottom: "fc6"
  top: "fc7"
  param {
    lr_mult: 1
    decay_mult: 1
  }
  param {
    lr_mult: 2
    decay_mult: 0
  }
  inner_product_param {
    num_output: 4096
  }
}
layer {
  name: "relu7"
  type: "ReLU"
  bottom: "fc7"
  top: "fc7"
}
layer {
  name: "drop7"
  type: "Dropout"
  bottom: "fc7"
  top: "fc7"
  dropout_param {
    dropout_ratio: 0.5
  }
}
layer {
  name: "kaggel_fc8"
  type: "InnerProduct"
  bottom: "fc7"
  top: "kaggle_fc8"
  param {
    lr_mult: 10
    decay_mult: 1
  }
  param {
    lr_mult: 20
    decay_mult: 0
  }
  inner_product_param {
    num_output: 10
    weight_filler {
      type: "gaussian"
      std: 0.01
    }
    bias_filler {
      type: "constant"
      value: 0
    }
  }
}
layer {
  name: "loss"
  type: "SoftmaxWithLoss"
  bottom: "kaggle_fc8"
  bottom: "label"
  top: "loss"
}
layer {
  name: "accuracy"
  type: "Accuracy"
  bottom: "kaggle_fc8"
  bottom: "label"
  top: "accuracy"
  include {
    phase: TEST
  }
}
I0516 16:56:23.050726   834 layer_factory.hpp:77] Creating layer data
I0516 16:56:23.050799   834 net.cpp:91] Creating Layer data
I0516 16:56:23.050807   834 net.cpp:399] data -> data
I0516 16:56:23.050817   834 net.cpp:399] data -> label
I0516 16:56:23.052233   840 db_lmdb.cpp:35] Opened lmdb data/kaggle/kaggle_test_lmdb
I0516 16:56:23.052705   834 data_layer.cpp:41] output data size: 40,3,224,224
I0516 16:56:23.083820   834 net.cpp:141] Setting up data
I0516 16:56:23.083856   834 net.cpp:148] Top shape: 40 3 224 224 (6021120)
I0516 16:56:23.083863   834 net.cpp:148] Top shape: 40 (40)
I0516 16:56:23.083866   834 net.cpp:156] Memory required for data: 24084640
I0516 16:56:23.083873   834 layer_factory.hpp:77] Creating layer label_data_1_split
I0516 16:56:23.083884   834 net.cpp:91] Creating Layer label_data_1_split
I0516 16:56:23.083889   834 net.cpp:425] label_data_1_split <- label
I0516 16:56:23.083894   834 net.cpp:399] label_data_1_split -> label_data_1_split_0
I0516 16:56:23.083904   834 net.cpp:399] label_data_1_split -> label_data_1_split_1
I0516 16:56:23.084020   834 net.cpp:141] Setting up label_data_1_split
I0516 16:56:23.084029   834 net.cpp:148] Top shape: 40 (40)
I0516 16:56:23.084033   834 net.cpp:148] Top shape: 40 (40)
I0516 16:56:23.084035   834 net.cpp:156] Memory required for data: 24084960
I0516 16:56:23.084039   834 layer_factory.hpp:77] Creating layer conv1_1
I0516 16:56:23.084050   834 net.cpp:91] Creating Layer conv1_1
I0516 16:56:23.084054   834 net.cpp:425] conv1_1 <- data
I0516 16:56:23.084059   834 net.cpp:399] conv1_1 -> conv1_1
I0516 16:56:23.084343   834 net.cpp:141] Setting up conv1_1
I0516 16:56:23.084353   834 net.cpp:148] Top shape: 40 64 224 224 (128450560)
I0516 16:56:23.084362   834 net.cpp:156] Memory required for data: 537887200
I0516 16:56:23.084372   834 layer_factory.hpp:77] Creating layer relu1_1
I0516 16:56:23.084379   834 net.cpp:91] Creating Layer relu1_1
I0516 16:56:23.084383   834 net.cpp:425] relu1_1 <- conv1_1
I0516 16:56:23.084388   834 net.cpp:386] relu1_1 -> conv1_1 (in-place)
I0516 16:56:23.084393   834 net.cpp:141] Setting up relu1_1
I0516 16:56:23.084398   834 net.cpp:148] Top shape: 40 64 224 224 (128450560)
I0516 16:56:23.084400   834 net.cpp:156] Memory required for data: 1051689440
I0516 16:56:23.084403   834 layer_factory.hpp:77] Creating layer conv1_2
I0516 16:56:23.084411   834 net.cpp:91] Creating Layer conv1_2
I0516 16:56:23.084415   834 net.cpp:425] conv1_2 <- conv1_1
I0516 16:56:23.084419   834 net.cpp:399] conv1_2 -> conv1_2
I0516 16:56:23.084996   834 net.cpp:141] Setting up conv1_2
I0516 16:56:23.085010   834 net.cpp:148] Top shape: 40 64 224 224 (128450560)
I0516 16:56:23.085012   834 net.cpp:156] Memory required for data: 1565491680
I0516 16:56:23.085019   834 layer_factory.hpp:77] Creating layer relu1_2
I0516 16:56:23.085026   834 net.cpp:91] Creating Layer relu1_2
I0516 16:56:23.085029   834 net.cpp:425] relu1_2 <- conv1_2
I0516 16:56:23.085034   834 net.cpp:386] relu1_2 -> conv1_2 (in-place)
I0516 16:56:23.085041   834 net.cpp:141] Setting up relu1_2
I0516 16:56:23.085044   834 net.cpp:148] Top shape: 40 64 224 224 (128450560)
I0516 16:56:23.085047   834 net.cpp:156] Memory required for data: 2079293920
I0516 16:56:23.085050   834 layer_factory.hpp:77] Creating layer pool1
I0516 16:56:23.085057   834 net.cpp:91] Creating Layer pool1
I0516 16:56:23.085059   834 net.cpp:425] pool1 <- conv1_2
I0516 16:56:23.085064   834 net.cpp:399] pool1 -> pool1
I0516 16:56:23.085095   834 net.cpp:141] Setting up pool1
I0516 16:56:23.085101   834 net.cpp:148] Top shape: 40 64 112 112 (32112640)
I0516 16:56:23.085103   834 net.cpp:156] Memory required for data: 2207744480
I0516 16:56:23.085114   834 layer_factory.hpp:77] Creating layer conv2_1
I0516 16:56:23.085130   834 net.cpp:91] Creating Layer conv2_1
I0516 16:56:23.085134   834 net.cpp:425] conv2_1 <- pool1
I0516 16:56:23.085139   834 net.cpp:399] conv2_1 -> conv2_1
I0516 16:56:23.085778   834 net.cpp:141] Setting up conv2_1
I0516 16:56:23.085790   834 net.cpp:148] Top shape: 40 128 112 112 (64225280)
I0516 16:56:23.085794   834 net.cpp:156] Memory required for data: 2464645600
I0516 16:56:23.085803   834 layer_factory.hpp:77] Creating layer relu2_1
I0516 16:56:23.085811   834 net.cpp:91] Creating Layer relu2_1
I0516 16:56:23.085815   834 net.cpp:425] relu2_1 <- conv2_1
I0516 16:56:23.085820   834 net.cpp:386] relu2_1 -> conv2_1 (in-place)
I0516 16:56:23.085826   834 net.cpp:141] Setting up relu2_1
I0516 16:56:23.085830   834 net.cpp:148] Top shape: 40 128 112 112 (64225280)
I0516 16:56:23.085834   834 net.cpp:156] Memory required for data: 2721546720
I0516 16:56:23.085837   834 layer_factory.hpp:77] Creating layer conv2_2
I0516 16:56:23.085845   834 net.cpp:91] Creating Layer conv2_2
I0516 16:56:23.085849   834 net.cpp:425] conv2_2 <- conv2_1
I0516 16:56:23.085853   834 net.cpp:399] conv2_2 -> conv2_2
I0516 16:56:23.087898   834 net.cpp:141] Setting up conv2_2
I0516 16:56:23.087908   834 net.cpp:148] Top shape: 40 128 112 112 (64225280)
I0516 16:56:23.087911   834 net.cpp:156] Memory required for data: 2978447840
I0516 16:56:23.087916   834 layer_factory.hpp:77] Creating layer relu2_2
I0516 16:56:23.087937   834 net.cpp:91] Creating Layer relu2_2
I0516 16:56:23.087940   834 net.cpp:425] relu2_2 <- conv2_2
I0516 16:56:23.087946   834 net.cpp:386] relu2_2 -> conv2_2 (in-place)
I0516 16:56:23.087951   834 net.cpp:141] Setting up relu2_2
I0516 16:56:23.087955   834 net.cpp:148] Top shape: 40 128 112 112 (64225280)
I0516 16:56:23.087959   834 net.cpp:156] Memory required for data: 3235348960
I0516 16:56:23.087960   834 layer_factory.hpp:77] Creating layer pool2
I0516 16:56:23.087966   834 net.cpp:91] Creating Layer pool2
I0516 16:56:23.087970   834 net.cpp:425] pool2 <- conv2_2
I0516 16:56:23.087973   834 net.cpp:399] pool2 -> pool2
I0516 16:56:23.088004   834 net.cpp:141] Setting up pool2
I0516 16:56:23.088011   834 net.cpp:148] Top shape: 40 128 56 56 (16056320)
I0516 16:56:23.088012   834 net.cpp:156] Memory required for data: 3299574240
I0516 16:56:23.088016   834 layer_factory.hpp:77] Creating layer conv3_1
I0516 16:56:23.088023   834 net.cpp:91] Creating Layer conv3_1
I0516 16:56:23.088027   834 net.cpp:425] conv3_1 <- pool2
I0516 16:56:23.088032   834 net.cpp:399] conv3_1 -> conv3_1
I0516 16:56:23.088742   834 net.cpp:141] Setting up conv3_1
I0516 16:56:23.088755   834 net.cpp:148] Top shape: 40 256 56 56 (32112640)
I0516 16:56:23.088758   834 net.cpp:156] Memory required for data: 3428024800
I0516 16:56:23.088768   834 layer_factory.hpp:77] Creating layer relu3_1
I0516 16:56:23.088773   834 net.cpp:91] Creating Layer relu3_1
I0516 16:56:23.088778   834 net.cpp:425] relu3_1 <- conv3_1
I0516 16:56:23.088781   834 net.cpp:386] relu3_1 -> conv3_1 (in-place)
I0516 16:56:23.088788   834 net.cpp:141] Setting up relu3_1
I0516 16:56:23.088791   834 net.cpp:148] Top shape: 40 256 56 56 (32112640)
I0516 16:56:23.088793   834 net.cpp:156] Memory required for data: 3556475360
I0516 16:56:23.088796   834 layer_factory.hpp:77] Creating layer conv3_2
I0516 16:56:23.088804   834 net.cpp:91] Creating Layer conv3_2
I0516 16:56:23.088807   834 net.cpp:425] conv3_2 <- conv3_1
I0516 16:56:23.088814   834 net.cpp:399] conv3_2 -> conv3_2
I0516 16:56:23.089910   834 net.cpp:141] Setting up conv3_2
I0516 16:56:23.089920   834 net.cpp:148] Top shape: 40 256 56 56 (32112640)
I0516 16:56:23.089925   834 net.cpp:156] Memory required for data: 3684925920
I0516 16:56:23.089929   834 layer_factory.hpp:77] Creating layer relu3_2
I0516 16:56:23.089936   834 net.cpp:91] Creating Layer relu3_2
I0516 16:56:23.089938   834 net.cpp:425] relu3_2 <- conv3_2
I0516 16:56:23.089944   834 net.cpp:386] relu3_2 -> conv3_2 (in-place)
I0516 16:56:23.089949   834 net.cpp:141] Setting up relu3_2
I0516 16:56:23.089961   834 net.cpp:148] Top shape: 40 256 56 56 (32112640)
I0516 16:56:23.089970   834 net.cpp:156] Memory required for data: 3813376480
I0516 16:56:23.089973   834 layer_factory.hpp:77] Creating layer conv3_3
I0516 16:56:23.089982   834 net.cpp:91] Creating Layer conv3_3
I0516 16:56:23.089984   834 net.cpp:425] conv3_3 <- conv3_2
I0516 16:56:23.089999   834 net.cpp:399] conv3_3 -> conv3_3
I0516 16:56:23.091111   834 net.cpp:141] Setting up conv3_3
I0516 16:56:23.091123   834 net.cpp:148] Top shape: 40 256 56 56 (32112640)
I0516 16:56:23.091126   834 net.cpp:156] Memory required for data: 3941827040
I0516 16:56:23.091132   834 layer_factory.hpp:77] Creating layer relu3_3
I0516 16:56:23.091138   834 net.cpp:91] Creating Layer relu3_3
I0516 16:56:23.091142   834 net.cpp:425] relu3_3 <- conv3_3
I0516 16:56:23.091146   834 net.cpp:386] relu3_3 -> conv3_3 (in-place)
I0516 16:56:23.091152   834 net.cpp:141] Setting up relu3_3
I0516 16:56:23.091156   834 net.cpp:148] Top shape: 40 256 56 56 (32112640)
I0516 16:56:23.091158   834 net.cpp:156] Memory required for data: 4070277600
I0516 16:56:23.091161   834 layer_factory.hpp:77] Creating layer pool3
I0516 16:56:23.091168   834 net.cpp:91] Creating Layer pool3
I0516 16:56:23.091171   834 net.cpp:425] pool3 <- conv3_3
I0516 16:56:23.091176   834 net.cpp:399] pool3 -> pool3
I0516 16:56:23.091207   834 net.cpp:141] Setting up pool3
I0516 16:56:23.091212   834 net.cpp:148] Top shape: 40 256 28 28 (8028160)
I0516 16:56:23.091215   834 net.cpp:156] Memory required for data: 4102390240
I0516 16:56:23.091218   834 layer_factory.hpp:77] Creating layer conv4_1
I0516 16:56:23.091224   834 net.cpp:91] Creating Layer conv4_1
I0516 16:56:23.091228   834 net.cpp:425] conv4_1 <- pool3
I0516 16:56:23.091233   834 net.cpp:399] conv4_1 -> conv4_1
I0516 16:56:23.093168   834 net.cpp:141] Setting up conv4_1
I0516 16:56:23.093184   834 net.cpp:148] Top shape: 40 512 28 28 (16056320)
I0516 16:56:23.093188   834 net.cpp:156] Memory required for data: 4166615520
I0516 16:56:23.093194   834 layer_factory.hpp:77] Creating layer relu4_1
I0516 16:56:23.093200   834 net.cpp:91] Creating Layer relu4_1
I0516 16:56:23.093204   834 net.cpp:425] relu4_1 <- conv4_1
I0516 16:56:23.093209   834 net.cpp:386] relu4_1 -> conv4_1 (in-place)
I0516 16:56:23.093214   834 net.cpp:141] Setting up relu4_1
I0516 16:56:23.093217   834 net.cpp:148] Top shape: 40 512 28 28 (16056320)
I0516 16:56:23.093220   834 net.cpp:156] Memory required for data: 4230840800
I0516 16:56:23.093224   834 layer_factory.hpp:77] Creating layer conv4_2
I0516 16:56:23.093230   834 net.cpp:91] Creating Layer conv4_2
I0516 16:56:23.093233   834 net.cpp:425] conv4_2 <- conv4_1
I0516 16:56:23.093238   834 net.cpp:399] conv4_2 -> conv4_2
I0516 16:56:23.097054   834 net.cpp:141] Setting up conv4_2
I0516 16:56:23.097084   834 net.cpp:148] Top shape: 40 512 28 28 (16056320)
I0516 16:56:23.097089   834 net.cpp:156] Memory required for data: 4295066080
I0516 16:56:23.097100   834 layer_factory.hpp:77] Creating layer relu4_2
I0516 16:56:23.097110   834 net.cpp:91] Creating Layer relu4_2
I0516 16:56:23.097115   834 net.cpp:425] relu4_2 <- conv4_2
I0516 16:56:23.097121   834 net.cpp:386] relu4_2 -> conv4_2 (in-place)
I0516 16:56:23.097128   834 net.cpp:141] Setting up relu4_2
I0516 16:56:23.097132   834 net.cpp:148] Top shape: 40 512 28 28 (16056320)
I0516 16:56:23.097136   834 net.cpp:156] Memory required for data: 4359291360
I0516 16:56:23.097138   834 layer_factory.hpp:77] Creating layer conv4_3
I0516 16:56:23.097146   834 net.cpp:91] Creating Layer conv4_3
I0516 16:56:23.097151   834 net.cpp:425] conv4_3 <- conv4_2
I0516 16:56:23.097156   834 net.cpp:399] conv4_3 -> conv4_3
I0516 16:56:23.101073   834 net.cpp:141] Setting up conv4_3
I0516 16:56:23.101106   834 net.cpp:148] Top shape: 40 512 28 28 (16056320)
I0516 16:56:23.101109   834 net.cpp:156] Memory required for data: 4423516640
I0516 16:56:23.101117   834 layer_factory.hpp:77] Creating layer relu4_3
I0516 16:56:23.101125   834 net.cpp:91] Creating Layer relu4_3
I0516 16:56:23.101140   834 net.cpp:425] relu4_3 <- conv4_3
I0516 16:56:23.101153   834 net.cpp:386] relu4_3 -> conv4_3 (in-place)
I0516 16:56:23.101162   834 net.cpp:141] Setting up relu4_3
I0516 16:56:23.101166   834 net.cpp:148] Top shape: 40 512 28 28 (16056320)
I0516 16:56:23.101169   834 net.cpp:156] Memory required for data: 4487741920
I0516 16:56:23.101172   834 layer_factory.hpp:77] Creating layer pool4
I0516 16:56:23.101179   834 net.cpp:91] Creating Layer pool4
I0516 16:56:23.101182   834 net.cpp:425] pool4 <- conv4_3
I0516 16:56:23.101187   834 net.cpp:399] pool4 -> pool4
I0516 16:56:23.101222   834 net.cpp:141] Setting up pool4
I0516 16:56:23.101227   834 net.cpp:148] Top shape: 40 512 14 14 (4014080)
I0516 16:56:23.101230   834 net.cpp:156] Memory required for data: 4503798240
I0516 16:56:23.101233   834 layer_factory.hpp:77] Creating layer conv5_1
I0516 16:56:23.101243   834 net.cpp:91] Creating Layer conv5_1
I0516 16:56:23.101245   834 net.cpp:425] conv5_1 <- pool4
I0516 16:56:23.101250   834 net.cpp:399] conv5_1 -> conv5_1
I0516 16:56:23.105136   834 net.cpp:141] Setting up conv5_1
I0516 16:56:23.105166   834 net.cpp:148] Top shape: 40 512 14 14 (4014080)
I0516 16:56:23.105170   834 net.cpp:156] Memory required for data: 4519854560
I0516 16:56:23.105177   834 layer_factory.hpp:77] Creating layer relu5_1
I0516 16:56:23.105186   834 net.cpp:91] Creating Layer relu5_1
I0516 16:56:23.105191   834 net.cpp:425] relu5_1 <- conv5_1
I0516 16:56:23.105196   834 net.cpp:386] relu5_1 -> conv5_1 (in-place)
I0516 16:56:23.105204   834 net.cpp:141] Setting up relu5_1
I0516 16:56:23.105208   834 net.cpp:148] Top shape: 40 512 14 14 (4014080)
I0516 16:56:23.105211   834 net.cpp:156] Memory required for data: 4535910880
I0516 16:56:23.105213   834 layer_factory.hpp:77] Creating layer conv5_2
I0516 16:56:23.105226   834 net.cpp:91] Creating Layer conv5_2
I0516 16:56:23.105228   834 net.cpp:425] conv5_2 <- conv5_1
I0516 16:56:23.105234   834 net.cpp:399] conv5_2 -> conv5_2
I0516 16:56:23.109107   834 net.cpp:141] Setting up conv5_2
I0516 16:56:23.109138   834 net.cpp:148] Top shape: 40 512 14 14 (4014080)
I0516 16:56:23.109143   834 net.cpp:156] Memory required for data: 4551967200
I0516 16:56:23.109149   834 layer_factory.hpp:77] Creating layer relu5_2
I0516 16:56:23.109160   834 net.cpp:91] Creating Layer relu5_2
I0516 16:56:23.109164   834 net.cpp:425] relu5_2 <- conv5_2
I0516 16:56:23.109170   834 net.cpp:386] relu5_2 -> conv5_2 (in-place)
I0516 16:56:23.109179   834 net.cpp:141] Setting up relu5_2
I0516 16:56:23.109182   834 net.cpp:148] Top shape: 40 512 14 14 (4014080)
I0516 16:56:23.109184   834 net.cpp:156] Memory required for data: 4568023520
I0516 16:56:23.109187   834 layer_factory.hpp:77] Creating layer conv5_3
I0516 16:56:23.109199   834 net.cpp:91] Creating Layer conv5_3
I0516 16:56:23.109202   834 net.cpp:425] conv5_3 <- conv5_2
I0516 16:56:23.109207   834 net.cpp:399] conv5_3 -> conv5_3
I0516 16:56:23.113168   834 net.cpp:141] Setting up conv5_3
I0516 16:56:23.113198   834 net.cpp:148] Top shape: 40 512 14 14 (4014080)
I0516 16:56:23.113200   834 net.cpp:156] Memory required for data: 4584079840
I0516 16:56:23.113207   834 layer_factory.hpp:77] Creating layer relu5_3
I0516 16:56:23.113217   834 net.cpp:91] Creating Layer relu5_3
I0516 16:56:23.113222   834 net.cpp:425] relu5_3 <- conv5_3
I0516 16:56:23.113227   834 net.cpp:386] relu5_3 -> conv5_3 (in-place)
I0516 16:56:23.113234   834 net.cpp:141] Setting up relu5_3
I0516 16:56:23.113239   834 net.cpp:148] Top shape: 40 512 14 14 (4014080)
I0516 16:56:23.113241   834 net.cpp:156] Memory required for data: 4600136160
I0516 16:56:23.113245   834 layer_factory.hpp:77] Creating layer pool5
I0516 16:56:23.113255   834 net.cpp:91] Creating Layer pool5
I0516 16:56:23.113257   834 net.cpp:425] pool5 <- conv5_3
I0516 16:56:23.113263   834 net.cpp:399] pool5 -> pool5
I0516 16:56:23.113303   834 net.cpp:141] Setting up pool5
I0516 16:56:23.113309   834 net.cpp:148] Top shape: 40 512 7 7 (1003520)
I0516 16:56:23.113312   834 net.cpp:156] Memory required for data: 4604150240
I0516 16:56:23.113324   834 layer_factory.hpp:77] Creating layer fc6
I0516 16:56:23.113339   834 net.cpp:91] Creating Layer fc6
I0516 16:56:23.113343   834 net.cpp:425] fc6 <- pool5
I0516 16:56:23.113348   834 net.cpp:399] fc6 -> fc6
I0516 16:56:23.295274   834 net.cpp:141] Setting up fc6
I0516 16:56:23.295310   834 net.cpp:148] Top shape: 40 4096 (163840)
I0516 16:56:23.295313   834 net.cpp:156] Memory required for data: 4604805600
I0516 16:56:23.295321   834 layer_factory.hpp:77] Creating layer relu6
I0516 16:56:23.295331   834 net.cpp:91] Creating Layer relu6
I0516 16:56:23.295336   834 net.cpp:425] relu6 <- fc6
I0516 16:56:23.295343   834 net.cpp:386] relu6 -> fc6 (in-place)
I0516 16:56:23.295351   834 net.cpp:141] Setting up relu6
I0516 16:56:23.295356   834 net.cpp:148] Top shape: 40 4096 (163840)
I0516 16:56:23.295358   834 net.cpp:156] Memory required for data: 4605460960
I0516 16:56:23.295361   834 layer_factory.hpp:77] Creating layer drop6
I0516 16:56:23.295367   834 net.cpp:91] Creating Layer drop6
I0516 16:56:23.295370   834 net.cpp:425] drop6 <- fc6
I0516 16:56:23.295374   834 net.cpp:386] drop6 -> fc6 (in-place)
I0516 16:56:23.295399   834 net.cpp:141] Setting up drop6
I0516 16:56:23.295404   834 net.cpp:148] Top shape: 40 4096 (163840)
I0516 16:56:23.295408   834 net.cpp:156] Memory required for data: 4606116320
I0516 16:56:23.295410   834 layer_factory.hpp:77] Creating layer fc7
I0516 16:56:23.295416   834 net.cpp:91] Creating Layer fc7
I0516 16:56:23.295419   834 net.cpp:425] fc7 <- fc6
I0516 16:56:23.295424   834 net.cpp:399] fc7 -> fc7
I0516 16:56:23.324885   834 net.cpp:141] Setting up fc7
I0516 16:56:23.324921   834 net.cpp:148] Top shape: 40 4096 (163840)
I0516 16:56:23.324925   834 net.cpp:156] Memory required for data: 4606771680
I0516 16:56:23.324934   834 layer_factory.hpp:77] Creating layer relu7
I0516 16:56:23.324944   834 net.cpp:91] Creating Layer relu7
I0516 16:56:23.324949   834 net.cpp:425] relu7 <- fc7
I0516 16:56:23.324956   834 net.cpp:386] relu7 -> fc7 (in-place)
I0516 16:56:23.324965   834 net.cpp:141] Setting up relu7
I0516 16:56:23.324970   834 net.cpp:148] Top shape: 40 4096 (163840)
I0516 16:56:23.324972   834 net.cpp:156] Memory required for data: 4607427040
I0516 16:56:23.324976   834 layer_factory.hpp:77] Creating layer drop7
I0516 16:56:23.324982   834 net.cpp:91] Creating Layer drop7
I0516 16:56:23.324985   834 net.cpp:425] drop7 <- fc7
I0516 16:56:23.324990   834 net.cpp:386] drop7 -> fc7 (in-place)
I0516 16:56:23.325016   834 net.cpp:141] Setting up drop7
I0516 16:56:23.325021   834 net.cpp:148] Top shape: 40 4096 (163840)
I0516 16:56:23.325023   834 net.cpp:156] Memory required for data: 4608082400
I0516 16:56:23.325026   834 layer_factory.hpp:77] Creating layer kaggel_fc8
I0516 16:56:23.325036   834 net.cpp:91] Creating Layer kaggel_fc8
I0516 16:56:23.325039   834 net.cpp:425] kaggel_fc8 <- fc7
I0516 16:56:23.325044   834 net.cpp:399] kaggel_fc8 -> kaggle_fc8
I0516 16:56:23.326145   834 net.cpp:141] Setting up kaggel_fc8
I0516 16:56:23.326153   834 net.cpp:148] Top shape: 40 10 (400)
I0516 16:56:23.326155   834 net.cpp:156] Memory required for data: 4608084000
I0516 16:56:23.326160   834 layer_factory.hpp:77] Creating layer kaggle_fc8_kaggel_fc8_0_split
I0516 16:56:23.326167   834 net.cpp:91] Creating Layer kaggle_fc8_kaggel_fc8_0_split
I0516 16:56:23.326171   834 net.cpp:425] kaggle_fc8_kaggel_fc8_0_split <- kaggle_fc8
I0516 16:56:23.326175   834 net.cpp:399] kaggle_fc8_kaggel_fc8_0_split -> kaggle_fc8_kaggel_fc8_0_split_0
I0516 16:56:23.326181   834 net.cpp:399] kaggle_fc8_kaggel_fc8_0_split -> kaggle_fc8_kaggel_fc8_0_split_1
I0516 16:56:23.326215   834 net.cpp:141] Setting up kaggle_fc8_kaggel_fc8_0_split
I0516 16:56:23.326222   834 net.cpp:148] Top shape: 40 10 (400)
I0516 16:56:23.326225   834 net.cpp:148] Top shape: 40 10 (400)
I0516 16:56:23.326228   834 net.cpp:156] Memory required for data: 4608087200
I0516 16:56:23.326231   834 layer_factory.hpp:77] Creating layer loss
I0516 16:56:23.326236   834 net.cpp:91] Creating Layer loss
I0516 16:56:23.326241   834 net.cpp:425] loss <- kaggle_fc8_kaggel_fc8_0_split_0
I0516 16:56:23.326261   834 net.cpp:425] loss <- label_data_1_split_0
I0516 16:56:23.326267   834 net.cpp:399] loss -> loss
…
