…
I0514 17:32:22.607095 23370 net.cpp:313] The NetState phase (0) differed from the phase (1) specified by a rule in layer accuracy
I0514 17:32:22.607309 23370 net.cpp:49] Initializing net from parameters: 
name: "VGG_ILSVRC_16_layer"
state {
  phase: TRAIN
}
layer {
  name: "data"
  type: "Data"
  top: "data"
  top: "label"
  include {
    phase: TRAIN
  }
  transform_param {
    mirror: true
    crop_size: 224
    mean_value: 104
    mean_value: 117
    mean_value: 123
  }
  data_param {
    source: "data/kaggle/kaggle_train_lmdb"
    batch_size: 48
    backend: LMDB
  }
}
layer {
  name: "conv1_1"
  type: "Convolution"
  bottom: "data"
  top: "conv1_1"
  param {
    lr_mult: 1
    decay_mult: 1
  }
  param {
    lr_mult: 2
    decay_mult: 0
  }
  convolution_param {
    num_output: 64
    pad: 1
    kernel_size: 3
  }
}
layer {
  name: "relu1_1"
  type: "ReLU"
  bottom: "conv1_1"
  top: "conv1_1"
}
layer {
  name: "conv1_2"
  type: "Convolution"
  bottom: "conv1_1"
  top: "conv1_2"
  param {
    lr_mult: 1
    decay_mult: 1
  }
  param {
    lr_mult: 2
    decay_mult: 0
  }
  convolution_param {
    num_output: 64
    pad: 1
    kernel_size: 3
  }
}
layer {
  name: "relu1_2"
  type: "ReLU"
  bottom: "conv1_2"
  top: "conv1_2"
}
layer {
  name: "pool1"
  type: "Pooling"
  bottom: "conv1_2"
  top: "pool1"
  pooling_param {
    pool: MAX
    kernel_size: 2
    stride: 2
  }
}
layer {
  name: "conv2_1"
  type: "Convolution"
  bottom: "pool1"
  top: "conv2_1"
  param {
    lr_mult: 1
    decay_mult: 1
  }
  param {
    lr_mult: 2
    decay_mult: 0
  }
  convolution_param {
    num_output: 128
    pad: 1
    kernel_size: 3
  }
}
layer {
  name: "relu2_1"
  type: "ReLU"
  bottom: "conv2_1"
  top: "conv2_1"
}
layer {
  name: "conv2_2"
  type: "Convolution"
  bottom: "conv2_1"
  top: "conv2_2"
  param {
    lr_mult: 1
    decay_mult: 1
  }
  param {
    lr_mult: 2
    decay_mult: 0
  }
  convolution_param {
    num_output: 128
    pad: 1
    kernel_size: 3
  }
}
layer {
  name: "relu2_2"
  type: "ReLU"
  bottom: "conv2_2"
  top: "conv2_2"
}
layer {
  name: "pool2"
  type: "Pooling"
  bottom: "conv2_2"
  top: "pool2"
  pooling_param {
    pool: MAX
    kernel_size: 2
    stride: 2
  }
}
layer {
  name: "conv3_1"
  type: "Convolution"
  bottom: "pool2"
  top: "conv3_1"
  param {
    lr_mult: 1
    decay_mult: 1
  }
  param {
    lr_mult: 2
    decay_mult: 0
  }
  convolution_param {
    num_output: 256
    pad: 1
    kernel_size: 3
  }
}
layer {
  name: "relu3_1"
  type: "ReLU"
  bottom: "conv3_1"
  top: "conv3_1"
}
layer {
  name: "conv3_2"
  type: "Convolution"
  bottom: "conv3_1"
  top: "conv3_2"
  param {
    lr_mult: 1
    decay_mult: 1
  }
  param {
    lr_mult: 2
    decay_mult: 0
  }
  convolution_param {
    num_output: 256
    pad: 1
    kernel_size: 3
  }
}
layer {
  name: "relu3_2"
  type: "ReLU"
  bottom: "conv3_2"
  top: "conv3_2"
}
layer {
  name: "conv3_3"
  type: "Convolution"
  bottom: "conv3_2"
  top: "conv3_3"
  param {
    lr_mult: 1
    decay_mult: 1
  }
  param {
    lr_mult: 2
    decay_mult: 0
  }
  convolution_param {
    num_output: 256
    pad: 1
    kernel_size: 3
  }
}
layer {
  name: "relu3_3"
  type: "ReLU"
  bottom: "conv3_3"
  top: "conv3_3"
}
layer {
  name: "pool3"
  type: "Pooling"
  bottom: "conv3_3"
  top: "pool3"
  pooling_param {
    pool: MAX
    kernel_size: 2
    stride: 2
  }
}
layer {
  name: "conv4_1"
  type: "Convolution"
  bottom: "pool3"
  top: "conv4_1"
  param {
    lr_mult: 1
    decay_mult: 1
  }
  param {
    lr_mult: 2
    decay_mult: 0
  }
  convolution_param {
    num_output: 512
    pad: 1
    kernel_size: 3
  }
}
layer {
  name: "relu4_1"
  type: "ReLU"
  bottom: "conv4_1"
  top: "conv4_1"
}
layer {
  name: "conv4_2"
  type: "Convolution"
  bottom: "conv4_1"
  top: "conv4_2"
  param {
    lr_mult: 1
    decay_mult: 1
  }
  param {
    lr_mult: 2
    decay_mult: 0
  }
  convolution_param {
    num_output: 512
    pad: 1
    kernel_size: 3
  }
}
layer {
  name: "relu4_2"
  type: "ReLU"
  bottom: "conv4_2"
  top: "conv4_2"
}
layer {
  name: "conv4_3"
  type: "Convolution"
  bottom: "conv4_2"
  top: "conv4_3"
  param {
    lr_mult: 1
    decay_mult: 1
  }
  param {
    lr_mult: 2
    decay_mult: 0
  }
  convolution_param {
    num_output: 512
    pad: 1
    kernel_size: 3
  }
}
layer {
  name: "relu4_3"
  type: "ReLU"
  bottom: "conv4_3"
  top: "conv4_3"
}
layer {
  name: "pool4"
  type: "Pooling"
  bottom: "conv4_3"
  top: "pool4"
  pooling_param {
    pool: MAX
    kernel_size: 2
    stride: 2
  }
}
layer {
  name: "conv5_1"
  type: "Convolution"
  bottom: "pool4"
  top: "conv5_1"
  param {
    lr_mult: 1
    decay_mult: 1
  }
  param {
    lr_mult: 2
    decay_mult: 0
  }
  convolution_param {
    num_output: 512
    pad: 1
    kernel_size: 3
  }
}
layer {
  name: "relu5_1"
  type: "ReLU"
  bottom: "conv5_1"
  top: "conv5_1"
}
layer {
  name: "conv5_2"
  type: "Convolution"
  bottom: "conv5_1"
  top: "conv5_2"
  param {
    lr_mult: 1
    decay_mult: 1
  }
  param {
    lr_mult: 2
    decay_mult: 0
  }
  convolution_param {
    num_output: 512
    pad: 1
    kernel_size: 3
  }
}
layer {
  name: "relu5_2"
  type: "ReLU"
  bottom: "conv5_2"
  top: "conv5_2"
}
layer {
  name: "conv5_3"
  type: "Convolution"
  bottom: "conv5_2"
  top: "conv5_3"
  param {
    lr_mult: 1
    decay_mult: 1
  }
  param {
    lr_mult: 2
    decay_mult: 0
  }
  convolution_param {
    num_output: 512
    pad: 1
    kernel_size: 3
  }
}
layer {
  name: "relu5_3"
  type: "ReLU"
  bottom: "conv5_3"
  top: "conv5_3"
}
layer {
  name: "pool5"
  type: "Pooling"
  bottom: "conv5_3"
  top: "pool5"
  pooling_param {
    pool: MAX
    kernel_size: 2
    stride: 2
  }
}
layer {
  name: "fc6"
  type: "InnerProduct"
  bottom: "pool5"
  top: "fc6"
  param {
    lr_mult: 1
    decay_mult: 1
  }
  param {
    lr_mult: 2
    decay_mult: 0
  }
  inner_product_param {
    num_output: 4096
  }
}
layer {
  name: "relu6"
  type: "ReLU"
  bottom: "fc6"
  top: "fc6"
}
layer {
  name: "drop6"
  type: "Dropout"
  bottom: "fc6"
  top: "fc6"
  dropout_param {
    dropout_ratio: 0.5
  }
}
layer {
  name: "fc7"
  type: "InnerProduct"
  bottom: "fc6"
  top: "fc7"
  param {
    lr_mult: 1
    decay_mult: 1
  }
  param {
    lr_mult: 2
    decay_mult: 0
  }
  inner_product_param {
    num_output: 4096
  }
}
layer {
  name: "relu7"
  type: "ReLU"
  bottom: "fc7"
  top: "fc7"
}
layer {
  name: "drop7"
  type: "Dropout"
  bottom: "fc7"
  top: "fc7"
  dropout_param {
    dropout_ratio: 0.5
  }
}
layer {
  name: "kaggel_fc8"
  type: "InnerProduct"
  bottom: "fc7"
  top: "kaggle_fc8"
  param {
    lr_mult: 10
    decay_mult: 1
  }
  param {
    lr_mult: 20
    decay_mult: 0
  }
  inner_product_param {
    num_output: 10
    weight_filler {
      type: "gaussian"
      std: 0.01
    }
    bias_filler {
      type: "constant"
      value: 0
    }
  }
}
layer {
  name: "loss"
  type: "SoftmaxWithLoss"
  bottom: "kaggle_fc8"
  bottom: "label"
  top: "loss"
}
I0514 17:32:22.607483 23370 layer_factory.hpp:77] Creating layer data
I0514 17:32:22.608095 23370 net.cpp:91] Creating Layer data
I0514 17:32:22.608111 23370 net.cpp:399] data -> data
I0514 17:32:22.608139 23370 net.cpp:399] data -> label
I0514 17:32:22.609597 23373 db_lmdb.cpp:35] Opened lmdb data/kaggle/kaggle_train_lmdb
I0514 17:32:22.622153 23370 data_layer.cpp:41] output data size: 48,3,224,224
I0514 17:32:22.688114 23370 net.cpp:141] Setting up data
I0514 17:32:22.688174 23370 net.cpp:148] Top shape: 48 3 224 224 (7225344)
I0514 17:32:22.688197 23370 net.cpp:148] Top shape: 48 (48)
I0514 17:32:22.688205 23370 net.cpp:156] Memory required for data: 28901568
I0514 17:32:22.688220 23370 layer_factory.hpp:77] Creating layer conv1_1
I0514 17:32:22.688256 23370 net.cpp:91] Creating Layer conv1_1
I0514 17:32:22.688266 23370 net.cpp:425] conv1_1 <- data
I0514 17:32:22.688283 23370 net.cpp:399] conv1_1 -> conv1_1
I0514 17:32:22.689893 23370 net.cpp:141] Setting up conv1_1
I0514 17:32:22.689919 23370 net.cpp:148] Top shape: 48 64 224 224 (154140672)
I0514 17:32:22.689926 23370 net.cpp:156] Memory required for data: 645464256
I0514 17:32:22.689949 23370 layer_factory.hpp:77] Creating layer relu1_1
I0514 17:32:22.689966 23370 net.cpp:91] Creating Layer relu1_1
I0514 17:32:22.689973 23370 net.cpp:425] relu1_1 <- conv1_1
I0514 17:32:22.689983 23370 net.cpp:386] relu1_1 -> conv1_1 (in-place)
I0514 17:32:22.689996 23370 net.cpp:141] Setting up relu1_1
I0514 17:32:22.690006 23370 net.cpp:148] Top shape: 48 64 224 224 (154140672)
I0514 17:32:22.690012 23370 net.cpp:156] Memory required for data: 1262026944
I0514 17:32:22.690018 23370 layer_factory.hpp:77] Creating layer conv1_2
I0514 17:32:22.690033 23370 net.cpp:91] Creating Layer conv1_2
I0514 17:32:22.690040 23370 net.cpp:425] conv1_2 <- conv1_1
I0514 17:32:22.690052 23370 net.cpp:399] conv1_2 -> conv1_2
I0514 17:32:22.692703 23370 net.cpp:141] Setting up conv1_2
I0514 17:32:22.692731 23370 net.cpp:148] Top shape: 48 64 224 224 (154140672)
I0514 17:32:22.692739 23370 net.cpp:156] Memory required for data: 1878589632
I0514 17:32:22.692754 23370 layer_factory.hpp:77] Creating layer relu1_2
I0514 17:32:22.692766 23370 net.cpp:91] Creating Layer relu1_2
I0514 17:32:22.692773 23370 net.cpp:425] relu1_2 <- conv1_2
I0514 17:32:22.692781 23370 net.cpp:386] relu1_2 -> conv1_2 (in-place)
I0514 17:32:22.692793 23370 net.cpp:141] Setting up relu1_2
I0514 17:32:22.692801 23370 net.cpp:148] Top shape: 48 64 224 224 (154140672)
I0514 17:32:22.692807 23370 net.cpp:156] Memory required for data: 2495152320
I0514 17:32:22.692813 23370 layer_factory.hpp:77] Creating layer pool1
I0514 17:32:22.692827 23370 net.cpp:91] Creating Layer pool1
I0514 17:32:22.692834 23370 net.cpp:425] pool1 <- conv1_2
I0514 17:32:22.692842 23370 net.cpp:399] pool1 -> pool1
I0514 17:32:22.692912 23370 net.cpp:141] Setting up pool1
I0514 17:32:22.692925 23370 net.cpp:148] Top shape: 48 64 112 112 (38535168)
I0514 17:32:22.692932 23370 net.cpp:156] Memory required for data: 2649292992
I0514 17:32:22.692937 23370 layer_factory.hpp:77] Creating layer conv2_1
I0514 17:32:22.692951 23370 net.cpp:91] Creating Layer conv2_1
I0514 17:32:22.692957 23370 net.cpp:425] conv2_1 <- pool1
I0514 17:32:22.692965 23370 net.cpp:399] conv2_1 -> conv2_1
I0514 17:32:22.694391 23370 net.cpp:141] Setting up conv2_1
I0514 17:32:22.694412 23370 net.cpp:148] Top shape: 48 128 112 112 (77070336)
I0514 17:32:22.694418 23370 net.cpp:156] Memory required for data: 2957574336
I0514 17:32:22.694433 23370 layer_factory.hpp:77] Creating layer relu2_1
I0514 17:32:22.694447 23370 net.cpp:91] Creating Layer relu2_1
I0514 17:32:22.694453 23370 net.cpp:425] relu2_1 <- conv2_1
I0514 17:32:22.694463 23370 net.cpp:386] relu2_1 -> conv2_1 (in-place)
I0514 17:32:22.694473 23370 net.cpp:141] Setting up relu2_1
I0514 17:32:22.694480 23370 net.cpp:148] Top shape: 48 128 112 112 (77070336)
I0514 17:32:22.694486 23370 net.cpp:156] Memory required for data: 3265855680
I0514 17:32:22.694492 23370 layer_factory.hpp:77] Creating layer conv2_2
I0514 17:32:22.694506 23370 net.cpp:91] Creating Layer conv2_2
I0514 17:32:22.694512 23370 net.cpp:425] conv2_2 <- conv2_1
I0514 17:32:22.694524 23370 net.cpp:399] conv2_2 -> conv2_2
I0514 17:32:22.694970 23370 net.cpp:141] Setting up conv2_2
I0514 17:32:22.694983 23370 net.cpp:148] Top shape: 48 128 112 112 (77070336)
I0514 17:32:22.694989 23370 net.cpp:156] Memory required for data: 3574137024
I0514 17:32:22.694999 23370 layer_factory.hpp:77] Creating layer relu2_2
I0514 17:32:22.695009 23370 net.cpp:91] Creating Layer relu2_2
I0514 17:32:22.695022 23370 net.cpp:425] relu2_2 <- conv2_2
I0514 17:32:22.695040 23370 net.cpp:386] relu2_2 -> conv2_2 (in-place)
I0514 17:32:22.695050 23370 net.cpp:141] Setting up relu2_2
I0514 17:32:22.695058 23370 net.cpp:148] Top shape: 48 128 112 112 (77070336)
I0514 17:32:22.695065 23370 net.cpp:156] Memory required for data: 3882418368
I0514 17:32:22.695070 23370 layer_factory.hpp:77] Creating layer pool2
I0514 17:32:22.695078 23370 net.cpp:91] Creating Layer pool2
I0514 17:32:22.695085 23370 net.cpp:425] pool2 <- conv2_2
I0514 17:32:22.695094 23370 net.cpp:399] pool2 -> pool2
I0514 17:32:22.695143 23370 net.cpp:141] Setting up pool2
I0514 17:32:22.695153 23370 net.cpp:148] Top shape: 48 128 56 56 (19267584)
I0514 17:32:22.695158 23370 net.cpp:156] Memory required for data: 3959488704
I0514 17:32:22.695164 23370 layer_factory.hpp:77] Creating layer conv3_1
I0514 17:32:22.695176 23370 net.cpp:91] Creating Layer conv3_1
I0514 17:32:22.695183 23370 net.cpp:425] conv3_1 <- pool2
I0514 17:32:22.695193 23370 net.cpp:399] conv3_1 -> conv3_1
I0514 17:32:22.696378 23370 net.cpp:141] Setting up conv3_1
I0514 17:32:22.696401 23370 net.cpp:148] Top shape: 48 256 56 56 (38535168)
I0514 17:32:22.696408 23370 net.cpp:156] Memory required for data: 4113629376
I0514 17:32:22.696422 23370 layer_factory.hpp:77] Creating layer relu3_1
I0514 17:32:22.696432 23370 net.cpp:91] Creating Layer relu3_1
I0514 17:32:22.696439 23370 net.cpp:425] relu3_1 <- conv3_1
I0514 17:32:22.696447 23370 net.cpp:386] relu3_1 -> conv3_1 (in-place)
I0514 17:32:22.696458 23370 net.cpp:141] Setting up relu3_1
I0514 17:32:22.696466 23370 net.cpp:148] Top shape: 48 256 56 56 (38535168)
I0514 17:32:22.696472 23370 net.cpp:156] Memory required for data: 4267770048
I0514 17:32:22.696477 23370 layer_factory.hpp:77] Creating layer conv3_2
I0514 17:32:22.696491 23370 net.cpp:91] Creating Layer conv3_2
I0514 17:32:22.696497 23370 net.cpp:425] conv3_2 <- conv3_1
I0514 17:32:22.696507 23370 net.cpp:399] conv3_2 -> conv3_2
I0514 17:32:22.698427 23370 net.cpp:141] Setting up conv3_2
I0514 17:32:22.698447 23370 net.cpp:148] Top shape: 48 256 56 56 (38535168)
I0514 17:32:22.698454 23370 net.cpp:156] Memory required for data: 4421910720
I0514 17:32:22.698464 23370 layer_factory.hpp:77] Creating layer relu3_2
I0514 17:32:22.698477 23370 net.cpp:91] Creating Layer relu3_2
I0514 17:32:22.698483 23370 net.cpp:425] relu3_2 <- conv3_2
I0514 17:32:22.698492 23370 net.cpp:386] relu3_2 -> conv3_2 (in-place)
I0514 17:32:22.698503 23370 net.cpp:141] Setting up relu3_2
I0514 17:32:22.698510 23370 net.cpp:148] Top shape: 48 256 56 56 (38535168)
I0514 17:32:22.698516 23370 net.cpp:156] Memory required for data: 4576051392
I0514 17:32:22.698521 23370 layer_factory.hpp:77] Creating layer conv3_3
I0514 17:32:22.698534 23370 net.cpp:91] Creating Layer conv3_3
I0514 17:32:22.698540 23370 net.cpp:425] conv3_3 <- conv3_2
I0514 17:32:22.698549 23370 net.cpp:399] conv3_3 -> conv3_3
I0514 17:32:22.700448 23370 net.cpp:141] Setting up conv3_3
I0514 17:32:22.700469 23370 net.cpp:148] Top shape: 48 256 56 56 (38535168)
I0514 17:32:22.700474 23370 net.cpp:156] Memory required for data: 4730192064
I0514 17:32:22.700485 23370 layer_factory.hpp:77] Creating layer relu3_3
I0514 17:32:22.700500 23370 net.cpp:91] Creating Layer relu3_3
I0514 17:32:22.700507 23370 net.cpp:425] relu3_3 <- conv3_3
I0514 17:32:22.700517 23370 net.cpp:386] relu3_3 -> conv3_3 (in-place)
I0514 17:32:22.700527 23370 net.cpp:141] Setting up relu3_3
I0514 17:32:22.700536 23370 net.cpp:148] Top shape: 48 256 56 56 (38535168)
I0514 17:32:22.700541 23370 net.cpp:156] Memory required for data: 4884332736
I0514 17:32:22.700546 23370 layer_factory.hpp:77] Creating layer pool3
I0514 17:32:22.700556 23370 net.cpp:91] Creating Layer pool3
I0514 17:32:22.700562 23370 net.cpp:425] pool3 <- conv3_3
I0514 17:32:22.700569 23370 net.cpp:399] pool3 -> pool3
I0514 17:32:22.700621 23370 net.cpp:141] Setting up pool3
I0514 17:32:22.700630 23370 net.cpp:148] Top shape: 48 256 28 28 (9633792)
I0514 17:32:22.700636 23370 net.cpp:156] Memory required for data: 4922867904
I0514 17:32:22.700659 23370 layer_factory.hpp:77] Creating layer conv4_1
I0514 17:32:22.700672 23370 net.cpp:91] Creating Layer conv4_1
I0514 17:32:22.700680 23370 net.cpp:425] conv4_1 <- pool3
I0514 17:32:22.700687 23370 net.cpp:399] conv4_1 -> conv4_1
I0514 17:32:22.704615 23370 net.cpp:141] Setting up conv4_1
I0514 17:32:22.704643 23370 net.cpp:148] Top shape: 48 512 28 28 (19267584)
I0514 17:32:22.704648 23370 net.cpp:156] Memory required for data: 4999938240
I0514 17:32:22.704658 23370 layer_factory.hpp:77] Creating layer relu4_1
I0514 17:32:22.704669 23370 net.cpp:91] Creating Layer relu4_1
I0514 17:32:22.704676 23370 net.cpp:425] relu4_1 <- conv4_1
I0514 17:32:22.704685 23370 net.cpp:386] relu4_1 -> conv4_1 (in-place)
I0514 17:32:22.704696 23370 net.cpp:141] Setting up relu4_1
I0514 17:32:22.704704 23370 net.cpp:148] Top shape: 48 512 28 28 (19267584)
I0514 17:32:22.704710 23370 net.cpp:156] Memory required for data: 5077008576
I0514 17:32:22.704715 23370 layer_factory.hpp:77] Creating layer conv4_2
I0514 17:32:22.704725 23370 net.cpp:91] Creating Layer conv4_2
I0514 17:32:22.704730 23370 net.cpp:425] conv4_2 <- conv4_1
I0514 17:32:22.704741 23370 net.cpp:399] conv4_2 -> conv4_2
I0514 17:32:22.710942 23370 net.cpp:141] Setting up conv4_2
I0514 17:32:22.710973 23370 net.cpp:148] Top shape: 48 512 28 28 (19267584)
I0514 17:32:22.710979 23370 net.cpp:156] Memory required for data: 5154078912
I0514 17:32:22.711000 23370 layer_factory.hpp:77] Creating layer relu4_2
I0514 17:32:22.711014 23370 net.cpp:91] Creating Layer relu4_2
I0514 17:32:22.711020 23370 net.cpp:425] relu4_2 <- conv4_2
I0514 17:32:22.711030 23370 net.cpp:386] relu4_2 -> conv4_2 (in-place)
I0514 17:32:22.711040 23370 net.cpp:141] Setting up relu4_2
I0514 17:32:22.711048 23370 net.cpp:148] Top shape: 48 512 28 28 (19267584)
I0514 17:32:22.711053 23370 net.cpp:156] Memory required for data: 5231149248
I0514 17:32:22.711058 23370 layer_factory.hpp:77] Creating layer conv4_3
I0514 17:32:22.711072 23370 net.cpp:91] Creating Layer conv4_3
I0514 17:32:22.711078 23370 net.cpp:425] conv4_3 <- conv4_2
I0514 17:32:22.711091 23370 net.cpp:399] conv4_3 -> conv4_3
I0514 17:32:22.717484 23370 net.cpp:141] Setting up conv4_3
I0514 17:32:22.717516 23370 net.cpp:148] Top shape: 48 512 28 28 (19267584)
I0514 17:32:22.717522 23370 net.cpp:156] Memory required for data: 5308219584
I0514 17:32:22.717532 23370 layer_factory.hpp:77] Creating layer relu4_3
I0514 17:32:22.717545 23370 net.cpp:91] Creating Layer relu4_3
I0514 17:32:22.717552 23370 net.cpp:425] relu4_3 <- conv4_3
I0514 17:32:22.717561 23370 net.cpp:386] relu4_3 -> conv4_3 (in-place)
I0514 17:32:22.717571 23370 net.cpp:141] Setting up relu4_3
I0514 17:32:22.717578 23370 net.cpp:148] Top shape: 48 512 28 28 (19267584)
I0514 17:32:22.717583 23370 net.cpp:156] Memory required for data: 5385289920
I0514 17:32:22.717589 23370 layer_factory.hpp:77] Creating layer pool4
I0514 17:32:22.717599 23370 net.cpp:91] Creating Layer pool4
I0514 17:32:22.717604 23370 net.cpp:425] pool4 <- conv4_3
I0514 17:32:22.717612 23370 net.cpp:399] pool4 -> pool4
I0514 17:32:22.717661 23370 net.cpp:141] Setting up pool4
I0514 17:32:22.717670 23370 net.cpp:148] Top shape: 48 512 14 14 (4816896)
I0514 17:32:22.717675 23370 net.cpp:156] Memory required for data: 5404557504
I0514 17:32:22.717680 23370 layer_factory.hpp:77] Creating layer conv5_1
I0514 17:32:22.717694 23370 net.cpp:91] Creating Layer conv5_1
I0514 17:32:22.717700 23370 net.cpp:425] conv5_1 <- pool4
I0514 17:32:22.717708 23370 net.cpp:399] conv5_1 -> conv5_1
I0514 17:32:22.723794 23370 net.cpp:141] Setting up conv5_1
I0514 17:32:22.723829 23370 net.cpp:148] Top shape: 48 512 14 14 (4816896)
I0514 17:32:22.723834 23370 net.cpp:156] Memory required for data: 5423825088
I0514 17:32:22.723846 23370 layer_factory.hpp:77] Creating layer relu5_1
I0514 17:32:22.723857 23370 net.cpp:91] Creating Layer relu5_1
I0514 17:32:22.723865 23370 net.cpp:425] relu5_1 <- conv5_1
I0514 17:32:22.723875 23370 net.cpp:386] relu5_1 -> conv5_1 (in-place)
I0514 17:32:22.723897 23370 net.cpp:141] Setting up relu5_1
I0514 17:32:22.723917 23370 net.cpp:148] Top shape: 48 512 14 14 (4816896)
I0514 17:32:22.723922 23370 net.cpp:156] Memory required for data: 5443092672
I0514 17:32:22.723927 23370 layer_factory.hpp:77] Creating layer conv5_2
I0514 17:32:22.723937 23370 net.cpp:91] Creating Layer conv5_2
I0514 17:32:22.723942 23370 net.cpp:425] conv5_2 <- conv5_1
I0514 17:32:22.723953 23370 net.cpp:399] conv5_2 -> conv5_2
I0514 17:32:22.730007 23370 net.cpp:141] Setting up conv5_2
I0514 17:32:22.730041 23370 net.cpp:148] Top shape: 48 512 14 14 (4816896)
I0514 17:32:22.730046 23370 net.cpp:156] Memory required for data: 5462360256
I0514 17:32:22.730057 23370 layer_factory.hpp:77] Creating layer relu5_2
I0514 17:32:22.730072 23370 net.cpp:91] Creating Layer relu5_2
I0514 17:32:22.730078 23370 net.cpp:425] relu5_2 <- conv5_2
I0514 17:32:22.730087 23370 net.cpp:386] relu5_2 -> conv5_2 (in-place)
I0514 17:32:22.730098 23370 net.cpp:141] Setting up relu5_2
I0514 17:32:22.730104 23370 net.cpp:148] Top shape: 48 512 14 14 (4816896)
I0514 17:32:22.730109 23370 net.cpp:156] Memory required for data: 5481627840
I0514 17:32:22.730114 23370 layer_factory.hpp:77] Creating layer conv5_3
I0514 17:32:22.730126 23370 net.cpp:91] Creating Layer conv5_3
I0514 17:32:22.730132 23370 net.cpp:425] conv5_3 <- conv5_2
I0514 17:32:22.730139 23370 net.cpp:399] conv5_3 -> conv5_3
I0514 17:32:22.736129 23370 net.cpp:141] Setting up conv5_3
I0514 17:32:22.736165 23370 net.cpp:148] Top shape: 48 512 14 14 (4816896)
I0514 17:32:22.736171 23370 net.cpp:156] Memory required for data: 5500895424
I0514 17:32:22.736181 23370 layer_factory.hpp:77] Creating layer relu5_3
I0514 17:32:22.736192 23370 net.cpp:91] Creating Layer relu5_3
I0514 17:32:22.736198 23370 net.cpp:425] relu5_3 <- conv5_3
I0514 17:32:22.736207 23370 net.cpp:386] relu5_3 -> conv5_3 (in-place)
I0514 17:32:22.736217 23370 net.cpp:141] Setting up relu5_3
I0514 17:32:22.736224 23370 net.cpp:148] Top shape: 48 512 14 14 (4816896)
I0514 17:32:22.736229 23370 net.cpp:156] Memory required for data: 5520163008
I0514 17:32:22.736233 23370 layer_factory.hpp:77] Creating layer pool5
I0514 17:32:22.736244 23370 net.cpp:91] Creating Layer pool5
I0514 17:32:22.736249 23370 net.cpp:425] pool5 <- conv5_3
I0514 17:32:22.736258 23370 net.cpp:399] pool5 -> pool5
I0514 17:32:22.736311 23370 net.cpp:141] Setting up pool5
I0514 17:32:22.736320 23370 net.cpp:148] Top shape: 48 512 7 7 (1204224)
I0514 17:32:22.736325 23370 net.cpp:156] Memory required for data: 5524979904
I0514 17:32:22.736330 23370 layer_factory.hpp:77] Creating layer fc6
I0514 17:32:22.736347 23370 net.cpp:91] Creating Layer fc6
I0514 17:32:22.736353 23370 net.cpp:425] fc6 <- pool5
I0514 17:32:22.736369 23370 net.cpp:399] fc6 -> fc6
I0514 17:32:22.951874 23370 net.cpp:141] Setting up fc6
I0514 17:32:22.951908 23370 net.cpp:148] Top shape: 48 4096 (196608)
I0514 17:32:22.951912 23370 net.cpp:156] Memory required for data: 5525766336
I0514 17:32:22.951920 23370 layer_factory.hpp:77] Creating layer relu6
I0514 17:32:22.951930 23370 net.cpp:91] Creating Layer relu6
I0514 17:32:22.951935 23370 net.cpp:425] relu6 <- fc6
I0514 17:32:22.951942 23370 net.cpp:386] relu6 -> fc6 (in-place)
I0514 17:32:22.951951 23370 net.cpp:141] Setting up relu6
I0514 17:32:22.951956 23370 net.cpp:148] Top shape: 48 4096 (196608)
I0514 17:32:22.951957 23370 net.cpp:156] Memory required for data: 5526552768
I0514 17:32:22.951961 23370 layer_factory.hpp:77] Creating layer drop6
I0514 17:32:22.951967 23370 net.cpp:91] Creating Layer drop6
I0514 17:32:22.951969 23370 net.cpp:425] drop6 <- fc6
I0514 17:32:22.951975 23370 net.cpp:386] drop6 -> fc6 (in-place)
I0514 17:32:22.951998 23370 net.cpp:141] Setting up drop6
I0514 17:32:22.952003 23370 net.cpp:148] Top shape: 48 4096 (196608)
I0514 17:32:22.952006 23370 net.cpp:156] Memory required for data: 5527339200
I0514 17:32:22.952009 23370 layer_factory.hpp:77] Creating layer fc7
I0514 17:32:22.952016 23370 net.cpp:91] Creating Layer fc7
I0514 17:32:22.952019 23370 net.cpp:425] fc7 <- fc6
I0514 17:32:22.952033 23370 net.cpp:399] fc7 -> fc7
I0514 17:32:22.982184 23370 net.cpp:141] Setting up fc7
I0514 17:32:22.982223 23370 net.cpp:148] Top shape: 48 4096 (196608)
I0514 17:32:22.982226 23370 net.cpp:156] Memory required for data: 5528125632
I0514 17:32:22.982235 23370 layer_factory.hpp:77] Creating layer relu7
I0514 17:32:22.982246 23370 net.cpp:91] Creating Layer relu7
I0514 17:32:22.982250 23370 net.cpp:425] relu7 <- fc7
I0514 17:32:22.982257 23370 net.cpp:386] relu7 -> fc7 (in-place)
I0514 17:32:22.982265 23370 net.cpp:141] Setting up relu7
I0514 17:32:22.982270 23370 net.cpp:148] Top shape: 48 4096 (196608)
I0514 17:32:22.982272 23370 net.cpp:156] Memory required for data: 5528912064
I0514 17:32:22.982275 23370 layer_factory.hpp:77] Creating layer drop7
I0514 17:32:22.982281 23370 net.cpp:91] Creating Layer drop7
I0514 17:32:22.982285 23370 net.cpp:425] drop7 <- fc7
I0514 17:32:22.982290 23370 net.cpp:386] drop7 -> fc7 (in-place)
I0514 17:32:22.982313 23370 net.cpp:141] Setting up drop7
I0514 17:32:22.982319 23370 net.cpp:148] Top shape: 48 4096 (196608)
I0514 17:32:22.982322 23370 net.cpp:156] Memory required for data: 5529698496
I0514 17:32:22.982326 23370 layer_factory.hpp:77] Creating layer kaggel_fc8
I0514 17:32:22.982332 23370 net.cpp:91] Creating Layer kaggel_fc8
I0514 17:32:22.982336 23370 net.cpp:425] kaggel_fc8 <- fc7
I0514 17:32:22.982341 23370 net.cpp:399] kaggel_fc8 -> kaggle_fc8
I0514 17:32:22.983446 23370 net.cpp:141] Setting up kaggel_fc8
I0514 17:32:22.983453 23370 net.cpp:148] Top shape: 48 10 (480)
I0514 17:32:22.983456 23370 net.cpp:156] Memory required for data: 5529700416
I0514 17:32:22.983461 23370 layer_factory.hpp:77] Creating layer loss
I0514 17:32:22.983469 23370 net.cpp:91] Creating Layer loss
I0514 17:32:22.983472 23370 net.cpp:425] loss <- kaggle_fc8
I0514 17:32:22.983476 23370 net.cpp:425] loss <- label
I0514 17:32:22.983481 23370 net.cpp:399] loss -> loss
I0514 17:32:22.983491 23370 layer_factory.hpp:77] Creating layer loss
…
I0514 17:32:22.984431 23370 net.cpp:313] The NetState phase (1) differed from the phase (0) specified by a rule in layer data
I0514 17:32:22.984601 23370 net.cpp:49] Initializing net from parameters: 
name: "VGG_ILSVRC_16_layer"
state {
  phase: TEST
}
layer {
  name: "data"
  type: "Data"
  top: "data"
  top: "label"
  include {
    phase: TEST
  }
  transform_param {
    mirror: false
    crop_size: 224
    mean_value: 104
    mean_value: 117
    mean_value: 123
  }
  data_param {
    source: "data/kaggle/kaggle_test_lmdb"
    batch_size: 40
    backend: LMDB
  }
}
layer {
  name: "conv1_1"
  type: "Convolution"
  bottom: "data"
  top: "conv1_1"
  param {
    lr_mult: 1
    decay_mult: 1
  }
  param {
    lr_mult: 2
    decay_mult: 0
  }
  convolution_param {
    num_output: 64
    pad: 1
    kernel_size: 3
  }
}
layer {
  name: "relu1_1"
  type: "ReLU"
  bottom: "conv1_1"
  top: "conv1_1"
}
layer {
  name: "conv1_2"
  type: "Convolution"
  bottom: "conv1_1"
  top: "conv1_2"
  param {
    lr_mult: 1
    decay_mult: 1
  }
  param {
    lr_mult: 2
    decay_mult: 0
  }
  convolution_param {
    num_output: 64
    pad: 1
    kernel_size: 3
  }
}
layer {
  name: "relu1_2"
  type: "ReLU"
  bottom: "conv1_2"
  top: "conv1_2"
}
layer {
  name: "pool1"
  type: "Pooling"
  bottom: "conv1_2"
  top: "pool1"
  pooling_param {
    pool: MAX
    kernel_size: 2
    stride: 2
  }
}
layer {
  name: "conv2_1"
  type: "Convolution"
  bottom: "pool1"
  top: "conv2_1"
  param {
    lr_mult: 1
    decay_mult: 1
  }
  param {
    lr_mult: 2
    decay_mult: 0
  }
  convolution_param {
    num_output: 128
    pad: 1
    kernel_size: 3
  }
}
layer {
  name: "relu2_1"
  type: "ReLU"
  bottom: "conv2_1"
  top: "conv2_1"
}
layer {
  name: "conv2_2"
  type: "Convolution"
  bottom: "conv2_1"
  top: "conv2_2"
  param {
    lr_mult: 1
    decay_mult: 1
  }
  param {
    lr_mult: 2
    decay_mult: 0
  }
  convolution_param {
    num_output: 128
    pad: 1
    kernel_size: 3
  }
}
layer {
  name: "relu2_2"
  type: "ReLU"
  bottom: "conv2_2"
  top: "conv2_2"
}
layer {
  name: "pool2"
  type: "Pooling"
  bottom: "conv2_2"
  top: "pool2"
  pooling_param {
    pool: MAX
    kernel_size: 2
    stride: 2
  }
}
layer {
  name: "conv3_1"
  type: "Convolution"
  bottom: "pool2"
  top: "conv3_1"
  param {
    lr_mult: 1
    decay_mult: 1
  }
  param {
    lr_mult: 2
    decay_mult: 0
  }
  convolution_param {
    num_output: 256
    pad: 1
    kernel_size: 3
  }
}
layer {
  name: "relu3_1"
  type: "ReLU"
  bottom: "conv3_1"
  top: "conv3_1"
}
layer {
  name: "conv3_2"
  type: "Convolution"
  bottom: "conv3_1"
  top: "conv3_2"
  param {
    lr_mult: 1
    decay_mult: 1
  }
  param {
    lr_mult: 2
    decay_mult: 0
  }
  convolution_param {
    num_output: 256
    pad: 1
    kernel_size: 3
  }
}
layer {
  name: "relu3_2"
  type: "ReLU"
  bottom: "conv3_2"
  top: "conv3_2"
}
layer {
  name: "conv3_3"
  type: "Convolution"
  bottom: "conv3_2"
  top: "conv3_3"
  param {
    lr_mult: 1
    decay_mult: 1
  }
  param {
    lr_mult: 2
    decay_mult: 0
  }
  convolution_param {
    num_output: 256
    pad: 1
    kernel_size: 3
  }
}
layer {
  name: "relu3_3"
  type: "ReLU"
  bottom: "conv3_3"
  top: "conv3_3"
}
layer {
  name: "pool3"
  type: "Pooling"
  bottom: "conv3_3"
  top: "pool3"
  pooling_param {
    pool: MAX
    kernel_size: 2
    stride: 2
  }
}
layer {
  name: "conv4_1"
  type: "Convolution"
  bottom: "pool3"
  top: "conv4_1"
  param {
    lr_mult: 1
    decay_mult: 1
  }
  param {
    lr_mult: 2
    decay_mult: 0
  }
  convolution_param {
    num_output: 512
    pad: 1
    kernel_size: 3
  }
}
layer {
  name: "relu4_1"
  type: "ReLU"
  bottom: "conv4_1"
  top: "conv4_1"
}
layer {
  name: "conv4_2"
  type: "Convolution"
  bottom: "conv4_1"
  top: "conv4_2"
  param {
    lr_mult: 1
    decay_mult: 1
  }
  param {
    lr_mult: 2
    decay_mult: 0
  }
  convolution_param {
    num_output: 512
    pad: 1
    kernel_size: 3
  }
}
layer {
  name: "relu4_2"
  type: "ReLU"
  bottom: "conv4_2"
  top: "conv4_2"
}
layer {
  name: "conv4_3"
  type: "Convolution"
  bottom: "conv4_2"
  top: "conv4_3"
  param {
    lr_mult: 1
    decay_mult: 1
  }
  param {
    lr_mult: 2
    decay_mult: 0
  }
  convolution_param {
    num_output: 512
    pad: 1
    kernel_size: 3
  }
}
layer {
  name: "relu4_3"
  type: "ReLU"
  bottom: "conv4_3"
  top: "conv4_3"
}
layer {
  name: "pool4"
  type: "Pooling"
  bottom: "conv4_3"
  top: "pool4"
  pooling_param {
    pool: MAX
    kernel_size: 2
    stride: 2
  }
}
layer {
  name: "conv5_1"
  type: "Convolution"
  bottom: "pool4"
  top: "conv5_1"
  param {
    lr_mult: 1
    decay_mult: 1
  }
  param {
    lr_mult: 2
    decay_mult: 0
  }
  convolution_param {
    num_output: 512
    pad: 1
    kernel_size: 3
  }
}
layer {
  name: "relu5_1"
  type: "ReLU"
  bottom: "conv5_1"
  top: "conv5_1"
}
layer {
  name: "conv5_2"
  type: "Convolution"
  bottom: "conv5_1"
  top: "conv5_2"
  param {
    lr_mult: 1
    decay_mult: 1
  }
  param {
    lr_mult: 2
    decay_mult: 0
  }
  convolution_param {
    num_output: 512
    pad: 1
    kernel_size: 3
  }
}
layer {
  name: "relu5_2"
  type: "ReLU"
  bottom: "conv5_2"
  top: "conv5_2"
}
layer {
  name: "conv5_3"
  type: "Convolution"
  bottom: "conv5_2"
  top: "conv5_3"
  param {
    lr_mult: 1
    decay_mult: 1
  }
  param {
    lr_mult: 2
    decay_mult: 0
  }
  convolution_param {
    num_output: 512
    pad: 1
    kernel_size: 3
  }
}
layer {
  name: "relu5_3"
  type: "ReLU"
  bottom: "conv5_3"
  top: "conv5_3"
}
layer {
  name: "pool5"
  type: "Pooling"
  bottom: "conv5_3"
  top: "pool5"
  pooling_param {
    pool: MAX
    kernel_size: 2
    stride: 2
  }
}
layer {
  name: "fc6"
  type: "InnerProduct"
  bottom: "pool5"
  top: "fc6"
  param {
    lr_mult: 1
    decay_mult: 1
  }
  param {
    lr_mult: 2
    decay_mult: 0
  }
  inner_product_param {
    num_output: 4096
  }
}
layer {
  name: "relu6"
  type: "ReLU"
  bottom: "fc6"
  top: "fc6"
}
layer {
  name: "drop6"
  type: "Dropout"
  bottom: "fc6"
  top: "fc6"
  dropout_param {
    dropout_ratio: 0.5
  }
}
layer {
  name: "fc7"
  type: "InnerProduct"
  bottom: "fc6"
  top: "fc7"
  param {
    lr_mult: 1
    decay_mult: 1
  }
  param {
    lr_mult: 2
    decay_mult: 0
  }
  inner_product_param {
    num_output: 4096
  }
}
layer {
  name: "relu7"
  type: "ReLU"
  bottom: "fc7"
  top: "fc7"
}
layer {
  name: "drop7"
  type: "Dropout"
  bottom: "fc7"
  top: "fc7"
  dropout_param {
    dropout_ratio: 0.5
  }
}
layer {
  name: "kaggel_fc8"
  type: "InnerProduct"
  bottom: "fc7"
  top: "kaggle_fc8"
  param {
    lr_mult: 10
    decay_mult: 1
  }
  param {
    lr_mult: 20
    decay_mult: 0
  }
  inner_product_param {
    num_output: 10
    weight_filler {
      type: "gaussian"
      std: 0.01
    }
    bias_filler {
      type: "constant"
      value: 0
    }
  }
}
layer {
  name: "loss"
  type: "SoftmaxWithLoss"
  bottom: "kaggle_fc8"
  bottom: "label"
  top: "loss"
}
layer {
  name: "accuracy"
  type: "Accuracy"
  bottom: "kaggle_fc8"
  bottom: "label"
  top: "accuracy"
  include {
    phase: TEST
  }
}
I0514 17:32:22.984735 23370 layer_factory.hpp:77] Creating layer data
I0514 17:32:22.984807 23370 net.cpp:91] Creating Layer data
I0514 17:32:22.984815 23370 net.cpp:399] data -> data
I0514 17:32:22.984823 23370 net.cpp:399] data -> label
I0514 17:32:22.985769 23375 db_lmdb.cpp:35] Opened lmdb data/kaggle/kaggle_test_lmdb
I0514 17:32:22.986131 23370 data_layer.cpp:41] output data size: 40,3,224,224
I0514 17:32:23.016942 23370 net.cpp:141] Setting up data
I0514 17:32:23.016978 23370 net.cpp:148] Top shape: 40 3 224 224 (6021120)
I0514 17:32:23.016984 23370 net.cpp:148] Top shape: 40 (40)
I0514 17:32:23.016988 23370 net.cpp:156] Memory required for data: 24084640
I0514 17:32:23.016993 23370 layer_factory.hpp:77] Creating layer label_data_1_split
I0514 17:32:23.017005 23370 net.cpp:91] Creating Layer label_data_1_split
I0514 17:32:23.017009 23370 net.cpp:425] label_data_1_split <- label
I0514 17:32:23.017015 23370 net.cpp:399] label_data_1_split -> label_data_1_split_0
I0514 17:32:23.017024 23370 net.cpp:399] label_data_1_split -> label_data_1_split_1
I0514 17:32:23.017118 23370 net.cpp:141] Setting up label_data_1_split
I0514 17:32:23.017127 23370 net.cpp:148] Top shape: 40 (40)
I0514 17:32:23.017130 23370 net.cpp:148] Top shape: 40 (40)
I0514 17:32:23.017133 23370 net.cpp:156] Memory required for data: 24084960
I0514 17:32:23.017137 23370 layer_factory.hpp:77] Creating layer conv1_1
I0514 17:32:23.017148 23370 net.cpp:91] Creating Layer conv1_1
I0514 17:32:23.017153 23370 net.cpp:425] conv1_1 <- data
I0514 17:32:23.017158 23370 net.cpp:399] conv1_1 -> conv1_1
I0514 17:32:23.017381 23370 net.cpp:141] Setting up conv1_1
I0514 17:32:23.017390 23370 net.cpp:148] Top shape: 40 64 224 224 (128450560)
I0514 17:32:23.017393 23370 net.cpp:156] Memory required for data: 537887200
I0514 17:32:23.017402 23370 layer_factory.hpp:77] Creating layer relu1_1
I0514 17:32:23.017410 23370 net.cpp:91] Creating Layer relu1_1
I0514 17:32:23.017415 23370 net.cpp:425] relu1_1 <- conv1_1
I0514 17:32:23.017418 23370 net.cpp:386] relu1_1 -> conv1_1 (in-place)
I0514 17:32:23.017424 23370 net.cpp:141] Setting up relu1_1
I0514 17:32:23.017428 23370 net.cpp:148] Top shape: 40 64 224 224 (128450560)
I0514 17:32:23.017431 23370 net.cpp:156] Memory required for data: 1051689440
I0514 17:32:23.017434 23370 layer_factory.hpp:77] Creating layer conv1_2
I0514 17:32:23.017442 23370 net.cpp:91] Creating Layer conv1_2
I0514 17:32:23.017446 23370 net.cpp:425] conv1_2 <- conv1_1
I0514 17:32:23.017451 23370 net.cpp:399] conv1_2 -> conv1_2
I0514 17:32:23.018084 23370 net.cpp:141] Setting up conv1_2
I0514 17:32:23.018097 23370 net.cpp:148] Top shape: 40 64 224 224 (128450560)
I0514 17:32:23.018101 23370 net.cpp:156] Memory required for data: 1565491680
I0514 17:32:23.018110 23370 layer_factory.hpp:77] Creating layer relu1_2
I0514 17:32:23.018116 23370 net.cpp:91] Creating Layer relu1_2
I0514 17:32:23.018120 23370 net.cpp:425] relu1_2 <- conv1_2
I0514 17:32:23.018131 23370 net.cpp:386] relu1_2 -> conv1_2 (in-place)
I0514 17:32:23.018138 23370 net.cpp:141] Setting up relu1_2
I0514 17:32:23.018142 23370 net.cpp:148] Top shape: 40 64 224 224 (128450560)
I0514 17:32:23.018146 23370 net.cpp:156] Memory required for data: 2079293920
I0514 17:32:23.018148 23370 layer_factory.hpp:77] Creating layer pool1
I0514 17:32:23.018156 23370 net.cpp:91] Creating Layer pool1
I0514 17:32:23.018158 23370 net.cpp:425] pool1 <- conv1_2
I0514 17:32:23.018164 23370 net.cpp:399] pool1 -> pool1
I0514 17:32:23.020025 23370 net.cpp:141] Setting up pool1
I0514 17:32:23.020061 23370 net.cpp:148] Top shape: 40 64 112 112 (32112640)
I0514 17:32:23.020069 23370 net.cpp:156] Memory required for data: 2207744480
I0514 17:32:23.020093 23370 layer_factory.hpp:77] Creating layer conv2_1
I0514 17:32:23.020130 23370 net.cpp:91] Creating Layer conv2_1
I0514 17:32:23.020140 23370 net.cpp:425] conv2_1 <- pool1
I0514 17:32:23.020165 23370 net.cpp:399] conv2_1 -> conv2_1
I0514 17:32:23.020762 23370 net.cpp:141] Setting up conv2_1
I0514 17:32:23.020776 23370 net.cpp:148] Top shape: 40 128 112 112 (64225280)
I0514 17:32:23.020779 23370 net.cpp:156] Memory required for data: 2464645600
I0514 17:32:23.020787 23370 layer_factory.hpp:77] Creating layer relu2_1
I0514 17:32:23.020794 23370 net.cpp:91] Creating Layer relu2_1
I0514 17:32:23.020798 23370 net.cpp:425] relu2_1 <- conv2_1
I0514 17:32:23.020804 23370 net.cpp:386] relu2_1 -> conv2_1 (in-place)
I0514 17:32:23.020810 23370 net.cpp:141] Setting up relu2_1
I0514 17:32:23.020814 23370 net.cpp:148] Top shape: 40 128 112 112 (64225280)
I0514 17:32:23.020817 23370 net.cpp:156] Memory required for data: 2721546720
I0514 17:32:23.020820 23370 layer_factory.hpp:77] Creating layer conv2_2
I0514 17:32:23.020828 23370 net.cpp:91] Creating Layer conv2_2
I0514 17:32:23.020831 23370 net.cpp:425] conv2_2 <- conv2_1
I0514 17:32:23.020835 23370 net.cpp:399] conv2_2 -> conv2_2
I0514 17:32:23.021085 23370 net.cpp:141] Setting up conv2_2
I0514 17:32:23.021092 23370 net.cpp:148] Top shape: 40 128 112 112 (64225280)
I0514 17:32:23.021095 23370 net.cpp:156] Memory required for data: 2978447840
I0514 17:32:23.021100 23370 layer_factory.hpp:77] Creating layer relu2_2
I0514 17:32:23.021106 23370 net.cpp:91] Creating Layer relu2_2
I0514 17:32:23.021109 23370 net.cpp:425] relu2_2 <- conv2_2
I0514 17:32:23.021116 23370 net.cpp:386] relu2_2 -> conv2_2 (in-place)
I0514 17:32:23.021121 23370 net.cpp:141] Setting up relu2_2
I0514 17:32:23.021124 23370 net.cpp:148] Top shape: 40 128 112 112 (64225280)
I0514 17:32:23.021127 23370 net.cpp:156] Memory required for data: 3235348960
I0514 17:32:23.021131 23370 layer_factory.hpp:77] Creating layer pool2
I0514 17:32:23.021136 23370 net.cpp:91] Creating Layer pool2
I0514 17:32:23.021138 23370 net.cpp:425] pool2 <- conv2_2
I0514 17:32:23.021142 23370 net.cpp:399] pool2 -> pool2
I0514 17:32:23.021173 23370 net.cpp:141] Setting up pool2
I0514 17:32:23.021179 23370 net.cpp:148] Top shape: 40 128 56 56 (16056320)
I0514 17:32:23.021181 23370 net.cpp:156] Memory required for data: 3299574240
I0514 17:32:23.021185 23370 layer_factory.hpp:77] Creating layer conv3_1
I0514 17:32:23.021193 23370 net.cpp:91] Creating Layer conv3_1
I0514 17:32:23.021195 23370 net.cpp:425] conv3_1 <- pool2
I0514 17:32:23.021200 23370 net.cpp:399] conv3_1 -> conv3_1
I0514 17:32:23.021896 23370 net.cpp:141] Setting up conv3_1
I0514 17:32:23.021908 23370 net.cpp:148] Top shape: 40 256 56 56 (32112640)
I0514 17:32:23.021911 23370 net.cpp:156] Memory required for data: 3428024800
I0514 17:32:23.021920 23370 layer_factory.hpp:77] Creating layer relu3_1
I0514 17:32:23.021925 23370 net.cpp:91] Creating Layer relu3_1
I0514 17:32:23.021929 23370 net.cpp:425] relu3_1 <- conv3_1
I0514 17:32:23.021934 23370 net.cpp:386] relu3_1 -> conv3_1 (in-place)
I0514 17:32:23.021939 23370 net.cpp:141] Setting up relu3_1
I0514 17:32:23.021944 23370 net.cpp:148] Top shape: 40 256 56 56 (32112640)
I0514 17:32:23.021946 23370 net.cpp:156] Memory required for data: 3556475360
I0514 17:32:23.021950 23370 layer_factory.hpp:77] Creating layer conv3_2
I0514 17:32:23.021956 23370 net.cpp:91] Creating Layer conv3_2
I0514 17:32:23.021960 23370 net.cpp:425] conv3_2 <- conv3_1
I0514 17:32:23.021965 23370 net.cpp:399] conv3_2 -> conv3_2
I0514 17:32:23.023077 23370 net.cpp:141] Setting up conv3_2
I0514 17:32:23.023089 23370 net.cpp:148] Top shape: 40 256 56 56 (32112640)
I0514 17:32:23.023093 23370 net.cpp:156] Memory required for data: 3684925920
I0514 17:32:23.023099 23370 layer_factory.hpp:77] Creating layer relu3_2
I0514 17:32:23.023104 23370 net.cpp:91] Creating Layer relu3_2
I0514 17:32:23.023108 23370 net.cpp:425] relu3_2 <- conv3_2
I0514 17:32:23.023113 23370 net.cpp:386] relu3_2 -> conv3_2 (in-place)
I0514 17:32:23.023120 23370 net.cpp:141] Setting up relu3_2
I0514 17:32:23.023129 23370 net.cpp:148] Top shape: 40 256 56 56 (32112640)
I0514 17:32:23.023138 23370 net.cpp:156] Memory required for data: 3813376480
I0514 17:32:23.023141 23370 layer_factory.hpp:77] Creating layer conv3_3
I0514 17:32:23.023149 23370 net.cpp:91] Creating Layer conv3_3
I0514 17:32:23.023152 23370 net.cpp:425] conv3_3 <- conv3_2
I0514 17:32:23.023157 23370 net.cpp:399] conv3_3 -> conv3_3
I0514 17:32:23.024240 23370 net.cpp:141] Setting up conv3_3
I0514 17:32:23.024250 23370 net.cpp:148] Top shape: 40 256 56 56 (32112640)
I0514 17:32:23.024255 23370 net.cpp:156] Memory required for data: 3941827040
I0514 17:32:23.024260 23370 layer_factory.hpp:77] Creating layer relu3_3
I0514 17:32:23.024266 23370 net.cpp:91] Creating Layer relu3_3
I0514 17:32:23.024268 23370 net.cpp:425] relu3_3 <- conv3_3
I0514 17:32:23.024273 23370 net.cpp:386] relu3_3 -> conv3_3 (in-place)
I0514 17:32:23.024279 23370 net.cpp:141] Setting up relu3_3
I0514 17:32:23.024283 23370 net.cpp:148] Top shape: 40 256 56 56 (32112640)
I0514 17:32:23.024286 23370 net.cpp:156] Memory required for data: 4070277600
I0514 17:32:23.024289 23370 layer_factory.hpp:77] Creating layer pool3
I0514 17:32:23.024294 23370 net.cpp:91] Creating Layer pool3
I0514 17:32:23.024296 23370 net.cpp:425] pool3 <- conv3_3
I0514 17:32:23.024302 23370 net.cpp:399] pool3 -> pool3
I0514 17:32:23.024332 23370 net.cpp:141] Setting up pool3
I0514 17:32:23.024338 23370 net.cpp:148] Top shape: 40 256 28 28 (8028160)
I0514 17:32:23.024340 23370 net.cpp:156] Memory required for data: 4102390240
I0514 17:32:23.024343 23370 layer_factory.hpp:77] Creating layer conv4_1
I0514 17:32:23.024349 23370 net.cpp:91] Creating Layer conv4_1
I0514 17:32:23.024353 23370 net.cpp:425] conv4_1 <- pool3
I0514 17:32:23.024371 23370 net.cpp:399] conv4_1 -> conv4_1
I0514 17:32:23.026278 23370 net.cpp:141] Setting up conv4_1
I0514 17:32:23.026290 23370 net.cpp:148] Top shape: 40 512 28 28 (16056320)
I0514 17:32:23.026293 23370 net.cpp:156] Memory required for data: 4166615520
I0514 17:32:23.026299 23370 layer_factory.hpp:77] Creating layer relu4_1
I0514 17:32:23.026305 23370 net.cpp:91] Creating Layer relu4_1
I0514 17:32:23.026309 23370 net.cpp:425] relu4_1 <- conv4_1
I0514 17:32:23.026314 23370 net.cpp:386] relu4_1 -> conv4_1 (in-place)
I0514 17:32:23.026319 23370 net.cpp:141] Setting up relu4_1
I0514 17:32:23.026324 23370 net.cpp:148] Top shape: 40 512 28 28 (16056320)
I0514 17:32:23.026326 23370 net.cpp:156] Memory required for data: 4230840800
I0514 17:32:23.026329 23370 layer_factory.hpp:77] Creating layer conv4_2
I0514 17:32:23.026336 23370 net.cpp:91] Creating Layer conv4_2
I0514 17:32:23.026340 23370 net.cpp:425] conv4_2 <- conv4_1
I0514 17:32:23.026345 23370 net.cpp:399] conv4_2 -> conv4_2
I0514 17:32:23.030021 23370 net.cpp:141] Setting up conv4_2
I0514 17:32:23.030045 23370 net.cpp:148] Top shape: 40 512 28 28 (16056320)
I0514 17:32:23.030048 23370 net.cpp:156] Memory required for data: 4295066080
I0514 17:32:23.030061 23370 layer_factory.hpp:77] Creating layer relu4_2
I0514 17:32:23.030069 23370 net.cpp:91] Creating Layer relu4_2
I0514 17:32:23.030073 23370 net.cpp:425] relu4_2 <- conv4_2
I0514 17:32:23.030081 23370 net.cpp:386] relu4_2 -> conv4_2 (in-place)
I0514 17:32:23.030087 23370 net.cpp:141] Setting up relu4_2
I0514 17:32:23.030092 23370 net.cpp:148] Top shape: 40 512 28 28 (16056320)
I0514 17:32:23.030094 23370 net.cpp:156] Memory required for data: 4359291360
I0514 17:32:23.030097 23370 layer_factory.hpp:77] Creating layer conv4_3
I0514 17:32:23.030104 23370 net.cpp:91] Creating Layer conv4_3
I0514 17:32:23.030107 23370 net.cpp:425] conv4_3 <- conv4_2
I0514 17:32:23.030112 23370 net.cpp:399] conv4_3 -> conv4_3
I0514 17:32:23.033946 23370 net.cpp:141] Setting up conv4_3
I0514 17:32:23.033973 23370 net.cpp:148] Top shape: 40 512 28 28 (16056320)
I0514 17:32:23.033977 23370 net.cpp:156] Memory required for data: 4423516640
I0514 17:32:23.033983 23370 layer_factory.hpp:77] Creating layer relu4_3
I0514 17:32:23.033992 23370 net.cpp:91] Creating Layer relu4_3
I0514 17:32:23.034003 23370 net.cpp:425] relu4_3 <- conv4_3
I0514 17:32:23.034015 23370 net.cpp:386] relu4_3 -> conv4_3 (in-place)
I0514 17:32:23.034024 23370 net.cpp:141] Setting up relu4_3
I0514 17:32:23.034027 23370 net.cpp:148] Top shape: 40 512 28 28 (16056320)
I0514 17:32:23.034030 23370 net.cpp:156] Memory required for data: 4487741920
I0514 17:32:23.034034 23370 layer_factory.hpp:77] Creating layer pool4
I0514 17:32:23.034040 23370 net.cpp:91] Creating Layer pool4
I0514 17:32:23.034044 23370 net.cpp:425] pool4 <- conv4_3
I0514 17:32:23.034049 23370 net.cpp:399] pool4 -> pool4
I0514 17:32:23.034083 23370 net.cpp:141] Setting up pool4
I0514 17:32:23.034090 23370 net.cpp:148] Top shape: 40 512 14 14 (4014080)
I0514 17:32:23.034091 23370 net.cpp:156] Memory required for data: 4503798240
I0514 17:32:23.034095 23370 layer_factory.hpp:77] Creating layer conv5_1
I0514 17:32:23.034102 23370 net.cpp:91] Creating Layer conv5_1
I0514 17:32:23.034106 23370 net.cpp:425] conv5_1 <- pool4
I0514 17:32:23.034111 23370 net.cpp:399] conv5_1 -> conv5_1
I0514 17:32:23.037814 23370 net.cpp:141] Setting up conv5_1
I0514 17:32:23.037838 23370 net.cpp:148] Top shape: 40 512 14 14 (4014080)
I0514 17:32:23.037842 23370 net.cpp:156] Memory required for data: 4519854560
I0514 17:32:23.037848 23370 layer_factory.hpp:77] Creating layer relu5_1
I0514 17:32:23.037855 23370 net.cpp:91] Creating Layer relu5_1
I0514 17:32:23.037860 23370 net.cpp:425] relu5_1 <- conv5_1
I0514 17:32:23.037866 23370 net.cpp:386] relu5_1 -> conv5_1 (in-place)
I0514 17:32:23.037873 23370 net.cpp:141] Setting up relu5_1
I0514 17:32:23.037878 23370 net.cpp:148] Top shape: 40 512 14 14 (4014080)
I0514 17:32:23.037881 23370 net.cpp:156] Memory required for data: 4535910880
I0514 17:32:23.037884 23370 layer_factory.hpp:77] Creating layer conv5_2
I0514 17:32:23.037890 23370 net.cpp:91] Creating Layer conv5_2
I0514 17:32:23.037894 23370 net.cpp:425] conv5_2 <- conv5_1
I0514 17:32:23.037899 23370 net.cpp:399] conv5_2 -> conv5_2
I0514 17:32:23.041713 23370 net.cpp:141] Setting up conv5_2
I0514 17:32:23.041738 23370 net.cpp:148] Top shape: 40 512 14 14 (4014080)
I0514 17:32:23.041740 23370 net.cpp:156] Memory required for data: 4551967200
I0514 17:32:23.041746 23370 layer_factory.hpp:77] Creating layer relu5_2
I0514 17:32:23.041754 23370 net.cpp:91] Creating Layer relu5_2
I0514 17:32:23.041759 23370 net.cpp:425] relu5_2 <- conv5_2
I0514 17:32:23.041764 23370 net.cpp:386] relu5_2 -> conv5_2 (in-place)
I0514 17:32:23.041770 23370 net.cpp:141] Setting up relu5_2
I0514 17:32:23.041774 23370 net.cpp:148] Top shape: 40 512 14 14 (4014080)
I0514 17:32:23.041777 23370 net.cpp:156] Memory required for data: 4568023520
I0514 17:32:23.041780 23370 layer_factory.hpp:77] Creating layer conv5_3
I0514 17:32:23.041788 23370 net.cpp:91] Creating Layer conv5_3
I0514 17:32:23.041791 23370 net.cpp:425] conv5_3 <- conv5_2
I0514 17:32:23.041796 23370 net.cpp:399] conv5_3 -> conv5_3
I0514 17:32:23.045594 23370 net.cpp:141] Setting up conv5_3
I0514 17:32:23.045619 23370 net.cpp:148] Top shape: 40 512 14 14 (4014080)
I0514 17:32:23.045621 23370 net.cpp:156] Memory required for data: 4584079840
I0514 17:32:23.045629 23370 layer_factory.hpp:77] Creating layer relu5_3
I0514 17:32:23.045637 23370 net.cpp:91] Creating Layer relu5_3
I0514 17:32:23.045641 23370 net.cpp:425] relu5_3 <- conv5_3
I0514 17:32:23.045646 23370 net.cpp:386] relu5_3 -> conv5_3 (in-place)
I0514 17:32:23.045653 23370 net.cpp:141] Setting up relu5_3
I0514 17:32:23.045657 23370 net.cpp:148] Top shape: 40 512 14 14 (4014080)
I0514 17:32:23.045660 23370 net.cpp:156] Memory required for data: 4600136160
I0514 17:32:23.045662 23370 layer_factory.hpp:77] Creating layer pool5
I0514 17:32:23.045673 23370 net.cpp:91] Creating Layer pool5
I0514 17:32:23.045676 23370 net.cpp:425] pool5 <- conv5_3
I0514 17:32:23.045681 23370 net.cpp:399] pool5 -> pool5
I0514 17:32:23.045719 23370 net.cpp:141] Setting up pool5
I0514 17:32:23.045725 23370 net.cpp:148] Top shape: 40 512 7 7 (1003520)
I0514 17:32:23.045728 23370 net.cpp:156] Memory required for data: 4604150240
I0514 17:32:23.045738 23370 layer_factory.hpp:77] Creating layer fc6
I0514 17:32:23.045754 23370 net.cpp:91] Creating Layer fc6
I0514 17:32:23.045758 23370 net.cpp:425] fc6 <- pool5
I0514 17:32:23.045763 23370 net.cpp:399] fc6 -> fc6
I0514 17:32:23.227351 23370 net.cpp:141] Setting up fc6
I0514 17:32:23.227385 23370 net.cpp:148] Top shape: 40 4096 (163840)
I0514 17:32:23.227388 23370 net.cpp:156] Memory required for data: 4604805600
I0514 17:32:23.227397 23370 layer_factory.hpp:77] Creating layer relu6
I0514 17:32:23.227406 23370 net.cpp:91] Creating Layer relu6
I0514 17:32:23.227411 23370 net.cpp:425] relu6 <- fc6
I0514 17:32:23.227418 23370 net.cpp:386] relu6 -> fc6 (in-place)
I0514 17:32:23.227427 23370 net.cpp:141] Setting up relu6
I0514 17:32:23.227432 23370 net.cpp:148] Top shape: 40 4096 (163840)
I0514 17:32:23.227434 23370 net.cpp:156] Memory required for data: 4605460960
I0514 17:32:23.227437 23370 layer_factory.hpp:77] Creating layer drop6
I0514 17:32:23.227443 23370 net.cpp:91] Creating Layer drop6
I0514 17:32:23.227447 23370 net.cpp:425] drop6 <- fc6
I0514 17:32:23.227450 23370 net.cpp:386] drop6 -> fc6 (in-place)
I0514 17:32:23.227475 23370 net.cpp:141] Setting up drop6
I0514 17:32:23.227480 23370 net.cpp:148] Top shape: 40 4096 (163840)
I0514 17:32:23.227483 23370 net.cpp:156] Memory required for data: 4606116320
I0514 17:32:23.227486 23370 layer_factory.hpp:77] Creating layer fc7
I0514 17:32:23.227493 23370 net.cpp:91] Creating Layer fc7
I0514 17:32:23.227495 23370 net.cpp:425] fc7 <- fc6
I0514 17:32:23.227500 23370 net.cpp:399] fc7 -> fc7
I0514 17:32:23.257174 23370 net.cpp:141] Setting up fc7
I0514 17:32:23.257207 23370 net.cpp:148] Top shape: 40 4096 (163840)
I0514 17:32:23.257211 23370 net.cpp:156] Memory required for data: 4606771680
I0514 17:32:23.257221 23370 layer_factory.hpp:77] Creating layer relu7
I0514 17:32:23.257231 23370 net.cpp:91] Creating Layer relu7
I0514 17:32:23.257236 23370 net.cpp:425] relu7 <- fc7
I0514 17:32:23.257243 23370 net.cpp:386] relu7 -> fc7 (in-place)
I0514 17:32:23.257252 23370 net.cpp:141] Setting up relu7
I0514 17:32:23.257256 23370 net.cpp:148] Top shape: 40 4096 (163840)
I0514 17:32:23.257258 23370 net.cpp:156] Memory required for data: 4607427040
I0514 17:32:23.257261 23370 layer_factory.hpp:77] Creating layer drop7
I0514 17:32:23.257267 23370 net.cpp:91] Creating Layer drop7
I0514 17:32:23.257272 23370 net.cpp:425] drop7 <- fc7
I0514 17:32:23.257277 23370 net.cpp:386] drop7 -> fc7 (in-place)
I0514 17:32:23.257302 23370 net.cpp:141] Setting up drop7
I0514 17:32:23.257308 23370 net.cpp:148] Top shape: 40 4096 (163840)
I0514 17:32:23.257310 23370 net.cpp:156] Memory required for data: 4608082400
I0514 17:32:23.257313 23370 layer_factory.hpp:77] Creating layer kaggel_fc8
I0514 17:32:23.257323 23370 net.cpp:91] Creating Layer kaggel_fc8
I0514 17:32:23.257325 23370 net.cpp:425] kaggel_fc8 <- fc7
I0514 17:32:23.257331 23370 net.cpp:399] kaggel_fc8 -> kaggle_fc8
I0514 17:32:23.258416 23370 net.cpp:141] Setting up kaggel_fc8
I0514 17:32:23.258424 23370 net.cpp:148] Top shape: 40 10 (400)
I0514 17:32:23.258426 23370 net.cpp:156] Memory required for data: 4608084000
I0514 17:32:23.258432 23370 layer_factory.hpp:77] Creating layer kaggle_fc8_kaggel_fc8_0_split
I0514 17:32:23.258440 23370 net.cpp:91] Creating Layer kaggle_fc8_kaggel_fc8_0_split
I0514 17:32:23.258442 23370 net.cpp:425] kaggle_fc8_kaggel_fc8_0_split <- kaggle_fc8
I0514 17:32:23.258446 23370 net.cpp:399] kaggle_fc8_kaggel_fc8_0_split -> kaggle_fc8_kaggel_fc8_0_split_0
I0514 17:32:23.258452 23370 net.cpp:399] kaggle_fc8_kaggel_fc8_0_split -> kaggle_fc8_kaggel_fc8_0_split_1
I0514 17:32:23.258481 23370 net.cpp:141] Setting up kaggle_fc8_kaggel_fc8_0_split
I0514 17:32:23.258486 23370 net.cpp:148] Top shape: 40 10 (400)
I0514 17:32:23.258489 23370 net.cpp:148] Top shape: 40 10 (400)
I0514 17:32:23.258492 23370 net.cpp:156] Memory required for data: 4608087200
I0514 17:32:23.258496 23370 layer_factory.hpp:77] Creating layer loss
I0514 17:32:23.258501 23370 net.cpp:91] Creating Layer loss
I0514 17:32:23.258503 23370 net.cpp:425] loss <- kaggle_fc8_kaggel_fc8_0_split_0
I0514 17:32:23.258523 23370 net.cpp:425] loss <- label_data_1_split_0
I0514 17:32:23.258530 23370 net.cpp:399] loss -> loss
…
